Project/Assets/classwork_mar28_JG/RollerBall.onnx (onnx, 75401 bytes, 8 tensors)

action_model._continuous_distribution.log_sigma f4 [1, 2]
00000000: 665f 28bf 27f3 27bf
-0.65770566 -0.65605396

action_model._continuous_distribution.mu.bias f4 [2]
00000000: 0a4e 263b 2ab4 d7bc
0.0025376105 -0.026331026

action_model._continuous_distribution.mu.weight f4 [2, 128]
00000000: 4103 943d 9dd8 8a3d 2151 473b 8a9e 58bb
00000010: 8837 a93d 6c61 f8bc be7a 0bba 1caa 8cbb
00000020: 5c20 073d 87f3 d0bb 8d6f 32bc ba19 81bc
00000030: d9d4 b33d 2802 7c3c f983 d53c 4450 13bc
00000040: 2987 a13d aa24 dbbc a1fc e33b 9ff9 643c
00000050: 0d2a 983d 0a7d 19bd 79bf d93c 5d34 c4bd
00000060: cdb9 1b3d b612 73bc 6de3 90bc 40c9 fd3b
00000070: 6973 f33c f090 1bbd ea6c bf3d 67b0 23bd
00000080: 5510 e4bd 5f16 803d 1d4b bfbc 3e00 ecbd
00000090: 42f9 49bc cc53 833c 2cbc 3bbc cd8a b9bc
000000a0: ea2b e6bd f6fa d3bc 97c5 303d 7293 06be
000000b0: 7cf4 4fbc 8bf2 63bd 7501 ebbd 44ef 543d
000000c0: a6e6 9c3c 9d8d 9f3d ce51 a53c 5932 b6bd
000000d0: ed3a b4bc b914 853d bcdd 87bc 3f7e 4cbd
000000e0: 1d56 6bbd cfe6 77bd 03c5 8d3d 90e3 173d
000000f0: 35f5 783d 4186 14bd 29ca 023d 564f 57bc
00000100: 81d7 013c 0b5f 33be 1cee 403c a7ab 103d
00000110: f4f9 32bc ad89 b83b 155d a23d 0e92 30bd
00000120: c5f2 b53d 7e9d c23d 53ae 00be e742 c13c
00000130: e682 fabc 0680 423c 7716 c4bc ff46 95bd
00000140: 4860 6cbd bd6a d0bc 2da1 c93d a91c c13d
00000150: d233 0f3e 00cd d83d ddb8 873c 8567 cdbd
00000160: 001e 9d3d ec4b 393d 6478 3bbd 1504 afbc
00000170: 848b 8a3d 69dc 0bbe 9f38 ebbd 0a3a a1bb
00000180: 7742 123d 6c95 cf3c 6d28 9b3d 6161 56bd
00000190: f366 823c 33cc ba3b 732d 60bd af7d 253d
000001a0: 51ca 423d a7c6 c43c 9cc8 8fbd 9141 4c3d
000001b0: afe4 c5bd 03ae d4bd 79eb 26bd 8653 433e
000001c0: 61da 4bbc 2228 30bd a926 c83c 31a9 4e3d
000001d0: d4cb 00bc 6c65 d1bd 1282 ae3d 4495 613d
000001e0: babf d63c 6dd0 f13c 60b7 1dbe b826 e1bb
000001f0: 6d58 203d 45f6 44bd 2c7f c93d 1dd9 e93c
00000200: 9677 98ba 7eca 2f3d 1880 8a3d 0ced 1c3d
00000210: f226 b6bc cb4b 96bd 3d1a be3d a1d9 e63d
00000220: 1e72 c6ba ca5e ce3b 7b48 e03d 300c e53c
00000230: c28e d03c cb02 2b3d 96dc 943d 7e89 893d
00000240: 150f 08bd 4ca6 ad3d 5276 9d3d 5b6e fbbd
00000250: 50f9 623d c478 ab3d 0567 eabd 92e5 533d
00000260: 853c db3d be2a 843d e3c0 863d 6249 083e
00000270: d295 073d a2fd df3c b0b8 3ebd 9fc6 463d
00000280: 8530 54bd 5262 75bd 8fb2 d8bd aa3a 1fbe
00000290: 06e2 453c 1afa be3b 764d 11bc 49a4 f4bd
000002a0: 742e fe3c c76f 00bc 3bf3 103d 5b96 95bb
000002b0: 5e11 683d b4f8 33bd 1ba8 78bd bdff 2ebd
000002c0: db77 a23d a5a0 d6bb e608 793d 8a84 8abd
000002d0: efad 0fbc de40 9d3c b567 03bd a9ad 263c
000002e0: 3213 833d 72b1 76bc 4669 febc 418a 163d
000002f0: 397b b4bd 7938 733c 0e72 503d ba34 d7bc
00000300: bccc 3dbd af2d eb3c 26db 26bd e18c e6bd
00000310: 4731 40bd 21f3 193d 601b 593c 73c5 863d
00000320: 4146 ee3c b6cd a7bc 23e5 c4bc d1d1 453d
00000330: 80eb 0abc 6b76 a6bd 3080 973d 339b 953c
00000340: 1adc 9ebd 9af7 983d e50a cebd 7cf8 f73c
00000350: 58fe aa3b a030 98bd e5c5 1f3d 9d74 553c
00000360: 1e51 113e 3929 ff3c e1b0 a53c 9c78 483c
00000370: 6118 95bc 6cdb 9a3c d777 5a3d 8176 8abd
00000380: fbab 6bbd 0498 953c c3b9 5abd 89e2 233d
00000390: 0953 ae3d 74c1 033d b40e 8abc 6b12 e53b
000003a0: 3e2f dd3c 770d 3d3d 1a06 94bc 9e69 f2bd
000003b0: 8d61 54bd e54e 23be fa72 7f3d f8df 2bbc
000003c0: bed7 a7bd a8b8 6d3d f143 873d 4607 493d
000003d0: 6ad8 aa3d 85d2 94bc 65c5 84bd 21af b1bd
000003e0: e3f4 d3b9 2719 fa3d 825f 23bd dd4a 643d
000003f0: 142d 5b3d 65fc 083e 8461 5fbd f808 5d3d
0.07227183 0.06779597 0.0030413347 -0.003305348 0.08262545 -0.030319892 -0.0005320719 -0.0042927396
0.032989845 -0.006376687 -0.010890854 -0.015759338 0.08780832 0.015381373 0.026063906 -0.008991305
0.07887108 -0.026750881 0.006957606 0.01397553 0.074298956 -0.037472762 0.02658056 -0.095803
0.03801899 -0.014836004 -0.01768657 0.007744938 0.029718118 -0.03798002 0.093469456 -0.039963152
-0.111359276 0.06254267 -0.023351246 -0.11523484 -0.012327494 0.016031168 -0.011458438 -0.022649193
-0.11238845 -0.025876503 0.043157186 -0.13142183 -0.012692567 -0.05565123 -0.11474887 0.051985994
0.01915295 0.077906825 0.02018061 -0.08896322 -0.022000754 0.06498093 -0.016585223 -0.049925085
-0.05745517 -0.06052285 0.06922343 0.037082255 0.060780723 -0.036260847 0.031931076 -0.013141474
0.007924915 -0.17516725 0.01177552 0.03531995 -0.010923851 0.0056316466 0.0792791 -0.04310804
0.08884195 0.095026955 -0.125665 0.023591472 -0.030579995 0.0118713435 -0.023936493 -0.07288932
-0.05770901 -0.025441522 0.09845195 0.094292946 0.13984612 0.10585976 0.016567642 -0.100295104
0.07671738 0.04523842 -0.04576911 -0.021364251 0.06764892 -0.13658299 -0.11485409 -0.004920249
0.035707917 0.025339805 0.0757607 -0.05233896 0.01591823 0.005700612 -0.054730844 0.040403064
0.047556225 0.024020506 -0.07020685 0.049867216 -0.096627586 -0.103847526 -0.040751908 0.1907483
-0.012442202 -0.043007024 0.024432497 0.050454322 -0.007861096 -0.10224423 0.08520903 0.05507399
0.02621447 0.02951833 -0.15401983 -0.0068710707 0.03914683 -0.048086423 0.09838709 0.02854591
-0.0011632319 0.04291772 0.06762713 0.038312003 -0.022235367 -0.07338675 0.09282348 0.11271978
-0.0015140211 0.006297921 0.109513246 0.027959913 0.025458697 0.04175071 0.07268636 0.06715678
-0.03321751 0.08478984 0.076885834 -0.12276908 0.055413544 0.083726436 -0.11445431 0.051732607
0.107049026 0.06453465 0.06579759 0.13309243 0.033101864 0.027342621 -0.04656285 0.048529264
-0.051804084 -0.05990822 -0.10580932 -0.15549722 0.012077814 0.0058281543 -0.008868566 -0.119453974
0.03102801 -0.00783915 0.035388213 -0.004565043 0.056657188 -0.043938354 -0.060707193 -0.04272436
0.07933017 -0.006549912 0.0607995 -0.06763561 -0.008769496 0.01919597 -0.032081325 0.01017324
0.064001456 -0.015056955 -0.031056058 0.036752943 -0.08812565 0.014845007 0.05089002 -0.02627026
-0.046337828 0.028708307 -0.04073634 -0.11257339 -0.046921995 0.03758538 0.013251156 0.06580629
0.029086234 -0.020483833 -0.024035042 0.0482958 -0.008478999 -0.08128055 0.07397497 0.018262481
-0.07756825 0.07469101 -0.10060672 0.030269854 0.0052183084 -0.074311495 0.039007086 0.013028291
0.141911 0.031147586 0.020225944 0.012235787 -0.018200101 0.018903457 0.053336944 -0.06760884
-0.05753706 0.018260963 -0.053399812 0.040010963 0.085119314 0.032166913 -0.016852714 0.006990721
0.027000066 0.04615542 -0.018069316 -0.11836551 -0.051850844 -0.15948065 0.06236551 -0.01049041
-0.081954464 0.05803743 0.06604756 0.049079202 0.08342059 -0.01816679 -0.064829625 -0.08675981
-0.0004042751 0.12211829 -0.039886005 0.055735458 0.053509787 0.13377531 -0.054536358 0.05396363

action_model._discrete_distribution.branches.0.weight f4 [1, 128]
00000000: 0a54 643b c79b edbb 06c3 26bb 90b4 5ab7
00000010: 13d1 15bc 2d2d 6dbb 3f70 d8bb 136f a63b
00000020: a511 133c c8c8 d63a d0ac bbbb cb4a 0c3a
00000030: 8005 09bb 1331 973b 1a5b 7a3c 1ff1 debb
00000040: 02e4 43bc 665c 3bbb 775a f4ba 12ba 5cbc
00000050: 2acf 2dbc 977a 11bc cc89 16bb 54a5 13bc
00000060: 274c 78bc beab c639 05c5 553a dd97 223c
00000070: a8a9 db3b c631 c93b 992f 8cbc 8968 c83a
00000080: 1a57 69bb 269c 48bc 5260 19bb 978a a13b
00000090: a7b5 583b 5bba 573b eff3 603c 0ee9 263b
000000a0: e530 04bc 5d9c 1bbb e06b 14bc 9781 ba38
000000b0: 173d 58bc 8d54 d6ba 9e9e 913b 43ff b6bb
000000c0: 1b0c 0ebc 8d47 efbb ad14 aa3a e30b 4ebc
000000d0: 9877 62bb daca 3bbb dc25 3a3c 137a 3d3c
000000e0: 9438 8a3c 7593 a73a 4ce5 033c 8a9d c7bb
000000f0: 5d7a 85bc 2d0c cfbb c0a3 c23b 5807 533a
00000100: 7fba e8bb 0361 36bb d347 f63b 2eb0 213c
00000110: 3f85 ec3b 47d5 41bb d0e9 cd3a b833 a13b
00000120: a636 c2bb 8040 1d3b 4db8 e73a 7894 3abc
00000130: 8a3a cbba 1e3a 803c 6689 22bc 2406 2eba
00000140: f940 3e3c 4d75 553c 3414 90bb 1dd6 99bb
00000150: 78f9 7b3c 0332 8e3c a71b 223b f751 0fbc
00000160: d3b1 5ebb 1d6a 63bc db48 103c 9193 2abc
00000170: f222 293b 4786 f63b 8a4d 063b ed63 aeba
00000180: 5597 98bc 7a3d b33b 3cd1 913a 4734 c0ba
00000190: 0468 96bb faa0 62bc a353 baba ac17 8c3b
000001a0: 2485 32bc 5cc2 413c 0fe7 66bc 4841 4e3b
000001b0: ef6e a1bb c543 563c 605d 7abb 1b2e 753b
000001c0: c8e7 b2bb 47ce 203c ff4d 4a3c 35e2 0bb9
000001d0: d52c 8b3c 3ecd cb39 f74a 8ebb 5329 46bc
000001e0: 93e1 3cbc 7f4a 0cbc 078c 8e3c 9b76 a2bb
000001f0: 908d 5b3c b7d6 913b 1313 533c 448f 98ba
0.003484013 -0.007251236 -0.0025445833 -1.3035853e-05 -0.009144085 -0.0036190257 -0.0066051777 0.005079159
0.008976375 0.0016386742 -0.005727388 0.0005351721 -0.002090782 0.0046140044 0.015280509 -0.006803646
-0.011956217 -0.002858901 -0.0018642683 -0.013472097 -0.010608474 -0.008879325 -0.0022970317 -0.009011585
-0.015154875 0.0003789346 0.00081546634 0.009923902 0.006703574 0.0061399667 -0.01711254 0.0015289943
-0.0035604895 -0.01224426 -0.0023403359 0.0049298513 0.0033067258 0.0032917473 0.013730033 0.0025468501
-0.008068298 -0.0023744323 -0.0090589225 8.893309e-05 -0.013198159 -0.0016352102 0.0044439575 -0.005584629
-0.008669878 -0.0073022307 0.0012976133 -0.012576076 -0.0034556147 -0.0028654845 0.011361565 0.011564749
0.016872682 0.0012785034 0.008050274 -0.006091778 -0.016293699 -0.00631859 0.0059399307 0.00080501055
-0.00710231 -0.002782882 0.0075158863 0.009868665 0.0072180326 -0.0029576586 0.001570994 0.0049194954
-0.0059269248 0.0023994744 0.0017678827 -0.011387937 -0.0015505117 0.015652712 -0.009920454 -0.0006638488
0.01161217 0.013028455 -0.0043969397 -0.0046947137 0.015379302 0.017357832 0.002473572 -0.008747569
-0.0033980503 -0.01388028 0.008806433 -0.010411159 0.0025808183 0.0075233313 0.0020492994 -0.0013304927
-0.018626848 0.005469975 0.0011124979 -0.0014664017 -0.0045900363 -0.013832325 -0.00142156 0.004275283
-0.010896001 0.011826124 -0.014093175 0.0031472016 -0.0049265544 0.013077681 -0.0038202628 0.0037411514
-0.0054597594 0.009814805 0.012347697 -0.00013340342 0.016989151 0.00038872095 -0.0043424326 -0.012094813
-0.01152839 -0.008562683 0.017400755 -0.0049579865 0.01340045 0.004450645 0.012882966 -0.0011639376

network_body._body_endoder.seq_layers.0.bias f4 [128]
00000000: b80a 1c3d f7a2 b2bc 7128 b83c bb79 813d
00000010: f033 c7bc 4f57 9abd d9a4 cbbc df46 0bbd
00000020: c55b a83d 7626 9cbd 17c7 a3bb ce5b 9d3c
00000030: b2f2 883d ae98 353e a845 f3bd 36f3 a9bd
00000040: c365 20be c6ff b83d 59ae 2cbe 249a b23d
00000050: e11f b8bd 9c7c f4bd 2fbe cc3d 82db 993c
00000060: 3b88 5abd 1210 62bc 7fb8 de3c 6269 143d
00000070: 3805 80be e9d0 1dbd 0eb3 27bd fada fabc
00000080: b770 75bd c7a4 af3d a472 e83d 71af b7bd
00000090: 9187 e53d c7e3 773c a190 733d a31f af3d
000000a0: 57a9 5038 cf41 0d3d 55ad 0cbb 5c8b 2e3d
000000b0: d7a9 2d3d cd47 b73d 45a8 1cbd 4be8 b03c
000000c0: 730a 95bc 0224 d4bc 9531 0abd ed65 3abe
000000d0: 773b 85bd 9361 b93c a05b 353d eb59 413d
000000e0: 410b 443d d750 003d 3960 04be 2260 09be
000000f0: 6d3b 0dbd c18e 0fbd 6bc7 9d3b ea1a a53d
00000100: 1307 aa3d c68e 0cbd 6342 b53d dce4 283d
00000110: 1c34 e0bd f76a 8f3d 9f34 dfba 59cb 5cbd
00000120: af36 e23c 502b 02be 23a1 233d 2a99 83bc
00000130: 98b5 9dbd cfbb d33d 4d91 d7bd 02a3 c7bd
00000140: 6dc6 9b3d 5e11 d73c 6ef6 313d 5346 823c
00000150: 3fe5 b1bd e70d 0dbd 6507 683d ca29 033d
00000160: 00cf 0ebd 78f2 f53d 1282 cebd 49b2 eebc
00000170: 1744 e13d fbfe 9fbd b1db 22be 303d f9bb
00000180: bb59 d43d 2b09 533d de06 c0bd ca8e 22bd
00000190: 9624 2cbd da79 893d 0c7e aa3d 794f 57bd
000001a0: 2b9b 91bd 452a 35be 215e 9f3d 072d c83d
000001b0: c06a 263e 8a5b d93c 101e 443d 607e 4b3e
000001c0: cc05 69bd 5179 983d 78ea efbd 24bb dabd
000001d0: 4ebf e5bd ae00 16be 4283 7ebc e930 d6bd
000001e0: e32f 263d 1ad6 93bd eda4 953c ea76 ac3d
000001f0: d86f 3dbe fd76 733d bf73 b83d 920d b6bd
0.03809616 -0.021806223 0.022480221 0.06322046 -0.024316758 -0.07536184 -0.024858879 -0.034003135
0.08220629 -0.07624523 -0.0049980986 0.019208815 0.066869155 0.17734024 -0.1187852 -0.08298342
-0.15663819 0.0903316 -0.16863383 0.08720806 -0.089904554 -0.1193783 0.09997212 0.018781427
-0.053352576 -0.013797777 0.027187584 0.036233313 -0.25003982 -0.03852931 -0.040942244 -0.030621994
-0.059921946 0.08576351 0.11349991 -0.0896901 0.11207498 0.01512999 0.0594641 0.08550956
4.9748774e-05 0.034486588 -0.0021465619 0.042613372 0.0423983 0.08949242 -0.03824641 0.02159514
-0.01819346 -0.025896076 -0.03373869 -0.18202944 -0.06505483 0.022629535 0.044276834 0.047204893
0.047862295 0.031327095 -0.12927331 -0.13415578 -0.0344805 -0.03504825 0.0048150322 0.08061774
0.083021306 -0.034315847 0.08850553 0.041233882 -0.10947439 0.07002824 -0.0017029232 -0.053904865
0.027613966 -0.12711835 0.039948594 -0.016064245 -0.07700652 0.10338556 -0.10525761 -0.09747888
0.07606206 0.026253399 0.043447904 0.015902674 -0.08686303 -0.034437086 0.056647677 0.032022275
-0.03486538 0.12009138 -0.10083403 -0.029137747 0.10999315 -0.078123055 -0.15904118 -0.007606171
0.10368677 0.051522415 -0.0937631 -0.039686956 -0.04202708 0.067126945 0.08324823 -0.052566025
-0.07109674 -0.17691906 0.077816255 0.09774213 0.1625166 0.026532907 0.047880232 0.19872427
-0.056890294 0.07445014 -0.11714643 -0.106802255 -0.11218129 -0.14648697 -0.015534224 -0.104585476
0.040573012 -0.07218571 0.01826712 0.084211186 -0.18499696 0.059439648 0.09006452 -0.08889307

network_body._body_endoder.seq_layers.0.weight f4 [128, 8]
00000000: 6063 56bd cd0c 823d 8908 37bd 3a17 38be
00000010: b2aa 863d f676 fa3e d3aa aa3d fef5 8dbe
00000020: ac1b 3b3e d931 a23e 471c a93d 75e7 e7bc
00000030: 94d3 29bf e4c4 59be d561 843c 6ccb ccbd
00000040: 675a fc3e f44b 8c3d 584f 0fbd d5cc f7be
00000050: 4d98 f6bd 9b1e afbe c18d 873d 3260 81bc
00000060: df8f 0c3f 9dec f1bd 542f 27be 7658 9bbe
00000070: 9849 d53c 03c0 053e 3685 f9be befc d93e
00000080: 8056 eb3e de50 d03e e6be 713e 91e2 c83d
00000090: adab bc3d c12c cc3d eec9 2cbf de13 cc3e
000000a0: 89da 9dbe 5ff7 85bf e622 5e3e d67d 88bb
000000b0: 8c83 f0bd 7ccc ae3e 6192 8e3e d988 4e3d
000000c0: 48ba 293d d39a 65be 599a 37bf 9cf7 81be
000000d0: d9cb 5bbe 4625 e5be 5f67 0dbf 7101 863e
000000e0: d659 6ebe ad41 8bbd 86bd 3ebe ea5f 833c
000000f0: 6a97 0ebf c5ee a13e 4cc0 513e d3fd 06be
00000100: 2337 edbe 3492 63be ed9c 91bd c88c bdbe
00000110: 192a 843e 222d b13e e4ba 7fb9 f570 7a3e
00000120: 5536 133e 571d e83d 6df4 44be 2c11 603d
00000130: e8ce fbbe e062 27bc 9d4d cf3e 9d3e 3d3f
00000140: 95b6 6fbd 888a 323c f72c 12bb 74ba 7ebd
00000150: 7f4f 81be 9811 0ebf d10b aebe 4f91 9cbd
00000160: a862 a5be 424f e5bd 6292 1fbb 0df6 f83e
00000170: be29 823e 487d e53e fca3 e6bd 1c5a c53c
00000180: e871 04bd 1972 503e f535 08bf 1fb1 9bbd
00000190: 7bc1 033c 50a7 25bc ba7d b53e e6d6 e03d
000001a0: 54ee 15bd 5ca6 0a3f 8b49 19bf cb1e 5b3e
000001b0: d4a3 c33e e9b7 423f da28 db3d 24b1 863c
000001c0: 29d6 ba3e bffc 83be 228d e3bd 86cd 283f
000001d0: 0b69 93be bb1e e43e 03d1 5bbe 24a2 96be
000001e0: 2208 2abe 813a 94be bef3 c9bc 0afc d2bd
000001f0: da4f adbe 99de 19bf ba1a 073f 14e5 413e
00000200: 3c35 fc3e 70b4 cfbe d403 0d3f 994b 683e
00000210: 1b5e 87be 0991 073e 4528 133f d9df 5f3e
00000220: fccd ac3e ca32 053e ac54 c73e b175 19bf
00000230: 5987 eabd 02b6 93be 3dd5 82bd d3c5 91be
00000240: 70b9 103e d99a 0a3e 309f dabd fb78 21bf
00000250: 5e20 14bf 0b96 e3bd 0dbe 1b3f 30a2 8dbe
00000260: af1e 19bf 9b4b 043f eae1 023f aeab af3e
00000270: e835 0dbd 9af1 983e f5f4 363e d980 8bbe
00000280: dec0 6cbd f83f 8ebe f519 67be 9a9d 303e
00000290: a3bb a7be f639 8c3e d4fb 303e df86 8bbd
000002a0: 9c09 a7be 132d 71be 856d 32be 9953 9c3e
000002b0: c2ac 01be 788d 4b3e 9b23 573e a338 013e
000002c0: f4a5 e3be 1e2b ebbe 62bf 56be 10da 303f
000002d0: 4a58 02ba 6aed 103e 4614 4c3c d80b a63e
000002e0: 11f1 83be 270a f63e b63b cabd 3013 6c3f
000002f0: 217d d23e 846b da3e 153e 65be 5fb6 c93e
00000300: 4f40 82be aa71 84bf a603 a13e 33ec e03e
00000310: e8a1 cbbe f73c 7e3e 0d88 45be 8c5e 04bf
00000320: a955 9c3e a3be 5dbe a345 8bbe 637f ba3c
00000330: d9eb 123f b046 e2bd e888 0ebd 3b58 0d3e
00000340: 940b 88bd 4f74 abbe 7491 97be 3ccc 7cbe
00000350: 11c8 a9be 5488 df3d 5efa b33d 7220 63bd
00000360: 39c8 38bf 2e10 3b3c 9cc2 f7be a09f 853e
00000370: c9f6 333e d184 54bd 1b4f be3d ab3b 6bbe
00000380: 4fef d8bd 9db3 c7be adb9 993e 1562 e03e
00000390: e222 02bf 45ff 163f 4ecc 773e 80be 203e
000003a0: 81f5 e2be 0bb8 8cbd 8500 29bd 39b4 043d
000003b0: 5863 a4bd 972c af3e 8579 f3be 18b8 bfbe
000003c0: 9405 093f 813b f1bd 581d 9abd ccac fd3e
000003d0: 2a20 24be 8c64 dcbb 4e1c 4dbc 7046 e4be
000003e0: 0490 673e d95e 9b3e 6dc9 68be 3abf 43be
000003f0: 7003 4bbd 8998 0bbf 3840 39bf 9d7a 193e
-0.052340865 0.06350098 -0.044685874 -0.1797761 0.06575526 0.48918885 0.083333634 -0.2772674
0.18272275 0.31678656 0.082573466 -0.02830861 -0.6633847 -0.21266514 0.016159931 -0.09999737
0.49287722 0.068504244 -0.034987777 -0.48398462 -0.12040768 -0.34203038 0.06618834 -0.01579294
0.5490703 -0.118127085 -0.16326648 -0.30340928 0.026036069 0.13061528 -0.48734444 0.4257564
0.45964432 0.40686697 0.23607978 0.09808839 0.09212432 0.09969474 -0.6749562 0.39858907
-0.30830792 -1.0466117 0.21693 -0.0041653914 -0.117438406 0.34140384 0.27846053 0.050423477
0.041437417 -0.22422342 -0.7171989 -0.25384223 -0.2146448 -0.44755 -0.55235857 0.26172975
-0.23276457 -0.06799636 -0.18626985 0.016036946 -0.5569979 0.3162748 0.20483512 -0.13182764
-0.46331128 -0.22223741 -0.07110009 -0.3702147 0.25813368 0.34604746 -0.00024388317 0.24457152
0.14376195 0.11333721 -0.19233866 0.054703876 -0.49181294 -0.010216445 0.40488902 0.73923665
-0.058523733 0.010897286 -0.0022304633 -0.062189534 -0.25255963 -0.55495596 -0.3399339 -0.07644903
-0.3230183 -0.11196758 -0.0024348726 0.48625222 0.25422472 0.44822145 -0.11261746 0.024090819
-0.032335192 0.20356025 -0.5320733 -0.076021425 0.008041735 -0.010110691 0.35447484 0.109784886
-0.03660424 0.54160094 -0.5987784 0.21398465 0.38210928 0.76061875 0.10701151 0.01644189
0.36491516 -0.25778767 -0.11110903 0.65938604 -0.2879108 0.44554695 -0.2146645 -0.29420578
-0.16604665 -0.28950885 -0.024652358 -0.10301979 -0.33849984 -0.6010528 0.52775156 0.18935043
0.49259365 -0.4056735 0.55083966 0.22685088 -0.26438984 0.1323892 0.5748332 0.21862735
0.33750904 0.13007656 0.38931787 -0.5994521 -0.11451597 -0.28849798 -0.06388328 -0.2847124
0.14133239 0.13535632 -0.10674894 -0.63075227 -0.5786189 -0.11112603 0.6083687 -0.27662802
-0.59812444 0.51677865 0.5112597 0.3431067 -0.034475237 0.29871827 0.17866881 -0.2724674
-0.05780112 -0.2778318 -0.22568496 0.1724762 -0.32760343 0.2738797 0.17283565 -0.06812834
-0.3262452 -0.2355235 -0.17424591 0.3053253 -0.12663558 0.19878185 0.21009676 0.12619261
-0.4446255 -0.45931333 -0.20971444 0.69082737 -0.00049722625 0.14153066 0.012456005 0.3243091
-0.25769857 0.4805462 -0.0987467 0.9221678 0.4111109 0.42660153 -0.22386964 0.3939695
-0.2543969 -1.0347188 0.31448096 0.43930206 -0.39771962 0.24827944 -0.1929018 -0.5170677
0.30534104 -0.21654753 -0.27201566 0.02276582 0.57391125 -0.11048639 -0.034798533 0.13803189
-0.06642833 -0.33487174 -0.2960316 -0.24687284 -0.3316045 0.109146744 0.08787988 -0.055450864
-0.72180516 0.011417432 -0.48390663 0.26098347 0.1757461 -0.051884476 0.09292432 -0.2297198
-0.105925195 -0.39004222 0.30024472 0.4382483 -0.50834477 0.5898326 0.2419903 0.1569767
-0.4432793 -0.06871041 -0.04126026 0.032398436 -0.08026761 0.34213707 -0.4755365 -0.3744514
0.53524137 -0.117789276 -0.07525128 0.49545896 -0.16027895 -0.0067258533 -0.012518955 -0.4458499
0.22613531 0.303458 -0.22733088 -0.19115916 -0.049563825 -0.54529625 -0.72363615 0.1498818

network_body._body_endoder.seq_layers.2.bias f4 [128]
00000000: e563 e63c 1ce9 46bb a823 433d 4d70 32bc
00000010: ecf9 323d 0971 f63c c061 bb3c 7475 4b3b
00000020: 753f 273c d035 b8bd f53f 2f3d 6375 58bd
00000030: c6c5 203d fa42 cbbc 6f8b 053c 6778 043d
00000040: 6020 bc3d 6313 9b3c 5ee3 0f3d 594b 023e
00000050: 0d70 f4bb 40f7 4a3d 48c5 9e3d 6c8e 4e3d
00000060: 2396 26bb 2f10 0dbd 9f27 2cbd 645f 213d
00000070: e89b f5bc 0cef f7bb c287 cb3d 3747 bbbd
00000080: d9b8 dc3d 7532 c5bc 1f78 dc3d 8755 2b3e
00000090: 9033 ecbd 9548 8bbd ffa1 17be 36c1 483d
000000a0: d642 bd3c 4d70 f4bc 9a2e d6bb d1ce 7b3d
000000b0: e5ac 513c f50c b73c fc47 e23d 1ae9 65bd
000000c0: a56c c03c 4998 fb3c 2910 9bbc e64b ba3d
000000d0: c67a 9ebd 2ba0 b0bb feb0 bfbd a028 113d
000000e0: 8f34 3f3c cd65 b4bd d7c1 2f3d 91d0 a0bd
000000f0: 62b9 023e 3d38 afbd cb06 eabc 7d13 b9bd
00000100: 0283 053c 0fa0 743d c24b 0fbe 5695 d73c
00000110: 6472 ac3d 7a5a 8abc 7fe2 c43c 088f b33c
00000120: b5ad 223d ee4b 9f3d aeb2 423d 9af9 613b
00000130: 9859 a7bd c6ce 9f3d bf24 e2bc 38dc 96bc
00000140: 6689 ce3d c0bb ea3c 33fb 143e 564d 943d
00000150: 2e4f 233d 5c77 b13d 7311 51bc 11ef 7c3d
00000160: d22f ed3c ae16 08bc 84d4 0ebd 05b4 c9bd
00000170: a71f 6c3c 9749 163d c14d 8bbc 1087 363b
00000180: a7a8 8e3b dd2b 84bd 6c37 bf3d c458 d2bd
00000190: 8a28 a6bc 7a39 ecba 7328 ccbd 40f1 0fbd
000001a0: e4ec a23a c002 32ba 69b3 3f3d 7135 f53d
000001b0: 9608 643d d833 123e 3584 363d c2d1 043e
000001c0: 62c3 96bc d510 d2bc 98fa ccba c5d2 8f3c
000001d0: a2ae 82bd 1dac 653d 108e b23d 8417 f53c
000001e0: 90d0 86bd d0e6 25bd df5f d53d 5ea3 aebc
000001f0: 2b2f ea3c 9484 813d 2414 053e cb77 71bd
0.028123805 -0.0030351346 0.047641426 -0.010891032 0.043695375 0.030083196 0.02287376 0.003104535
0.010208 -0.08994639 0.042785604 -0.052846324 0.03925111 -0.02481221 0.008150919 0.032341387
0.091858625 0.018930143 0.035128944 0.12724055 -0.0074596466 0.049552202 0.07752472 0.050428793
-0.0025419078 -0.034439262 -0.042029973 0.039397612 -0.029981568 -0.0075663384 0.09938003 -0.091444425
0.107774444 -0.024071911 0.10765099 0.16731845 -0.11533272 -0.06800953 -0.1480789 0.049012385
0.023103159 -0.029838705 -0.006536317 0.061476532 0.012797569 0.022345046 0.11048886 -0.056130506
0.023489306 0.030712264 -0.018928604 0.09096508 -0.07738261 -0.0053901873 -0.093599305 0.035439134
0.011670246 -0.088084795 0.04290947 -0.07852281 0.1276603 -0.085556485 -0.028567692 -0.0903692
0.0081489105 0.059722956 -0.13993743 0.026316326 0.08420256 -0.016888846 0.024033783 0.021918789
0.03971644 0.07778154 0.047533683 0.003448105 -0.081713855 0.07803111 -0.027605413 -0.018415555
0.100848004 0.02865398 0.1454895 0.07241313 0.039870434 0.08665344 -0.012760508 0.06175143
0.028953467 -0.0083061885 -0.03487064 -0.09848789 0.014411843 0.036691274 -0.01700485 0.00278515
0.004353601 -0.06453679 0.09336743 -0.10270837 -0.020283002 -0.00180225 -0.099686526 -0.035142183
0.0012430218 -0.0006790571 0.04680196 0.11973084 0.05567225 0.1427759 0.044559676 0.12970641
-0.018403713 -0.025642792 -0.0015638648 0.017556557 -0.06380965 0.056072343 0.087185025 0.02991844
-0.06582749 -0.040503323 0.104186766 -0.021318134 0.028586945 0.063241154 0.12995964 -0.058952134

network_body._body_endoder.seq_layers.2.weight f4 [128, 128]
00000000: 9e1b 0e3e 2792 943d 494f 293e 8ebf 0abd
00000010: fc29 0c3b 96b6 033c 34cf 603e 5fe5 193e
00000020: 4b2d 973d 2b7c 4bbd 1eb5 84bd 8a8e 7fbd
00000030: 4e20 0c3e a77c 37bc ce3e 26be 7085 82be
00000040: 066c 183e b785 e03b 6732 95bb 599c 703b
00000050: 2be4 cdbd 969a 303d 58b0 12bb a137 98bd
00000060: d574 d1bd 486f 9abd 259e 9dbd ad5d 363d
00000070: 9d04 ad3d c02a bcbc f8e9 b7bd 9617 3d3e
00000080: 0148 13be 2bd9 a83c 5316 293e 383a 1f3d
00000090: a494 0bbe 10ed f33c 45db 21be ee91 3bbb
000000a0: dcd1 d7bc 65d5 0a3e ea69 adbd 5057 ff3d
000000b0: 8103 083d 5002 bdbd 33b4 313e 2434 413c
000000c0: 9425 f8bc 68a5 24bc f394 00bd 271a 8b3c
000000d0: 3118 c3bd 75aa 9d3c e17d 76bd 8a08 ab3d
000000e0: 3735 f93d fa5c d1bd 9ed6 1c3d e124 3abd
000000f0: d2e1 42be b2ad a53d 0870 843d 670c 013d
00000100: 9de0 91bd 154a b2bc 0118 a9bd 25d3 90bd
00000110: 560f 513e 58f4 90bd ac79 233e c06a 1fbc
00000120: 6d27 10be 0f70 893d db56 0f3e 45ad 433e
00000130: b2ae 85bd 62e3 d4bd 45b7 c7bd ba38 e5bc
00000140: f180 32bd aa92 9e3c 776c dd3c e552 a2bd
00000150: 5c71 97bd ed3b 863d d0bd fcbd 73f5 e93c
00000160: 8217 593c 7879 163e f9e6 193e aa80 6dbd
00000170: 0639 4a3d 37ad 38bb 70da aabd 42f2 933d
00000180: a8ab 023e a558 0ebd 1ab2 23be 58d6 96bd
00000190: 39ef 2ebe 40ce 323d 7048 44be 93df 91bc
000001a0: d57c 13bd f641 cf3d 1261 5dbd 67a2 063e
000001b0: ff1b 41be 8183 b4bc 111c 383e 5f75 a03d
000001c0: 7fce afbd 59f6 73bc 7c82 733d f176 a13d
000001d0: 37e9 f73c 3691 df3d 9388 453d cc5d 6fbe
000001e0: cfe7 fc3c 1e5e 4cbc 5bba a2bd 116e 60bd
000001f0: c2b7 e93d 3969 b93d 229f 583d 9002 32bc
00000200: d879 f6bd 4fae 053e a7f9 403d c239 8b3e
00000210: 76f3 99bd 20a2 3cbe d685 1d3e c84b 9b3c
00000220: caea 233c c1d8 f73d 705d 57ba d375 abbc
00000230: 91a1 023e 5414 5abd 36c3 413c 4637 c9bc
00000240: ae89 15be 0a3d ab3d ecf4 bcbd 10ef 9cbd
00000250: a80c 02be 41b5 633d 0ba4 ee3b 3d61 2f3d
00000260: cb96 91be 3f85 c4bc 3fe2 613d 47b7 9b3b
00000270: a055 8bba 691f aebd 7b5d d23d 6cdf 013e
00000280: 2a55 14be 983d 80be 2ffe ff3c 1888 6fbe
00000290: d5f5 15be f6ac 38bd 932e 9dbc 58a9 283b
000002a0: db8d 8dbe 64f0 2d3e 49e1 0e3e be62 c7bd
000002b0: de10 93bc d0fc 683d 09b4 0fbc c4ee e0bd
000002c0: 734b d3bd a635 173c c7b4 1abd 6a01 963c
000002d0: c942 12be 5e4e ca3d 7dd0 4b3d 21f8 793d
000002e0: d2e3 b93d 4b7e e53d aa21 f4be 708a 23be
000002f0: 721c 83bd 58de 9ebd 78a2 b7bc 92e2 0ebd
00000300: 3677 88bd 8daf c23b c431 1abd a369 b53d
00000310: b117 083d 1047 c83d b9bd 243b ef8e fd3d
00000320: 1cc1 8bbe a7dd 293c 1725 3e3c 724d dfbc
00000330: 8aea 0abe 44f1 afbd 3960 403d b405 09be
00000340: c5a6 26be f364 513d bb79 e93d 94ee 7cbd
00000350: e5c7 c43c 0abd 083d 920d 95bd 3151 c13d
00000360: ac41 5e3e 4643 ed3d 7e82 1b3c c727 1abc
00000370: 9038 2fbe 76a2 0e3d cb52 11be 4704 8fbc
00000380: 8853 86bd dad0 bcbd a598 1bbd 52ee ffbd
00000390: 48df 91bd 0417 5bbe 6092 9ebd e1c5 8ebd
000003a0: de91 1fbc 278a 18bd d9a3 d13d 4612 283e
000003b0: 21b2 88bd 096d 6a3d df6c 0d3e 3431 bf3d
000003c0: 4546 11be fcd3 d73d 03db 94be 4a1f 473d
000003d0: 61a2 80bd 6cb5 c3bd e412 25bc 3ae1 dcbd
000003e0: a3f6 1dbb 4e39 0c3d 5257 4dbe f2d3 c33d
000003f0: 6a89 f3bd 0a15 7bbd b16a babd 4976 23be
0.13877723 0.07254439 0.16534151 -0.033874087 0.002138733 0.008039137 0.21954042 0.15028904
0.07381686 -0.049678963 -0.06479858 -0.062391795 0.13684198 -0.011199153 -0.16234896 -0.2549243
0.14884958 0.0068518776 -0.0045531276 0.0036714284 -0.10053285 0.043116175 -0.002238294 -0.07432485
-0.10227362 -0.075407565 -0.07696179 0.04452293 0.084481455 -0.022969604 -0.08980173 0.18466029
-0.14382936 0.020611366 0.16512422 0.03887388 -0.1363092 0.029776126 -0.15806301 -0.0028620916
-0.026345186 0.13557966 -0.08467467 0.124678254 0.033206467 -0.09228957 0.17353897 0.011792216
-0.030291356 -0.010049202 -0.03139205 0.016980244 -0.095260985 0.01924632 -0.06017864 0.08351238
0.12168353 -0.10222812 0.038290612 -0.045445327 -0.19031456 0.080897704 0.06466681 0.03150597
-0.0712292 -0.02176384 -0.082565315 -0.070715226 0.20416006 -0.07077855 0.15964383 -0.009730041
-0.1407754 0.067108266 0.13997976 0.19109066 -0.06527461 -0.10394932 -0.09751753 -0.02798115
-0.04358 0.019357044 0.02702926 -0.07925967 -0.073946685 0.06554399 -0.12340891 0.028559422
0.013250234 0.14694774 0.15029515 -0.05798403 0.049370788 -0.0028179416 -0.08342445 0.072239414
0.12760794 -0.034752507 -0.15985909 -0.073651016 -0.17083444 0.043653727 -0.19168258 -0.017806804
-0.03600772 0.10120003 -0.05404765 0.13147889 -0.18858336 -0.022035362 0.17979456 0.07834887
-0.08584308 -0.014890277 0.05945061 0.078840144 0.030262573 0.10916369 0.04822595 -0.23375624
0.030872254 -0.012473611 -0.07945701 -0.054792468 0.11412002 0.09053273 0.052886136 -0.010864869
-0.120349586 0.13054775 0.047113087 0.27192503 -0.075171396 -0.18421221 0.15383086 0.018957034
0.010004709 0.121018894 -0.00082155224 -0.020930206 0.12756945 -0.053242043 0.011826327 -0.02456249
-0.14603302 0.08361252 -0.09226403 -0.07662785 -0.1270014 0.05559278 0.007282739 0.042817343
-0.28435358 -0.023989318 0.055147406 0.004752073 -0.0010630377 -0.08502085 0.10271736 0.12682885
-0.14485613 -0.25046992 0.031249134 -0.2339176 -0.14644559 -0.045086823 -0.019187247 0.0025735702
-0.2764729 0.16986233 0.13953127 -0.097356305 -0.017952379 0.056881726 -0.008770951 -0.10983041
-0.10317125 0.009229099 -0.03777006 0.018311221 -0.14283289 0.098782286 0.049759377 0.06102765
0.090766564 0.11205729 -0.47681934 -0.15970778 -0.0640191 -0.077572525 -0.022416338 -0.034884043
-0.06663363 0.0059413374 -0.037645116 0.08858039 0.03322572 0.09779179 0.0025137498 0.12380778
-0.27295768 0.010367787 0.011605523 -0.027258608 -0.13566032 -0.0859094 0.046966765 -0.13381082
-0.16274555 0.051121663 0.11400171 -0.061750963 0.024021098 0.033383407 -0.07277979 0.09439314
0.2170474 0.11585097 0.009491561 -0.009408898 -0.1711142 0.034822904 -0.1419174 -0.017458094
-0.06558901 -0.09219523 -0.03798737 -0.12496628 -0.07122666 -0.21395499 -0.077427626 -0.06971336
-0.009739367 -0.037241127 0.102363296 0.16413221 -0.066746004 0.05723289 0.13811062 0.093355566
-0.14186962 0.1053848 -0.29073343 0.048613824 -0.06280971 -0.09556088 -0.010075305 -0.10785146
-0.0024103306 0.034234338 -0.20052841 0.0956191 -0.11891444 -0.06129936 -0.09102381 -0.15963091
