Project/Assets/ML-Agents/Examples/3DBall/TFModels/MyAgents/2nd3DBall.onnx (onnx, 73994 bytes, 9 tensors)

50 f4 [8]
0.05941476 0.059715297 0.81679606 0.26463684 0.8301623 0.6717688 0.82419837 0.6642309
00000000: e45c 733d 0798 743d 8c19 513f 7b7e 873e
00000010: 8485 543f 0af9 2b3f aafe 523f 090b 2a3f

action_model._continuous_distribution.log_sigma f4 [1, 2]
-0.14645295 -0.102313556
00000000: c3f7 15be c589 d1bd

action_model._continuous_distribution.mu.bias f4 [2]
0.031115806 -0.047454335
00000000: 93e6 fe3c 7a5f 42bd

action_model._continuous_distribution.mu.weight f4 [2, 128]
0.0021198837 0.0048491633 0.052355945 -0.057737324 -0.0035951051 0.0064758006 -0.03349949 -0.005557917
-0.028356215 0.08266643 -0.04945443 0.056970667 -0.05499011 -0.002773783 0.0045119645 -0.0018851141
-0.004545011 -0.01708463 -0.032337 -0.031766742 -0.00850532 -0.04386527 -0.0068522324 -0.011715945
-0.0012826438 0.06985736 -0.06160468 0.052153494 0.0016229214 0.008236386 0.052713264 -0.003038114
0.0039038882 0.012491096 0.042516768 -0.014258608 0.06911002 -0.043231122 0.0028008034 -0.0039689783
-0.005084729 0.0012265391 -0.022333767 0.053257175 -0.015985131 -0.021889154 0.009600631 -0.018421857
-0.03814454 -0.10842924 0.08131533 0.047976043 0.0012526799 0.0050019156 0.05262231 -0.024400566
0.06450392 -0.01669056 -0.0061014 0.050206367 -0.044197574 0.10053689 0.06549965 -0.006931256
-0.004853098 -0.08958012 0.044165928 -0.040066175 -0.0068359515 -0.051808055 -0.0024023019 0.0027584073
0.006999207 -0.0019678404 0.021891432 -0.022085851 -0.0052350964 -0.1184903 0.045331102 0.02690239
-0.029693473 -0.0033620521 -0.060988784 0.09651684 -0.040419087 0.0027160747 -0.019328145 -0.06091269
-0.014722437 -0.0023459685 -0.015894286 -0.08022816 -0.0329558 -0.0013211772 0.049673922 0.0020137446
-0.0035272911 -0.09812195 -0.017904906 0.010132564 -0.0045452793 0.021143088 0.086809404 0.0050109834
-0.0017392768 -0.047619287 -0.0048910673 -0.063807346 -0.0065139662 0.0803385 -0.03256877 -0.0039643743
-0.036782898 0.0217988 -0.0024183248 -0.012659543 -0.0094320215 -0.033990245 0.05289813 -0.06875852
-0.04090126 0.057998862 -0.007969675 -0.037554298 0.008413141 -0.0032101776 -0.031497344 -0.026031857
0.0055892905 0.019048756 -0.0044201296 0.044595845 0.0025681055 0.012531362 0.00840513 -0.00025541577
0.025383385 0.04199554 0.0017955765 -0.051781747 -0.039181802 0.011216103 0.012937326 -0.0043462464
0.0020462275 -0.053862177 0.05896021 -0.035190377 -0.04164298 0.032631904 0.0035943296 -0.0073660854
0.005238567 0.034665246 0.06319821 0.040045794 0.057630446 0.010038628 -0.051465493 -0.018570779
-0.032541256 -0.043264683 -0.035501245 -0.07072634 0.11823504 -0.03478259 0.01589313 -0.0021886986
0.12869358 -0.03823227 -0.018944344 0.038972676 0.022121433 0.027826818 0.00812918 0.01016556
0.041948587 0.082939036 0.0054521025 0.08804255 0.03873408 0.00843154 -0.070769444 0.04260025
-0.022567956 0.009364194 0.001971438 0.06642905 0.037010256 0.04995172 0.07438545 0.037973415
0.012584513 0.0029629052 0.06868191 0.012263767 0.024289893 0.045531996 0.0155929215 0.01117263
-0.065859914 0.01825903 -0.0031302173 -0.025471913 -0.012788052 0.0057876045 0.0007385597 0.0025244653
-0.0021501498 0.0066316384 -0.0782126 -0.08262002 -0.031546358 0.0012399603 0.0024928986 0.10096049
-0.0589219 0.0006728769 0.015398729 0.008992278 -0.034107253 0.018747363 -0.09137357 -0.0003752557
-0.0072145187 0.007844269 0.014171449 0.010396256 0.014830914 -0.0027876548 -0.038817447 0.12453003
0.019893372 -0.07035717 -0.012619088 -0.042820226 0.0016589883 -0.060537707 -0.0129785035 0.058090977
0.014641602 0.048559107 -0.02718789 0.007207226 0.04245994 0.012133978 0.057356246 0.04804639
-0.00798822 0.050399095 -0.01783771 0.02124262 -0.0045472966 0.0101791285 -0.0241669 -0.10773669
00000000: bfed 0a3b bbe5 9e3b 3073 563d f97d 6cbd
00000010: db9b 6bbb f432 d43b c336 09bd 301f b6bb
00000020: 4b4b e8bc 044d a93d ba90 4abd 135a 693d
00000030: 4f3d 61bd 5bc8 35bb 1ad9 933b ef15 f7ba
00000040: 51ee 94bb 11f5 8bbc cd73 04bd d81d 02bd
00000050: e659 0bbc 12ac 33bd b188 e0bb 3cf4 3fbc
00000060: 621e a8ba 6011 8f3d 3055 7cbd e79e 553d
00000070: 35b8 d43a e8f1 063c dde9 573d 181b 47bb
00000080: 60d8 7f3b 74a7 4c3c 1026 2e3d f09c 69bc
00000090: 8e89 8d3d 1e13 31bd af8d 373b 340e 82bb
000000a0: cc9d a6bb d3c3 a03a 4ef5 b6bc 3224 5a3d
000000b0: 40f3 82bc e250 b3bc f74b 1d3c 6fe9 96bc
000000c0: 733d 1cbd 2610 debd a788 a63d 8782 443d
000000d0: f630 a43a 1ce7 a33b 7e8a 573d b2e3 c7bc
000000e0: a21a 843d a4ba 88bc 41ee c7bb 31a5 4d3d
000000f0: 8408 35bd 49e6 cd3d ae24 863d 971f e3bb
00000100: bd06 9fbb c875 b7bd 55e7 343d 6e1c 24bd
00000110: 1e00 e0bb af34 54bd f06f 1dbb 65c6 343b
00000120: 9b59 e53b e2f6 00bb a955 b33c 63ed b4bc
00000130: 2c8b abbb 0bab f2bd 1bad 393d 6762 dc3c
00000140: ba3f f3bc e055 5cbb 60cf 79bd 9faa c53d
00000150: 7c8e 25bd 2c00 323b 0f56 9ebc 967f 79bd
00000160: 6036 71bc d2be 19bb bc34 82bc a94e a4bd
00000170: a9fc 06bd 5a2b adba e276 4b3d 07f9 033b
00000180: 202a 67bb 29f4 c8bd 4fad 92bc 0e03 263c
00000190: 91f0 94bb 4534 ad3c 21c9 b13d 2d33 a43b
000001a0: 72f8 e3ba 710c 43bd 3f45 a0bb 6dad 82bd
000001b0: 1c73 d5bb 8388 a43d d566 05bd 95e7 81bb
000001c0: aaa9 16bd 6693 b23c c27c 1ebb f969 4fbc
000001d0: c488 1abc 5b39 0bbd b6ab 583d 44d1 8cbd
000001e0: 1488 27bd 3790 6d3d 3d93 02bc 89d2 19bd
000001f0: 45d7 093c d861 52bb 5c03 01bd c340 d5bc
00000200: 5e26 b73b 230c 9c3c bcd6 90bb 22aa 363d
00000210: a94d 283b 5750 4d3c acb5 093c 53e9 85b9
00000220: d1f0 cf3c 8403 2c3d 8d59 eb3a 1919 54bd
00000230: 197d 20bd bfc3 373c 14f7 533c f56a 8ebb
00000240: 001a 063b 969e 5cbd 4380 713d c923 10bd
00000250: d491 2abd 08a9 053d d88e 6b3b 345f f1bb
00000260: 49a8 ab3b 25fd 0d3d 106e 813d 0f07 243d
00000270: e70d 6c3d 0f79 243c 7bcd 52bd bf21 98bc
00000280: fb49 05bd 4f36 31bd c169 11bd f9d8 90bd
00000290: 3625 f23d 3078 0ebd 4f32 823c 4570 0fbb
000002a0: 40c8 033e 7199 1cbd 2b31 9bbc d0a1 1f3d
000002b0: 0238 b53c 11f5 e33c 4130 053c 738d 263c
000002c0: 48d2 2b3d f1db a93d 8da7 b23b a74f b43d
000002d0: a0a7 1e3d 7124 0a3c 92ef 90bd 9a7d 2e3d
000002e0: 6fe0 b8bc 476c 193c 3e33 013b f40b 883d
000002f0: 1198 173d 2d9a 4c3d 6657 983d 038a 1b3d
00000300: 462f 4e3c 4d2d 423b 1aa9 8c3d f8ed 483c
00000310: 99fb c63c c27f 3a3d 7479 7f3c 680d 373c
00000320: 90e1 86bd f693 953c 5524 4dbb 79aa d0bc
00000330: fa84 51bc f2a5 bd3b e79b 413a 8071 253b
00000340: 87e9 0cbb 374e d93b ed2d a0bd af34 a9bd
00000350: c136 01bd 2a86 a23a e65f 233b 60c4 ce3d
00000360: 1758 71bd 0164 303a f34a 7c3c 5954 133c
00000370: 0cb4 0bbd 1294 993c 1122 bbbd f8bd c4b9
00000380: c567 ecbb 4085 003c 5d2f 683c 0f55 2a3c
00000390: 5dfd 723c 16b1 36bb 0bff 1ebd 9a09 ff3d
000003a0: 6df7 a23c 6c17 90bd 4bc0 4ebc 4364 2fbd
000003b0: 6972 d93a 63f6 77bd caa3 54bc cef0 6d3d
000003c0: 54e3 6f3c eae5 463d 23b9 debc 982a ec3b
000003d0: 79ea 2d3d 98cd 463c 62ee 6a3d 4bcc 443d
000003e0: 06e1 02bc 486f 4e3d 6420 92bc 0105 ae3c
000003f0: 7d01 95bb 5cc6 263c aaf9 c5bc 0ea5 dcbd

network_body._body_endoder.seq_layers.0.bias f4 [128]
0.018261418 0.05781056 -0.018219462 0.055262614 -0.07167657 -0.04238699 0.04866994 0.08218279
0.06599529 0.034099508 -0.0030279763 -0.059453793 -0.078230515 0.021273224 -0.009581671 0.06335491
-0.08395453 0.03463173 0.09461321 0.038529422 -0.088118546 -0.043416798 0.0046021524 -0.058186103
-0.012972842 -0.090332456 0.066958606 0.012220268 0.072276875 -0.11961295 -0.036623802 -0.025471767
-0.12647292 -0.0046620946 -0.0548597 -0.11779855 -0.055758826 -0.020579394 -0.0032200683 -0.064776376
-0.062192157 0.048424035 0.05539993 -0.09309803 -0.10694346 -0.071600616 -0.062282752 -0.023480149
0.066431955 -0.02078642 0.022695271 -0.050215054 0.035903692 0.000906089 0.012620758 0.06607572
0.0059656543 -0.04294892 -0.089866005 -0.008419548 -0.09552038 -0.039834328 -0.06373509 -0.07930304
-0.00513219 -0.040740427 -0.01159543 -0.024372147 -0.010427484 -0.04701242 0.026172718 -0.012754981
0.06377129 0.0012521889 -0.04442 0.040074535 -0.054208726 -0.118579544 -0.0031298401 0.007099735
0.07572547 0.027143847 -0.017705642 -0.03268455 -0.003989755 -0.03137859 -0.024602203 -0.05129112
0.057357814 -0.08347667 -0.0052244496 -0.009000563 -0.012330469 -0.011745322 -0.008523851 -0.029380487
0.020054378 0.020645631 -0.10339729 -0.10990879 0.029035568 0.034203112 0.099870875 -0.02200191
-0.0120739695 -0.043284964 -0.061809104 0.0031159557 0.043029584 0.086184345 -0.10405094 0.013095593
-0.0048290817 -0.0142766135 0.032451894 -0.06775307 0.037276816 -0.08286761 0.033768933 0.044113852
0.025010169 -0.005668222 -0.03911352 -0.069368064 0.020328058 -0.026734482 -0.0039687925 -0.079693876
00000000: f898 953c c4ca 6c3d fb40 95bc 0d5b 623d
00000010: 2acb 92bd fb9d 2dbd 225a 473d 734f a83d
00000020: 8a28 873d edab 0b3d 0371 46bb d285 73bd
00000030: 5237 a0bd 2f45 ae3c 71fc 1cbc 38c0 813d
00000040: 5af0 abbd 00da 0d3d 92c4 c13d 07d1 1d3d
00000050: 7f77 b4bd d0d5 31bd a7cd 963b 8d54 6ebd
00000060: 0b8c 54bc 3900 b9bd 9821 893d 8537 483c
00000070: e605 943d a2f7 f4bd d702 16bd 2baa d0bc
00000080: 1e82 01be 7cc4 98bb 91b4 60bd 5e40 f1bd
00000090: 5e63 64bd 1e96 a8bc c807 53bb 7aa9 84bd
000000a0: 34bd 7ebd 4858 463d 09eb 623d 2eaa bebd
000000b0: 2c05 dbbd 58a3 92bd 331c 7fbd 7159 c0bc
000000c0: 7a0d 883d 4848 aabc 6feb b93c 4dae 4dbd
000000d0: c00f 133d 9a86 6d3a 4cc7 4e3c b552 873d
000000e0: 897b c33b 35eb 2fbd ab0b b8bd 25f2 09bc
000000f0: 30a0 c3bd 5229 23bd 8b87 82bd a269 a2bd
00000100: ee2b a8bb 6fdf 26bd c2fa 3dbc 19a8 c7bc
00000110: 0ad8 2abc 1890 40bd 2b68 d63c 45fa 50bc
00000120: 869a 823d 7d20 a43a bff1 35bd 3225 243d
00000130: f809 5ebd d5d9 f2bd 011e 4dbb e5a4 e83b
00000140: f515 9b3d c65c de3c 6c0b 91bc 3ce0 05bd
00000150: 7ebc 82bb d686 00bd 8f8a c9bc a316 52bd
00000160: 07f0 6a3d d1f5 aabd dc31 abbb 1977 13bc
00000170: bc05 4abc 736f 40bc 9fa7 0bbc 59af f0bc
00000180: 1449 a43c 0721 a93c f5c1 d3bd dc17 e1bd
00000190: 00dc ed3c 9018 0c3d 1a89 cc3d 593d b4bc
000001a0: e6d1 45bc 934b 31bd 8b2b 7dbd 1035 4c3b
000001b0: ca3f 303d 6b81 b03d a918 d5bd e68e 563c
000001c0: 463d 9ebb 75e8 69bc 47ec 043d 1fc2 8abd
000001d0: 93af 183d 7eb6 a9bd 4b51 0a3d bab0 343d
000001e0: 20e2 cc3c 7ebc b9bb 8035 20bd d810 8ebd
000001f0: 0787 a63c 4602 dbbc a50c 82bb 8b36 a3bd

network_body._body_endoder.seq_layers.0.weight f4 [128, 8]
-0.0981037 0.5013681 0.05548781 0.088434406 -0.22049068 -0.24925534 0.5235224 -0.19609766
-0.650152 -0.14173958 0.22131562 -0.14786793 0.43093112 0.06827884 0.34471336 0.3198512
-0.28412014 0.5232365 -0.22962794 -0.16087416 -0.1907457 0.66108316 -0.115729965 -0.35249352
-0.25335187 0.29940027 -0.13632649 0.24263518 -0.28045112 0.53332245 0.20504315 -0.4742059
0.45781478 0.30355448 -0.1541134 -0.44003126 -0.4745365 -0.35945806 -0.1990374 -0.23222795
-0.1896808 -0.33824155 0.046697088 0.26833862 -0.29773757 -0.5273423 0.3798835 -0.19098967
-0.25820017 0.6005268 0.1714792 0.002335632 0.11180804 -0.096536376 -0.35788473 -0.1692601
-0.021866556 0.32319763 0.90661633 -0.4819606 0.36636034 0.023113513 -0.0732024 0.41913062
0.34467378 0.10306202 -0.27564088 0.559943 -0.25702173 0.38858172 -0.476748 0.28944921
-0.18921545 0.26302752 0.09120608 0.55611867 0.3766672 -0.4523317 -0.08343206 0.32616267
-0.13664249 0.24703711 -0.27583438 0.19070725 0.0210389 -0.06492314 -0.21401398 0.4975711
0.24607617 -0.53671765 0.5872019 -0.076180466 -0.3043292 -0.75533664 0.3217337 0.19592391
0.7537916 0.24486658 -0.066084564 -0.115597546 0.43229458 -0.16526653 -0.04959039 -0.25910017
0.1450857 0.13144729 -0.015385678 0.4465187 -0.2908625 0.74018985 -0.06695141 -0.14332406
0.60290956 0.6083763 0.03929945 0.45930594 -0.26305032 0.13507706 0.19391553 -0.26221228
-0.0727897 0.3106955 0.12392957 0.036151163 0.3930178 0.26468837 -0.30354095 -0.40082693
0.3366905 -0.0967604 -0.31468055 -0.18833965 -0.15247448 -0.046615712 -0.14385818 0.015295564
0.3347136 -0.43236837 0.07913204 0.09804926 -0.3179576 -0.23940608 0.552843 0.60603863
-0.17876439 0.6102595 0.03627855 -0.16311787 -0.18609108 0.49400932 -0.13718611 0.014685212
-0.63007796 -0.5065265 -0.073897205 0.26160994 0.21376933 0.299956 -0.18951026 -0.10089304
0.36153814 -0.26760015 0.3280101 -0.5527525 0.36035442 -0.19716622 -0.027423732 0.05156654
-0.27528757 0.05784866 -0.4671147 0.5654769 -0.4501778 -0.18881793 -0.2999789 0.65248394
0.30077723 -0.0929254 0.73297155 0.20926169 0.39987376 0.15328726 -0.28079665 0.4560352
0.13771847 0.39469907 -0.20180431 -0.20602041 0.08217967 0.21085565 -0.087653436 0.23003475
-0.27502054 -0.10322953 0.31054488 0.068871275 -0.59543365 -0.2540812 0.15524988 -0.05016767
0.32270852 -0.28340995 -0.18614733 0.26236555 -0.055125933 0.24439012 -0.07863859 -0.19174488
-0.35447985 0.18932171 -0.38756856 0.4266887 0.1004206 -0.37775987 0.6118851 0.70707357
0.17887521 -0.023128945 0.07810086 0.3295528 0.39916903 0.21007718 -0.38501492 0.38330728
0.29941052 0.32387573 -0.064406745 0.39576474 -0.4958423 0.2189402 0.27197856 0.50036734
0.6916258 0.4531658 0.10901926 -0.3903819 -0.0143762985 -0.3422049 -0.56172097 -0.5940577
0.56379986 -0.3282208 0.38458532 0.41731387 0.025412688 -0.103373796 -1.1004732 -0.26737458
0.59643126 0.12314003 -0.109755635 0.11620839 -0.020903204 0.40776914 -0.005491644 -0.123969875
00000000: 98ea c8bd a959 003f 3047 633d 191d b53d
00000010: 4fc8 61be cb3c 7fbe 9005 063f d3cd 48be
00000020: 5d70 26bf 2e24 11be 90a0 623e b16a 17be
00000030: 01a3 dc3e c7d5 8b3d 457e b03e 89c3 a33e
00000040: 3278 91be d4f2 053f 9623 6bbe 32bc 24be
00000050: d752 43be bf3c 293f d503 edbd 087a b4be
00000060: 56b7 81be fe4a 993e 2c99 0bbe 5b75 783e
00000070: 4a97 8fbe d287 083f d5f6 513e 1ecb f2be
00000080: b366 ea3e 7e6b 9b3e e7cf 1dbe c74b e1be
00000090: 73f6 f2be e30a b8be 76d0 4bbe 2acd 6dbe
000000a0: af3b 42be ff2d adbe 7245 3f3d ae63 893e
000000b0: 0f71 98be e8ff 06bf 1780 c23e cc92 43be
000000c0: d032 84be 20bc 193f 3e98 2f3e 6711 193b
000000d0: 9dfb e43d ddb4 c5bd ab3c b7be 8552 2dbe
000000e0: 7e21 b3bc 297a a53e 0218 683f 8ac3 f6be
000000f0: 9593 bb3e 8d58 bd3c 24eb 95bd 4a98 d63e
00000100: 1579 b03e 2e12 d33d cd20 8dbe 6d58 0f3f
00000110: 5a98 83be 2ff4 c63e 5018 f4be b032 943e
00000120: b2c1 41be 8bab 863e 41ca ba3d cb5d 0e3f
00000130: 86da c03e 0598 e7be 6ede aabd cbfe a63e
00000140: 02ec 0bbe 4cf7 7c3e 2a3a 8dbe c348 433e
00000150: c559 ac3c 6cf6 84bd 7b26 5bbe a4c1 fe3e
00000160: 64fb 7b3e 5466 09bf dd52 163f 8104 9cbd
00000170: 09d1 9bbe be5d 41bf 48ba a43e 47a0 483e
00000180: 7cf8 403f 4ebe 7a3e 5857 87bd 68be ecbd
00000190: b755 dd3e a13b 29be 4b1f 4bbd c7a8 84be
000001a0: 5991 143e 1e9a 063e 3614 7cbc 199e e43e
000001b0: eeeb 94be 157d 3d3f d21d 89bd 8bc3 12be
000001c0: 4858 1a3f 8dbe 1b3f 76f8 203d 262a eb3e
000001d0: 88ae 86be a451 0a3e cb91 463e b040 86be
000001e0: c412 95bd 7b13 9f3e c9ce fd3d 3e13 143d
000001f0: a139 c93e 3c85 873e b869 9bbe 3039 cdbe
00000200: b262 ac3e 512a c6bd cf1d a1be 1cdc 40be
00000210: 4522 1cbe 1ef0 3ebd 8f4f 13be 3f9a 7a3c
00000220: 955f ab3e 635f ddbe fb0f a23d 0dce c83d
00000230: 57cb a2be de26 75be 1e87 0d3f 5925 1b3f
00000240: 030e 37be f739 1c3f d198 143d 5f08 27be
00000250: a98e 3ebe caee fc3e 847a 0cbe 3e9a 703c
00000260: ca4c 21bf b9ab 01bf 6b57 97bd bdf1 853e
00000270: 59e6 5a3e d593 993e fa0e 42be 03a1 cebd
00000280: 871b b93e e302 89be f1f0 a73e 3081 0dbf
00000290: 6080 b83e f1e5 49be bca7 e0bc 7037 533d
000002a0: 7ef2 8cbe b7f2 6c3d a829 efbe 18c3 103f
000002b0: b47d e6be 7d59 41be d696 99be 3009 273f
000002c0: 79ff 993e ac4f bebd 06a4 3b3f b248 563e
000002d0: 41bc cc3e 56f7 1c3e 94c4 8fbe 727d e93e
000002e0: 1206 0d3e ff15 ca3e caa5 4ebe 04f7 52be
000002f0: d14d a83d 8bea 573e a583 b3bd 3b8e 6b3e
00000300: 7ecf 8cbe 016a d3bd bdff 9e3e 620c 8d3d
00000310: 576e 18bf ee16 82be d3f9 1e3e 9d7c 4dbd
00000320: 0d3a a53e 1c1b 91be 689d 3ebe c754 863e
00000330: bbcb 61bd 6741 7a3e 450d a1bd c558 44be
00000340: 627e b5be 8ddd 413e 636f c6be f176 da3e
00000350: 51a9 cd3d be69 c1be 80a4 1c3f c602 353f
00000360: 102b 373e ea78 bdbc 58f3 9f3d 25bb a83e
00000370: e25f cc3e 791e 573e ad20 c5be da40 c43e
00000380: 564c 993e 0ad3 a53e afe7 83bd ada1 ca3e
00000390: 0bdf fdbe dc31 603e c640 8b3e 1318 003f
000003a0: 630e 313f 5905 e83e 7d45 df3d 23e0 c7be
000003b0: 918a 6bbc 7b35 afbe f2cc 0fbf 2a14 18bf
000003c0: 3055 103f 8f0c a8be 5ee8 c43e 2aaa d53e
000003d0: 452e d03c a4b5 d3bd 4edc 8cbf 52e5 88be
000003e0: b8af 183f d730 fc3d 90c7 e0bd aafe ed3d
000003f0: 323d abbc 1ec7 d03e 40f3 b3bb ebe3 fdbd

network_body._body_endoder.seq_layers.2.bias f4 [128]
-0.00019330446 -0.038732875 0.05431809 -0.04332823 -0.035621554 -0.07100816 -0.057897855 -0.047589604
-0.048413977 0.07036155 -0.03903819 0.08772903 0.012481976 -0.06539818 -0.04317781 -0.057263583
-0.054649804 0.04113933 -0.057843935 0.019118937 0.053088326 -0.038180303 -0.057727784 0.0118759405
-0.07239411 0.06920923 -0.036621287 -0.0016146601 -0.017960152 -0.070691355 0.0734604 0.045017753
0.05173484 0.07392308 0.058174465 0.09698824 0.022020966 0.03281978 -0.0691588 -0.022101825
-0.020522716 0.055977747 0.01582402 0.036444884 -0.05457352 -0.055375487 -0.018169614 -0.051154807
-0.035838835 -0.017261537 0.087066434 0.02501272 -0.03506203 0.014525856 0.10710966 -0.065180585
0.05628922 -0.035125177 -0.06778964 0.014645832 -0.030326558 0.074141264 0.021395244 -0.0439817
-0.043550618 0.0056673083 -0.011658433 -0.0640645 -0.0698742 -0.029400218 -0.013702487 -0.050283905
0.07702901 -0.069520734 -0.0034856498 0.006955079 -0.017190326 -0.00449259 0.03924029 0.037041407
-0.036821906 -0.056024317 0.06247067 0.12326789 0.010057513 0.008156035 0.004092905 -0.0340654
0.08336884 0.00440816 -0.06803044 -0.009932591 0.020696811 -0.04899514 0.08705012 -0.007380833
-0.06838481 -0.019539915 -0.051930144 -0.034865726 -0.030152226 0.009238539 0.082169786 -0.008522899
-0.031352684 0.048259765 0.019440735 0.04131844 -0.06340007 0.10032582 -0.018636314 -0.034289185
-0.02247233 -0.040805485 0.034557708 -0.050672974 -0.06792445 -0.034657072 0.016064169 -0.036203466
-0.029443352 0.05705043 0.036265284 -0.0518326 -0.048686214 -0.015074173 -0.0015840771 0.10562909
00000000: c5b1 4ab9 5da6 1ebd a57c 5e3d f178 31bd
00000010: e8e7 11bd ba6c 91bd 4d26 6dbd 51ed 42bd
00000020: bc4d 46bd b719 903d 82e6 1fbd 47ab b33d
00000030: 3481 4c3c 7bef 85bd 37db 30bd 388d 6abd
00000040: 79d8 5fbd b781 283d c3ed 6cbd 519f 9c3c
00000050: 2573 593d f362 1cbd f873 6cbd 4e93 423c
00000060: 5d43 94bd 92bd 8d3d 3400 16bd 01a3 d3ba
00000070: 2b21 93bc a1c6 90bd 6872 963d 8964 383d
00000080: e9e7 533d fc64 973d 5948 6e3d c5a1 c63d
00000090: 5065 b43c 096e 063d 21a3 8dbd e30e b5bc
000000a0: 411f a8bc ec48 653d 60a1 813c 3b47 153d
000000b0: 7c88 5fbd 68d1 62bd 71d8 94bc b487 51bd
000000c0: becb 12bd 1168 8dbc e34f b23d 7ae7 cc3c
000000d0: 349d 0fbd dbfd 6d3c 4f5c db3d 667d 85bd
000000e0: 868f 663d 6bdf 0fbd 4bd5 8abd 12f5 6f3c
000000f0: 676f f8bc 60d7 973d 1445 af3c 2826 34bd
00000100: 2262 32bd d4b4 b93b 0303 3fbc 4034 83bd
00000110: 341a 8fbd bad8 f0bc 6580 60bc 7ff6 4dbd
00000120: 63c1 9d3d e360 8ebd 806f 64bb 6ee7 e33b
00000130: bad2 8cbc 9436 93bb 6dba 203d bbb8 173d
00000140: 91d2 16bd c179 65bd 3fe1 7f3d e073 fc3d
00000150: 44c8 243c e4a0 053c c71d 863b 2988 0bbd
00000160: 48bd aa3d 5472 903b 8b53 8bbd 4ebc 22bc
00000170: 5c8c a93c 21af 48bd 5547 b23d eada f1bb
00000180: 560d 8cbd 2c12 a0bc b4b4 54bd 5dcf 0ebd
00000190: cd01 f7bc 3e5d 173c a248 a83d a1a3 0bbc
000001a0: ac6b 00bd 08ac 453d 2d42 9f3c 863d 293d
000001b0: e5d7 81bd a077 cd3d 2fab 98bc d172 0cbd
000001c0: e417 b8bc a723 27bd 628c 0d3d 778e 4fbd
000001d0: f91b 8bbd 93f4 0dbd 0199 833c 164a 14bd
000001e0: 2f33 f1bc b6ad 693d e88a 143d 6c4e 54bd
000001f0: 326b 47bd aaf9 76bc cfa0 cfba 1054 d83d

network_body._body_endoder.seq_layers.2.weight f4 [128, 128]
-0.038287073 -0.13892336 0.10173608 -0.18316406 -0.11067442 0.046785776 0.021458516 0.072236724
-0.1484722 -0.10091556 0.071521245 0.0040203324 0.04217358 -0.011334179 0.05537039 -0.023481337
0.09953968 -0.045827117 0.08354643 0.06913602 0.09880242 -0.08499982 0.024819067 0.109551765
-0.017213024 0.06882087 -0.030069457 0.05146704 -0.07418853 0.005326055 0.0057479194 -0.034011364
-0.061426874 0.108520456 0.010638562 -0.047626622 -0.011762584 0.0749218 0.025599018 0.010937872
-0.064816795 -0.043696273 -0.109845154 -0.030846057 -0.048952445 -0.007854518 -0.03903083 -0.02180105
0.0962449 -0.16570956 -0.065758556 -0.059051257 0.065303825 0.0025975308 -0.08193168 0.13894016
0.14919993 -0.06779202 -0.22921592 0.10568869 0.014166481 0.018175764 0.03454618 -0.23650107
0.0037583949 -0.016742617 0.097425245 -0.051586166 -0.01519728 0.048794687 0.063999206 -0.097047456
0.00043723383 -0.18613096 0.013623454 -0.03924296 0.0071208673 -0.116185576 -0.061862174 0.0044132816
0.24592018 0.026483985 -0.042770233 0.043903183 -0.07976664 0.06208868 0.04000057 0.10650645
-0.039951622 -0.06913587 -0.07819971 0.008116758 -0.0588396 -0.1190342 -0.03338359 -0.13155669
-0.10277546 0.16237761 0.14625083 0.04885818 -0.030342951 -0.025146635 -0.027774101 -0.19940798
0.039840467 -0.012187124 0.1182899 0.20479748 0.13495308 -0.037910916 0.056124534 0.023827748
0.034731243 -0.15260796 0.11247346 -0.08571581 0.06991192 0.041271962 0.054854568 -0.22039504
-0.13754946 0.0039061157 -0.055232413 -0.04452744 -0.01362248 -0.10923061 -0.019247126 0.009498448
-0.21072644 -0.05227679 -0.1670663 0.082857706 -0.008381789 -0.036846723 0.013132627 -0.1337149
0.01353125 -0.08568314 0.08861815 0.038686804 0.2433189 -0.047324073 -0.101454064 -0.0671028
0.06086933 -0.12394264 -0.16959053 0.040667232 -0.00311784 -0.013604352 -0.19476771 -0.053115193
0.084722094 -0.022575535 -0.02417189 0.07411546 0.11524568 0.056840938 0.067640364 0.03969307
-0.047978915 -0.027002865 0.06160486 -0.011316291 -0.025125444 -0.04968333 0.015853917 -0.103175156
0.055462677 0.060692415 -0.19682905 0.054077286 0.016306568 0.023678929 -0.0012398616 -0.023826933
-0.07262856 0.078341894 0.04908407 0.07556336 -0.06523973 -0.0040389127 -0.012805054 -0.061516553
0.027061118 -0.055808727 0.022606395 0.15018019 -0.054130726 -0.06238846 -0.008409312 0.092691
0.1008027 0.07944502 0.066007294 -0.05242845 0.08571835 0.1097756 0.1742713 -0.070900165
0.03510621 0.07589063 -0.04725245 -0.036639407 -0.08797835 -0.06714248 -0.00070757413 -0.11415242
-0.024924032 0.045211 0.19195691 -0.009505651 0.08634545 -0.0063201394 -0.1450092 -0.05862347
-0.10912304 0.12367411 -0.039559152 -0.02758728 -0.013922445 0.109442845 0.027220074 0.045265827
0.110112384 -0.004072731 0.2172488 0.10864641 0.17011258 0.05571179 0.08282259 0.10035441
-0.06451265 -0.02394995 -0.069384076 0.020477189 -0.007483851 -0.016218776 -0.007459668 0.035456575
-0.16382347 0.121337764 0.026753506 0.10010928 -0.13794559 -0.0404886 -0.104278505 -0.012332675
-0.08435792 0.15264384 0.13548964 -0.0060404562 0.0044093765 0.12727207 -0.09890202 -0.07774619
00000000: e8d2 1cbd ed41 0ebe 025b d03d 5c8f 3bbe
00000010: 45a9 e2bd 71a2 3f3d c5c9 af3c d9f0 933d
00000020: 1909 18be d1ac cebd bb79 923d febc 833b
00000030: 34be 2c3d feb2 39bc 10cc 623d ef5b c0bc
00000040: 76db cb3d 37b5 3bbd 641a ab3d 3097 8d3d
00000050: ec58 ca3d 6314 aebd 5b51 cb3c ad5c e03d
00000060: 5402 8dbc f5f1 8c3d 3954 f6bc 1acf 523d
00000070: 28f0 97bd 3086 ae3b 0b59 bc3b 804f 0bbd
00000080: bf9a 7bbd f93f de3d 5d4d 2e3c 2214 43bd
00000090: dab7 40bc 9a70 993d 08b5 d13c c334 333c
000000a0: abbe 84bd ddfa 32bd 7ff6 e0bd dfb0 fcbc
000000b0: 5c82 48bd 3cb0 00bc cbde 1fbd 1e98 b2bc
000000c0: 0c1c c53d c4af 29be 6cac 86bd bbdf 71bd
000000d0: 03be 853d 563b 2a3b cccb a7bd 5446 0e3e
000000e0: dec7 183e 8bd6 8abd 94b7 6abe 5073 d83d
000000f0: 871a 683c 57e5 943c 4c80 0d3d 562d 72be
00000100: 674f 763b d027 89bc e386 c73d 044c 53bd
00000110: 03fe 78bc f0dc 473d 0412 833d d1c0 c6bd
00000120: 883c e539 1d99 3ebe e834 5f3c 3abd 20bd
00000130: 2a56 e93b b4f2 edbd 3163 7dbd 4a9d 903b
00000140: 80d2 7b3e f1f4 d83c d72f 2fbd d3d3 333d
00000150: b15c a3bd b350 7e3d a3d7 233d 0e20 da3d
00000160: 50a4 23bd 1b97 8dbd 2b27 a0bd 27fc 043c
00000170: cb01 71bd 34c8 f3bd 3bbd 08bd ccb6 06be
00000180: f17b d2bd 5146 263e c7c2 153e 841f 483d
00000190: c891 f8bc 5100 cebc 8386 e3bc 9b31 4cbe
000001a0: c22f 233d 81ac 47bc fa41 f23d 6eb6 513e
000001b0: 2431 0a3e 7a48 1bbd d7e2 653d 6932 c33c
000001c0: 5942 0e3d 4345 1cbe 7c58 e63d c58b afbd
000001d0: fb2d 8f3d ca0c 293d 2faf 603d 3daf 61be
000001e0: c4d9 0cbe bffd 7f3b 623b 62bd 6862 36bd
000001f0: d330 5fbc 4cb4 dfbd 26ac 9dbc 619f 1b3c
00000200: acc8 57be 3020 56bd 6e13 2bbe 4db1 a93d
00000210: c553 09bc 97ec 16bd 3b2a 573c 8fec 08be
00000220: 2db2 5d3c a47a afbd 6f7d b53d 0e76 1e3d
00000230: 9728 793e e3d6 41bd 26c7 cfbd 316d 89bd
00000240: 1e52 793d a4d5 fdbd 24a9 2dbe af92 263d
00000250: ad54 4cbb cae4 5ebc 3071 47be 518f 59bd
00000260: c782 ad3d 54f0 b8bc 2104 c6bc d9c9 973d
00000270: ed05 ec3d 0bd2 683d 0887 8a3d 3395 223d
00000280: 8a85 44bd 1d35 ddbc 6155 7c3d f767 39bc
00000290: e0d3 cdbc bf80 4bbd 13e0 813c 7f4d d3bd
000002a0: d52c 633d 9c98 783d 8e8d 49be 2580 5d3d
000002b0: 5a95 853c 50fa c13c da82 a2ba b330 c3bc
000002c0: 48be 94bd b771 a03d 610c 493d f6c0 9a3d
000002d0: 689c 85bd db58 84bb 4acc 51bc c8f8 7bbd
000002e0: 47af dd3c b197 64bd 0c31 b93c d6c8 193e
000002f0: 2eb8 5dbd 0b8b 7fbd 36c7 09bc c7d4 bd3d
00000300: a571 ce3d 12b4 a23d d52e 873d 37bf 56bd
00000310: 1a8d af3d 08d2 e03d 2d74 323e 1b34 91bd
00000320: 87cb 0f3d 8c6c 9b3d c98b 41bd 3413 16bd
00000330: fe2d b4bd ff81 89bd 7f7c 39ba bec8 e9bd
00000340: 7c2d ccbc 2b2f 393d 5a90 443e 97bd 1bbc
00000350: e2d5 b03d 2c19 cfbb 4b7d 14be 2a1f 70bd
00000360: e77b dfbd da48 fd3d c708 22bd b8fe e1bc
00000370: f71a 64bc 9223 e03d a2fc de3c a968 393d
00000380: 9a82 e13d 8b74 85bb 7876 5e3e 0282 de3d
00000390: fe31 2e3e 0c32 643d e49e a93d 9d86 cd3d
000003a0: 351f 84bd af32 c4bc 3d19 8ebd c7bf a73c
000003b0: 183b f5bb 3ddd 84bc 3b70 f4bb ea3a 113d
000003c0: 57c1 27be ef7f f83d 2b2a db3c 1806 cd3d
000003d0: 9c41 0dbe 60d7 25bd f88f d5bd fd0e 4abc
000003e0: d8c3 acbd ab4e 1c3e ccbd 0a3e 05ef c5bb
000003f0: 887c 903b 9c53 023e 248d cabd 6539 9fbd

network_body.observation_encoder.processors.0.normalizer.running_mean f4 [8]
-0.0032745157 0.0039010898 -0.14054288 3.0748641 -0.19508003 0.037078787 -0.441373 0.03689418
00000000: 4299 56bb 6da9 7f3b 79ea 0fbe 93ca 4440
00000010: 0fc3 47be eddf 173d a4fb e1be 5a1e 173d
