Project/Assets/ML-Agents/Examples/3DBall/TFModels/MyAgents/2nd3DBallFinal.onnx (onnx, 73994 bytes, 9 tensors)

50 f4 [8]
000000 9e 9f 49 3d 3f 5e 4a 3d 34 6d 1d 3f b2 ee 48 3e
       0.04922449 0.049406286 0.61494756 0.19622305
000010 d1 1a 23 3f 65 48 00 3f 1a 5c 25 3f 0a 33 fd 3e
       0.63712794 0.50110465 0.6459366 0.49453002

action_model._continuous_distribution.log_sigma f4 [1, 2]
000000 d6 7b 15 be 37 40 f7 bd
       -0.14598021 -0.12072795

action_model._continuous_distribution.mu.bias f4 [2]
000000 46 9b ae 3c 0d 01 1b bd
       0.021314275 -0.0378428

action_model._continuous_distribution.mu.weight f4 [2, 128]
000000 de 1a fd bb 90 e2 43 bb 90 78 3d 3d 1b 59 18 bd
       -0.00772415 -0.002988968 0.046257555 -0.037194353
000010 58 c9 20 3b e6 14 2a 3b 94 23 10 bd c6 26 0c bb
       0.0024534073 0.0025952398 -0.03519018 -0.0021385415
000020 8b b1 2c bd 24 cc 9f 3d f5 97 27 bd c0 09 1b 3d
       -0.042161506 0.078026086 -0.040916402 0.037851095
000030 17 bb 85 bd 1e 2b 7c 3a a1 4c b2 3b 7f 99 84 bc
       -0.06529825 0.0009619462 0.005441264 -0.016186474
000040 1a 04 18 3c 82 eb b5 bc 4f 6c 10 bd c6 3e 27 bd
       0.009278322 -0.022207025 -0.03525954 -0.04083135
000050 e6 79 00 bc 21 2b 24 bd 6c a6 d6 bb 7f 63 a9 bc
       -0.007841563 -0.040080193 -0.0065506008 -0.020677326
000060 df 76 ac bb 04 39 89 3d 6a fe 86 bd 30 73 84 3d
       -0.005263194 0.06700328 -0.065914944 0.06467283
000070 45 5e a0 3b 87 16 6d 3b ed b9 1e 3d 74 e1 18 bc
       0.0048940503 0.0036176757 0.03875153 -0.009331096
000080 4a 20 4f bc b1 3d a3 3b 2f ed 17 3d 69 71 de bc
       -0.012641976 0.0049817194 0.03709143 -0.027153688
000090 8a 0f ac 3d 20 7c 12 bd f4 c7 aa 3b 82 ef bf ba
       0.08401401 -0.035762906 0.0052118246 -0.0014643522
0000a0 ba f1 be 3b 20 8f db ba 23 00 f7 bc 6d 07 65 3d
       0.005827156 -0.0016751029 -0.030151432 0.055915285
0000b0 52 3b dd bc fc dc 09 bc c3 df 15 3c ee f2 95 bc
       -0.027005825 -0.008414503 0.009147587 -0.018304314
0000c0 98 17 18 bd 65 30 d4 bd 39 bf a2 3d 5a 9a 8a 3d
       -0.037131876 -0.10360793 0.07946629 0.067677215
0000d0 2e b7 c6 bb e6 b9 07 3b 5b fa 46 3d 6d 2c 2a bd
       -0.006064317 0.002071017 0.0485786 -0.041546274
0000e0 9f a6 55 3d c0 43 21 bc 83 33 8a bc cf f4 1d 3d
       0.052160855 -0.009842813 -0.016870266 0.038563546
0000f0 b1 94 47 bd 10 52 cc 3d c0 ca 6b 3d 41 4a 6b bb
       -0.048725788 0.0997659 0.057566404 -0.0035902413
000100 c9 be c3 ba 1e 6c b4 bd 85 b5 57 3d 79 23 32 bd
       -0.0014934178 -0.08809684 0.052663345 -0.04349086
000110 04 7e 3c bc 0f 2f 48 bd e4 f1 11 3c b6 a7 bd 3b
       -0.011504654 -0.048873004 0.008907769 0.005787815
000120 f5 ec ed bb dd e5 b4 bb 26 77 4e 3c ec 65 db bc
       -0.0072609135 -0.005520566 0.012601649 -0.026781999
000130 f8 e1 49 ba 5b 6f f9 bd 9a 69 f6 3c 61 2f 05 3d
       -0.00077012135 -0.121794425 0.030079652 0.032515887
000140 5a e8 c9 bc f2 e7 0f bc b4 c2 9a bd 55 a2 aa 3d
       -0.024646927 -0.008783327 -0.07556668 0.08331744
000150 82 9f 33 bd be e4 89 bb 0f 8b ad bc dc 63 34 bd
       -0.04385329 -0.0042081764 -0.021184472 -0.044040546
000160 d1 44 03 bd ac 92 89 3c de bc 97 ba 94 93 a4 bd
       -0.03204805 0.016793571 -0.0011576673 -0.08035961
000170 c7 67 18 bd 2a c9 e5 bb 82 56 21 3d 23 d1 51 3b
       -0.037208345 -0.007012506 0.03938914 0.0032015524
000180 bd ea 44 bc 5c 36 dd bd 84 39 85 bc 1e c7 be 3c
       -0.012018857 -0.10801384 -0.016262777 0.023288306
000190 69 1f 00 bc bd a7 03 3c 15 16 99 3d e5 fa b4 bb
       -0.007819989 0.008035597 0.07474915 -0.005523073
0001a0 f1 47 01 3c 8e ea 6a bd 9f 34 36 bc d1 25 79 bd
       0.007890687 -0.057352595 -0.011120944 -0.06082708
0001b0 8d 79 90 bc e4 ad 88 3d 8c 4c 05 bd 63 ec bf 3b
       -0.017636085 0.06673792 -0.032543704 0.005857037
0001c0 cb 90 1a bd 1d bd b3 3c ac a1 cf 39 95 52 46 bc
       -0.03773574 0.021940762 0.00039602572 -0.01210465
0001d0 01 a0 b1 b9 13 8d c5 bc de 11 4c 3d 31 2b 8f bd
       -0.00033879283 -0.024115121 0.049821727 -0.0699066
0001e0 a2 45 51 bd a5 ac 97 3d f7 3f c8 bb 35 3a 18 bd
       -0.051091798 0.07405976 -0.006111141 -0.037164886
0001f0 0a 6e 50 3c 58 85 0c bc de 9b 0d bd c8 28 42 bd
       0.012721548 -0.0085767135 -0.034572475 -0.047402173
000200 6e 7a 57 ba 0a f1 03 3c 2e 05 14 bc 7c 5a 38 3d
       -0.00082198426 0.008053074 -0.009034438 0.045008168
000210 cb ff ca bb 40 28 98 3b 12 2b 88 3c f7 a3 8e bb
       -0.0061950437 0.00464347 0.0166221 -0.004353042
000220 0e dd 47 3c 08 2d 5c 3d cc 33 83 3b 2a 2c 72 bd
       0.0121987 0.053753883 0.0040039774 -0.05912415
000230 53 c3 11 bd e3 25 70 3b cb ec 0b 3c 53 0a 75 ba
       -0.035586666 0.0036643676 0.008540343 -0.0009347547
000240 30 6f aa b9 9a 15 29 bd 77 7d 82 3d fd 7e b8 bc
       -0.00032507768 -0.041280366 0.06371587 -0.02252149
000250 fb 02 01 bd b8 c7 0b 3d cb 05 da 3a ac ea 39 3c
       -0.031496983 0.034126014 0.0016633807 0.011347454
000260 ad 52 99 bb 52 86 00 3d 34 b6 61 3d ea 8b 2e 3d
       -0.004679045 0.031378098 0.055105403 0.0426139
000270 68 e3 6e 3d c5 2f 63 3c 81 13 67 bd 4e 7b 36 bc
       0.05832234 0.01386637 -0.056415085 -0.011137797
000280 9c aa b2 bc e5 37 4f bd d0 88 06 bd 53 c7 7c bd
       -0.021809869 -0.050590415 -0.03284532 -0.061713528
000290 13 68 ee 3d b6 85 df bc 54 86 2d 3c ce 8f e3 3b
       0.11640944 -0.027285438 0.010591108 0.006944633
0002a0 31 22 03 3e 28 cb 03 bd 85 25 ad bc 69 27 13 3d
       0.12806012 -0.032176167 -0.021136055 0.035926256
0002b0 f0 cb 3c 3c 4f 88 ab 3c a3 2b 69 3b bc 0a 25 3c
       0.011523232 0.02093902 0.0035578988 0.01007336
0002c0 8b 8b 31 3d 02 51 aa 3d 38 9d c3 ba 6d 70 a6 3d
       0.04334597 0.08316232 -0.0014924174 0.08126912
0002d0 e6 52 27 3d 2d 92 25 ba 09 e8 99 bd 94 eb 1f 3d
       0.040850542 -0.00063160324 -0.0751496 0.039043024
0002e0 18 9e 73 bc e8 c0 63 b9 9e 74 43 bc f8 4e 91 3d
       -0.014869235 -0.0002172027 -0.011929659 0.0709514
0002f0 1e 76 00 3d ed ef 6d 3d 0f 37 b3 3d 45 f2 2a 3d
       0.031362645 0.05809014 0.08750736 0.041734952
000300 03 29 a6 3a b7 2d de bb 8b 1d 8f 3d f6 7e 2a 3c
       0.0012677017 -0.006780352 0.06988057 0.010406246
000310 5e 42 e7 3c 4c f3 39 3d eb a3 44 3c 46 e4 1b bb
       0.028229889 0.04539804 0.012001972 -0.0023787185
000320 9c 7d 70 bd 1c 90 98 3c e1 55 00 bc 1c 5c b3 bc
       -0.05871354 0.018623404 -0.007832975 -0.021894507
000330 53 b5 cf bb 6a 35 99 3b 1a 95 0a bb 9f 76 e8 ba
       -0.006338754 0.004675557 -0.0021146 -0.0017735547
000340 19 92 b2 3b b8 dd 34 bc c3 7c 95 bd 4d 12 c4 bd
       0.005449545 -0.01103919 -0.07299187 -0.09573803
000350 b7 ca b1 bc b7 c3 35 3c 62 98 97 3b b1 a6 cf 3d
       -0.021703107 0.011094025 0.0046263197 0.10139216
000360 4b 13 37 bd 49 2c 25 3c be 46 8b 3c f1 71 dd 3b
       -0.044696134 0.010081359 0.017001506 0.0067579676
000370 fe 9d 91 bc ec 3f b9 3c 0d 08 c4 bd 95 e4 4e bb
       -0.017775532 0.022613488 -0.09571848 -0.003156935
000380 8c eb c6 3b fc a4 86 3b d3 7a b9 3c 29 ac a6 3b
       0.00607056 0.004109023 0.022641575 0.005086441
000390 b8 f2 f4 3b 0b 54 e5 3a 37 f6 17 bd 83 76 0d 3e
       0.0074752234 0.001749636 -0.037100043 0.1381474
0003a0 8a a2 bf 3b 3e 62 71 bd 00 cb 1e bc 2a 76 13 bd
       0.0058482336 -0.05893158 -0.009691954 -0.036001362
0003b0 f2 0d 90 ba 12 53 a0 bd f7 4b ae bc 9a 36 70 3d
       -0.0010990484 -0.078283444 -0.021276457 0.058645822
0003c0 2a 95 27 3c 0c ca 5d 3d 62 be e9 bc b0 db 0c 3c
       0.010228435 0.054147765 -0.028533164 0.008597299
0003d0 bc 17 13 3d a6 3d 55 3c 2a 23 8a 3d d9 43 53 3d
       0.035911307 0.013015186 0.06744988 0.051578376
0003e0 a8 39 be bb 01 48 40 3d 70 82 5b bb 2b be d6 3c
       -0.005805213 0.04694367 -0.0033494495 0.026213726
0003f0 11 78 31 bc 01 5e 50 3c 5c 89 49 bc 7f 86 a8 bd
       -0.010831849 0.012717725 -0.012300815 -0.08228778

network_body._body_endoder.seq_layers.0.bias f4 [128]
000000 1d f3 53 3c 8d 2e 1f 3d a8 f1 d6 bc 14 cc 26 3d
       0.012936381 0.038862754 -0.026238278 0.040721968
000010 7c a2 a3 bd c6 90 1d bd 46 d7 05 3d bf 4b 84 3d
       -0.07989976 -0.038468145 0.032676004 0.0645976
000020 ff 95 50 3d 8e b4 c2 3c ac 37 90 bc e0 84 4d bd
       0.050924297 0.023767736 -0.017604671 -0.050175548
000030 97 a6 85 bd 89 1d 85 3c 7b 20 aa bb 7d e7 4f 3d
       -0.06525915 0.016249435 -0.0051918603 0.050757874
000040 de 51 75 bd 00 9f 2a 3d 0b 41 a4 3d 5b da 16 3d
       -0.059892528 0.04165554 0.080202185 0.036829334
000050 b3 ed 9b bd 27 f2 55 bd a5 1c 6a bc 50 2b 83 bd
       -0.07613697 -0.052232888 -0.014289056 -0.064047456
000060 e1 1f 05 bd ca 31 a9 bd 33 65 59 3d c3 67 d1 bb
       -0.032501105 -0.0826145 0.053075027 -0.006390543
000070 23 45 64 3d 4e bb fe bd 65 23 01 bd 11 8b a9 bc
       0.055729996 -0.12438069 -0.031527895 -0.020696195
000080 5c 6f 04 be 41 cb 84 3a 44 67 00 bd e2 af 03 be
       -0.12933105 0.0010131375 -0.03134848 -0.12860063
000090 e5 b0 3e bd 6e bd d9 bc bb ce 99 3b 61 96 59 bd
       -0.04655542 -0.026579585 0.0046938336 -0.053121928
0000a0 34 0f a0 bd 31 7e 1d 3d 11 de 31 3d e5 dd c0 bd
       -0.078154 0.038450424 0.04342467 -0.09417323
0000b0 9b 5c ca bd 94 58 b7 bd 62 da 6d bd c0 ee 3c bd
       -0.09880944 -0.08952442 -0.058069594 -0.046126127
0000c0 f7 89 57 3d 9b 0d 2b bc 95 7e 3f 3c dc b8 38 bd
       0.052621808 -0.0104402555 0.011687894 -0.04509817
0000d0 e3 98 27 3d e4 23 1c 3b 7f 7c 08 3d f1 8c 19 3d
       0.04091729 0.0023825103 0.033321854 0.037487928
0000e0 35 8c 1e ba 20 25 20 bd c3 60 c2 bd 53 11 e6 bb
       -0.0006048114 -0.039097905 -0.09491112 -0.007021108
0000f0 a3 8d a5 bd 0d e4 0d bd e2 14 80 bd 8e be d6 bd
       -0.08083656 -0.034641314 -0.06253983 -0.10485564
000100 1b 55 c0 bc a6 07 f9 bc 37 10 e9 bc 6f 30 a2 bc
       -0.023478081 -0.030399155 -0.028450115 -0.019798486
000110 07 73 f0 bb 91 b5 5d bd c1 f3 5b 3c 2b 94 92 bc
       -0.007337931 -0.054128233 0.013424815 -0.017892918
000120 33 56 6c 3d 60 6e 6e bc 00 51 67 bd 0a 73 b7 3c
       0.057699393 -0.014552683 -0.056473732 0.022393722
000130 45 44 28 bd aa 22 dd bd 78 ac 00 3c e5 1e 11 3b
       -0.041080732 -0.10797627 0.00785362 0.0022143659
000140 10 cf 91 3d 4d 9e 90 3c a7 81 08 bc c3 b3 af bc
       0.07119572 0.017653609 -0.008331693 -0.021448022
000150 ce 39 dc bc 0f ea 81 bc 44 d0 23 bc 85 81 f4 bc
       -0.026883032 -0.015858678 -0.009998385 -0.029846916
000160 53 e2 37 3d d9 c6 8e bd 50 35 80 bc 96 21 12 3b
       0.044893574 -0.06971521 -0.015650421 0.002229785
000170 a3 f5 d0 bc d2 65 7e bc 4e 0d 20 3b 89 c7 b2 bc
       -0.025507754 -0.015527206 0.0024421993 -0.021823661
000180 4a ff 8e 3c d3 dd 05 3c 1d 29 d6 bd 62 3d bb bd
       0.017455716 0.008170563 -0.104570605 -0.09142567
000190 b7 af e0 3c bf cf 3e 3c 5f 5a ad 3d b3 7e ff bc
       0.027427537 0.01164621 0.084645025 -0.031188345
0001a0 73 7b 9b bc 3c 73 5c bd 80 56 37 bd 5a 77 65 3b
       -0.018979764 -0.053820834 -0.044760227 0.0035013766
0001b0 07 c0 aa 3c 4f 84 86 3d 64 83 b8 bd bd c8 e2 3b
       0.020843519 0.065682046 -0.09009436 0.0069209025
0001c0 19 76 06 bc a2 ad 23 bc a2 1b 9a 3b 1a 49 82 bd
       -0.008206868 -0.009990128 0.004703001 -0.06361599
0001d0 50 3e de 3c 60 e9 d3 bd 4d 59 95 3c 76 f9 e5 3c
       0.027129322 -0.10347247 0.018231058 0.028073054
0001e0 5d 6c 6a 3c df 6f 27 bc 51 8e e5 bc 49 2f 5d bd
       0.014308062 -0.010219543 -0.028021963 -0.054000173
0001f0 ff a1 87 3c e0 a0 27 bd 2b 05 da ba d2 e9 a2 bd
       0.016556738 -0.040924907 -0.001663362 -0.07954754

network_body._body_endoder.seq_layers.0.weight f4 [128, 8]
000000 04 bb ce bd 5d 18 fe 3e f6 93 66 3d 13 73 cd 3d
       -0.10094264 0.49627963 0.05629345 0.10031714
000010 d8 0d 46 be a7 2f 80 be 8d 1a fd 3e a9 36 48 be
       -0.19341218 -0.25036356 0.4943432 -0.19552101
000020 b1 68 26 bf e5 cb 1e be c5 14 66 3e d4 2a 0a be
       -0.65003496 -0.15507467 0.2246886 -0.134929
000030 a8 ef e0 3e f9 d7 99 3d 99 49 af 3e a2 c1 a3 3e
       0.43932843 0.07511897 0.34235838 0.31983668
000040 d0 71 95 be a4 41 0a 3f 43 b2 6c be 6c 4b 09 be
       -0.29188395 0.5400641 -0.23114876 -0.13407677
000050 1b 3b 44 be 24 5d 28 3f 63 22 f7 bd b3 27 ad be
       -0.19163172 0.6576712 -0.120671056 -0.3381935
000060 eb b8 82 be b8 79 9c 3e d2 12 14 be 8d fd 7c 3e
       -0.25531706 0.30561614 -0.14460304 0.24706097
000070 a8 4f 90 be f2 53 0a 3f 5f b4 51 3e d0 b1 f8 be
       -0.28185773 0.5403434 0.20478962 -0.4857316
000080 5d f4 ed 3e df 74 a5 3e 5d 10 1c be 9f f1 d9 be
       0.46475497 0.32315728 -0.15240617 -0.42567155
000090 72 22 e9 be 52 a3 b6 be 1e df 4f be 1d 12 56 be
       -0.45534092 -0.3567148 -0.20299956 -0.20905347
0000a0 f6 d4 40 be ce 03 b3 be 96 2e 28 3d 2c c1 85 3e
       -0.18831238 -0.3496384 0.041060053 0.2612394
0000b0 57 44 9a be 42 c0 03 bf 7e fb c8 3e 9b 28 3b be
       -0.30130264 -0.5146524 0.39254373 -0.18277209
0000c0 b0 91 86 be d0 14 1c 3f b6 d0 39 3e 19 62 6d 3b
       -0.26283026 0.6096926 0.18146023 0.00362218
0000d0 c4 19 c9 3d 6c 2c d6 bd a4 db b2 be ad 2d 39 be
       0.098193675 -0.104576916 -0.34933197 -0.1808383
0000e0 dd ae d3 bc 1b 88 ae 3e d1 1e 68 3f 8f 2e f7 be
       -0.025840217 0.34088215 0.9067202 -0.4827771
0000f0 3b 03 be 3e df 16 e6 3c 23 6e 88 bd 03 e9 d1 3e
       0.3711184 0.028087078 -0.06661632 0.40998086
000100 00 f9 a9 3e f5 22 b3 3d f9 c4 8a be 16 10 0c 3f
       0.33197784 0.08746902 -0.27103403 0.54712045
000110 2a ca 85 be 83 bf c5 3e d4 2c f0 be 55 07 9a 3e
       -0.261308 0.38622674 -0.469092 0.3008372
000120 9f 9a 47 be df 2d 87 3e 5e 61 c7 3d ff f0 0d 3f
       -0.19492577 0.26402184 0.09735368 0.55445856
000130 5e 96 be 3e d2 dd e7 be 68 50 8a bd 06 8a a0 3e
       0.37224096 -0.45286423 -0.067536175 0.31355304
000140 d2 a1 f9 bd fd 58 86 3e eb bf 85 be 19 47 3e 3e
       -0.12189068 0.26239768 -0.26122984 0.18581809
000150 20 f9 8a 3c dd 12 95 bd ff 10 47 be ee 1b ef 3e
       0.016964495 -0.072789885 -0.19440077 0.46700996
000160 4d e8 7e 3e 16 c1 0d bf 91 5d 15 3f 1b af 9e bd
       0.24893303 -0.5537275 0.58345896 -0.077482425
000170 96 2d 9d be 31 e9 3c bf f8 42 9f 3e db e6 42 3e
       -0.30698842 -0.7379332 0.3110578 0.19033377
000180 b3 ea 42 3f 4c d1 82 3e b5 4f 7b bd 14 78 f1 bd
       0.7613937 0.25550306 -0.06135531 -0.11790481
000190 d2 31 dd 3e 84 fa 33 be 6a ab 3e bd 0d e6 6f be
       0.43202072 -0.17576033 -0.046550192 -0.23427601
0001a0 4b 25 0c 3e 59 a1 0f 3e fd f7 b3 bc 02 24 e3 3e
       0.13686101 0.14026393 -0.021968836 0.4436341
0001b0 3c 7e 95 be c9 ab 3d 3f a1 22 58 bd 5c e8 21 be
       -0.29197872 0.7409025 -0.0527674 -0.15811294
0001c0 82 ab 1b 3f e2 0c 1d 3f b5 43 19 3d c7 54 ef 3e
       0.60808575 0.6134778 0.037418086 0.46744367
0001d0 58 81 85 be cd a4 01 3e ed 22 3b 3e a9 c7 85 be
       -0.26075244 0.12660523 0.18275042 -0.2612889
0001e0 bf 76 94 bd a1 6a 99 3e dc b2 03 3e 55 d9 21 3d
       -0.072492115 0.29964164 0.12861198 0.039513905
0001f0 28 8f c9 3e 75 47 8f 3e 6e 20 9b be d1 51 d5 be
       0.39367032 0.27984205 -0.3029818 -0.41663983
000200 19 b5 b0 3e 34 29 bd bd 61 03 a0 be 51 14 45 be
       0.34513167 -0.092363745 -0.31252578 -0.19246031
000210 3e 67 1f be e2 7a 46 bd 5c 60 11 be fb 13 43 3d
       -0.15566728 -0.048457034 -0.14196914 0.047626477
000220 48 27 ae 3e 6d 16 e8 be c5 78 9b 3d e8 b3 d1 3d
       0.34014344 -0.4532961 0.07591394 0.102393925
000230 e8 40 9d be 27 f9 6b be 93 f6 07 3f 2d c9 1c 3f
       -0.30713582 -0.23044263 0.5311062 0.6124447
000240 6e 97 35 be 8c 6a 1f 3f fc 3a 5a 3d 28 1a 0f be
       -0.17733547 0.6227195 0.053278908 -0.13974822
000250 7c 77 4b be 3f ec f8 3e fe 82 0a be 52 91 07 bb
       -0.19869798 0.4861774 -0.13526532 -0.0020685983
000260 24 ec 24 bf 2f cf 03 bf 28 db ae bd 1b 15 81 3e
       -0.6442282 -0.5148801 -0.085378945 0.25211415
000270 82 e0 5e 3e 16 41 93 3e 17 f2 4e be 2e c9 ed bd
       0.2176533 0.28760594 -0.20209537 -0.116106376
000280 16 33 bb 3e d6 49 89 be 60 b4 a1 3e f3 cf 13 bf
       0.36562413 -0.26814145 0.31582928 -0.5773918
000290 8a 7e ba 3e 18 40 39 be 3a b6 74 bb f9 e0 84 3d
       0.36424667 -0.18090856 -0.003734006 0.06488223
0002a0 7b fd 8e be d7 3d 6f 3d 4a d1 ed be 71 80 0e 3f
       -0.27927765 0.058408584 -0.46448737 0.55664736
0002b0 48 30 e3 be 21 6e 46 be 9f c6 8f be af 68 23 3f
       -0.44372773 -0.19377948 -0.28081223 0.6383161
0002c0 2b 64 9e 3e 4f 26 c0 bd ac b3 38 3f 9b 1a 5b 3e
       0.30935797 -0.09382307 0.7214916 0.21396868
0002d0 2c 37 ce 3e ca ca 2a 3e 31 12 87 be ce bd e0 3e
       0.40276468 0.1667892 -0.26381066 0.4389481
0002e0 f0 8d 0f 3e d9 3e d4 3e 6c 01 41 be 7f b3 42 be
       0.14018989 0.414542 -0.18848199 -0.19013785
0002f0 51 c1 b9 3d b6 02 5b 3e 0f bc aa bd c4 3f 61 3e
       0.09070075 0.21387753 -0.083366506 0.21996981
000300 84 59 93 be 14 28 bb bd 95 a3 9f 3e 52 00 97 3d
       -0.28779233 -0.09138504 0.3117949 0.07373108
000310 e8 57 16 bf 92 a5 81 be 8d 5a 1b 3e 46 41 12 bc
       -0.58727884 -0.25321633 0.15171261 -0.008926695
000320 ce 59 a3 3e 51 c2 92 be b7 60 42 be c3 1f 86 3e
       0.31904453 -0.28663877 -0.18982206 0.26196107
000330 6d a8 7a bd b5 7f 71 3e 47 47 b2 bd f6 77 32 be
       -0.06119578 0.23583873 -0.08705001 -0.17428574
000340 39 46 b7 be 55 19 3b 3e 11 ba c1 be 7f ab db 3e
       -0.35795763 0.18271382 -0.3783727 0.4290428
000350 1e 4e e1 3d a4 f7 bf be d1 04 19 3f 40 bc 32 3f
       0.11001228 -0.37493622 0.59772974 0.69818497
000360 e1 f5 3d 3e cc 60 84 bb 31 9a a6 3d d7 35 a5 3e
       0.18550827 -0.0040398594 0.081348784 0.3226764
000370 38 39 c6 3e 00 36 49 3e 39 78 c0 be e1 64 b5 3e
       0.3871553 0.19649506 -0.37591723 0.35428527
000380 ba af 95 3e 28 32 ac 3e 9f a8 83 bd 80 80 c9 3e
       0.2923563 0.33632016 -0.06428646 0.3935585
000390 f8 62 00 bf b8 e3 5a 3e e2 79 8d 3e 4d c9 f6 3e
       -0.50151014 0.2137593 0.27632052 0.48200455
0003a0 dc 38 31 3f ab af f2 3e 59 51 d6 3d 69 e4 cc be
       0.69227386 0.4739965 0.104647346 -0.40018013
0003b0 11 58 8c bc 6a 64 b8 be ee 95 0e bf 1c 4e 14 bf
       -0.017131837 -0.3601411 -0.55697525 -0.57931685
0003c0 34 89 10 3f c1 44 af be d7 3d c4 3e 15 14 d4 3e
       0.56459355 -0.34232143 0.3832843 0.4142157
0003d0 d7 bc 29 3c 26 22 d8 bd b7 35 8d bf e8 97 72 be
       0.010359964 -0.10553388 -1.1032017 -0.2369076
0003e0 ee 01 1a 3f 23 bc 01 3e d9 2d d8 bd 38 db d8 3d
       0.60159194 0.12669425 -0.1055562 0.10588688
0003f0 d3 c8 9c bc b4 27 cb 3e 81 d4 82 bb 9e 7c c1 bd
       -0.01913873 0.3967873 -0.0039926176 -0.09447597

network_body._body_endoder.seq_layers.2.bias f4 [128]
000000 44 05 14 bc 66 15 1f bd 96 b3 3e 3d 6b 0f 16 bd
       -0.009034459 -0.038838767 0.046557985 -0.036635797
000010 cb 35 fe bc 56 1e 9b bd 42 e4 0f bd 7b 45 38 bd
       -0.03103151 -0.075741455 -0.035129793 -0.044988137
000020 84 6e 12 bd 3d f1 98 3d cd 8e 15 bd ca 2b 90 3d
       -0.035749927 0.074678876 -0.03651314 0.07039602
000030 71 37 c4 3c 2f 5d 8d bd bb 53 1b bd c9 c2 6a bd
       0.023952218 -0.06902539 -0.03792165 -0.057314668
000040 a6 7c 92 bd ee 80 f9 3c f6 9e 4e bd c9 81 ad 3c
       -0.07152681 0.030456986 -0.050444566 0.02118005
000050 68 69 27 3d 21 66 bf bc 78 88 3f bd 9b 57 da 3c
       0.040872008 -0.023364129 -0.046761006 0.026653102
000060 f5 90 b0 bd 55 3d 8a 3d 1e b1 e4 bc 4c cd ac 3a
       -0.08621398 0.067499794 -0.027916487 0.0013183742
000070 87 35 3d bc 80 ae a3 bd a2 1b 5b 3d 50 70 0a 3d
       -0.011548406 -0.079922676 0.05349315 0.033798516
000080 9f 67 1b 3d 61 0b 7e 3d 06 ba 27 3d 24 18 a7 3d
       0.037940618 0.06202257 0.04094889 0.08158901
000090 7a 4f 03 3d 0f c4 f9 3c ca 8f 85 bd 25 08 4b bc
       0.032058217 0.030488996 -0.06521566 -0.0123920785
0000a0 b0 8a 2a bc 16 43 19 3d 8c cf 8e 3c fe 2e 1d 3d
       -0.010409042 0.037417494 0.01743295 0.038374893
0000b0 04 a4 37 bd fe 3a 4c bd 05 0b e8 bc d5 44 3f bd
       -0.044834152 -0.049860947 -0.028325567 -0.046696503
0000c0 7f 77 d1 bc 2c 23 f9 ba 67 5a 90 3d 75 b0 06 3d
       -0.025569675 -0.0019007674 0.07048493 0.032883126
0000d0 94 8e ea bc 00 fd 21 3c 57 4d be 3d 6c 4e 60 bd
       -0.02863244 0.00988698 0.09292095 -0.05476229
0000e0 ff 5a 2e 3d 0b 73 14 bd 45 b3 8f bd 5f 89 70 3c
       0.04256725 -0.036242526 -0.07016615 0.014681189
0000f0 fd 92 d4 bc cf e4 9d 3d f3 68 e7 3c ba 97 0c bd
       -0.025948996 0.077096574 0.028248286 -0.034324385
000100 e2 23 40 bd 37 43 8f 3c e6 44 a8 bb 36 ad 33 bd
       -0.04690922 0.017488105 -0.0051351665 -0.04386636
000110 f7 c8 53 bd 43 62 a2 bc 3b b5 a0 ba b5 f2 63 bd
       -0.051705327 -0.019822245 -0.0012261042 -0.055651385
000120 d4 66 86 3d 2f c4 8f bd f4 db ab bc df d0 3a 3c
       0.06562582 -0.07019841 -0.020978905 0.011402338
000130 5f 98 0e bd 95 53 36 3c af 6a c2 3c 23 27 f2 3c
       -0.03481328 0.011128326 0.023732511 0.029559677
000140 fe 0f a9 bc 44 07 85 bd 13 89 87 3d ee 88 cd 3d
       -0.020637508 -0.064955264 0.06617942 0.10035883
000150 c6 20 8a 3c ba 7c a3 3c 31 15 49 3c 8c f9 bc bc
       0.01686133 0.019956935 0.012273119 -0.023068212
000160 68 27 95 3d cc a6 88 bb 1b 39 68 bd 94 c5 6a 3a
       0.07282907 -0.0041702744 -0.056695085 0.0008955833
000170 4f ff cb 3c e4 a8 25 bd ad 41 99 3d f3 65 e2 bc
       0.024902014 -0.04044427 0.0748323 -0.027636504
000180 05 77 8b bd ee 25 83 bb 87 86 0b bd 49 fe 38 bd
       -0.068098105 -0.0040023243 -0.034063842 -0.04516438
000190 a7 4d f5 bc 55 c0 be bb 8f 1e 8b 3d c9 e5 c6 39
       -0.029944254 -0.0058212676 0.06792938 0.00037936706
0001a0 1c 06 ee bc c8 37 49 3d b8 f2 ad 3b f9 8a 31 3d
       -0.029055648 0.049125463 0.0053084753 0.043345425
0001b0 d9 ee 67 bd bf 17 a1 3d 01 40 a5 bc a6 03 d9 bc
       -0.056624267 0.07865857 -0.020172121 -0.026490998
0001c0 99 2d 7d bc 22 f1 00 bd 32 ec c8 3c c8 c4 05 bd
       -0.015452766 -0.031479962 0.02452669 -0.03265837
0001d0 f4 0b 6b bd ea 0e fe bc 06 7d b7 3c 30 4d e2 bc
       -0.057384446 -0.031012971 0.022398483 -0.027624696
0001e0 53 f5 a7 bb a8 95 82 3d 9a 80 d3 3c 10 51 fa bc
       -0.0051256805 0.06376201 0.025818158 -0.030556232
0001f0 72 b4 88 bd 38 6d ac 3b 12 b6 b3 3b 9a 12 c5 3d
       -0.06675042 0.0052620433 0.005484351 0.096226886

network_body._body_endoder.seq_layers.2.weight f4 [128, 128]
000000 15 e1 29 bd 9f 34 13 be 82 06 ca 3d bb 33 38 be
       -0.04147442 -0.14375542 0.098645225 -0.17988484
000010 9d 36 cb bd 20 ce 5d 3d b3 6a d5 3b ea 65 85 3d
       -0.09922526 0.054151654 0.0065129637 0.06513579
000020 51 c5 1a be b6 1c e5 bd 77 8d 6f 3d 56 e7 4e 3c
       -0.15114333 -0.11187117 0.05848452 0.012628397
000030 af 08 fb 3c a8 11 07 bc 65 a3 5b 3d a7 61 07 bd
       0.03064379 -0.008243956 0.053622622 -0.033052113
000040 31 6f e6 3d c0 f1 3a bd cf e0 94 3d fe 7c a4 3d
       0.11251677 -0.045640707 0.07269441 0.08031653
000050 ca 4f da 3d a4 84 aa bd 43 f6 c2 3c d6 22 b1 3d
       0.1065975 -0.083260804 0.023799067 0.086492226
000060 43 1c c9 b9 1d 18 9f 3d b7 cf 1e bd 89 75 41 3d
       -0.00038358764 0.07768271 -0.03877231 0.04723123
000070 cc 7b 96 bd 3a 49 8f 39 a9 ca 8c 3b d4 8c 17 bd
       -0.07347831 0.00027329643 0.00429662 -0.03699954
000080 b9 e0 1e bd d5 8a de 3d b2 64 f1 3c a0 0b 38 bd
       -0.03878853 0.10866324 0.02946696 -0.04493296
000090 df b6 23 3c fb d4 b9 3d 3b 13 ca 3c 2b 2b d7 3b
       0.00999233 0.09073826 0.024667373 0.0065664253
0000a0 e1 e3 5a bd f9 6d 30 bd 3d c7 02 be da 8a 2a bd
       -0.05343998 -0.043073628 -0.12771316 -0.041636325
0000b0 47 c6 1d bd 5a 33 48 bb 95 d3 90 bc 75 e9 25 bc
       -0.03851917 -0.0030548186 -0.017679015 -0.010126461
0000c0 28 6d c1 3d 2c f7 24 be 70 3b 88 bd f7 fa 8f bd
       0.09444648 -0.16109914 -0.06651962 -0.070302896
0000d0 07 89 5c 3d f9 f5 3e 3c 65 71 ba bd ab ce 11 3e
       0.053841617 0.011655324 -0.091036595 0.14238994
0000e0 07 2d 18 3e 24 03 79 bd fe 2a 6a be cc 94 f1 3d
       0.14860927 -0.06079401 -0.22867963 0.11795959
0000f0 14 05 23 3d 67 9e a3 3c 8f 1b 09 3d a5 f5 64 be
       0.039799765 0.019972993 0.033473548 -0.22359331
000100 78 a5 af bb 09 7b c1 bc fb 66 95 3d 91 2f 2a bd
       -0.0053603016 -0.023618238 0.072950326 -0.04154927
000110 cc c9 39 bc c3 f5 01 3d 81 56 81 3d 73 ba c5 bd
       -0.011339616 0.031728517 0.063153274 -0.09654703
000120 7a 08 dd bb f8 eb 3a be e6 46 cd 3b 30 da 4b bd
       -0.0067453953 -0.18254077 0.0062645553 -0.049768627
000130 15 b9 a1 3c f1 f2 dc bd cd 48 4d bd 55 62 ea 3a
       0.019741574 -0.10788525 -0.050118256 0.0017882088
000140 2e b4 68 3e aa 2d ed 3c 6d 40 1a bd 96 4c 71 3d
       0.22724983 0.028952438 -0.037659097 0.05891093
000150 10 5a 98 bd 0f 6a 86 3d 5f 69 16 3d ae dd f6 3d
       -0.07439053 0.06563198 0.036721583 0.12054001
000160 f2 b9 3a bd 2b 67 58 bd a3 a6 a3 bd ba e2 4e 3c
       -0.045587488 -0.052832764 -0.07990768 0.012627298
000170 67 e1 2c bd 61 1d 09 be 6a 21 d3 bc ce 42 e1 bd
       -0.042207148 -0.13390113 -0.025772769 -0.1099907
000180 8d 21 e4 bd 81 88 35 3e a3 a9 1b 3e d5 d3 69 3d
       -0.11139212 0.17727853 0.1520143 0.057086784
000190 c8 94 c3 bc 87 12 d2 bc 22 d5 27 bd f2 ec 41 be
       -0.023874655 -0.0256436 -0.040974744 -0.18938044
0001a0 a1 7a 29 3d 38 b4 07 bc 2d 61 10 3e b5 74 58 3e
       0.041376714 -0.008282714 0.1409957 0.2113827
0001b0 75 c7 0c 3e 2b 16 5a bd f0 fc 59 3d 3e 7f ad 3c
       0.13747962 -0.053243797 0.053219736 0.021178838
0001c0 8b 1b 19 3d 99 bc 30 be 92 2f ea 3d fb cc a8 bd
       0.037379783 -0.17259444 0.114348546 -0.08242222
0001d0 4f e7 86 3d 10 5e 48 3d 7c 55 6f 3d 8f 7e 53 be
       0.06587087 0.04891783 0.058431134 -0.20653747
0001e0 29 3f 0a be 41 17 5b 3b 8d 23 60 bd db f8 f5 bc
       -0.13500656 0.0033430608 -0.054721404 -0.03002589
0001f0 9f a9 a1 bc 1a c8 d2 bd 5e 84 c7 bc 68 7e 56 3c
       -0.019734202 -0.102920726 -0.02435511 0.013091661
000200 6d f4 57 be 6c 07 68 bd 7d fb 2f be b2 a7 ad 3d
       -0.21089335 -0.056647703 -0.17185779 0.08479251
000210 e2 c8 f5 bc 28 ef fa bc 7f 78 61 bc 76 e4 14 be
       -0.030003015 -0.030631617 -0.013761639 -0.14540276
000220 12 90 99 3b 4f 1f b5 bd 43 cb a3 3d d9 09 30 3d
       0.004686364 -0.08843862 0.079977535 0.04297814
000230 29 0f 71 3e 44 ff 57 bd 04 0c ef bd 72 6a a1 bd
       0.2354094 -0.052733675 -0.11672214 -0.07881631
000240 38 a4 32 3d cf 86 ea bd 9e 54 3d be 75 7b 3a 3d
       0.043613642 -0.11451494 -0.1848931 0.045527894
000250 90 07 24 bc f8 41 8d bc 44 bc 4d be 89 21 6d bd
       -0.010011569 -0.01724337 -0.20091349 -0.05789331
000260 ce ba a8 3d 32 6d c6 bc e3 b4 d6 bc d3 38 8c 3d
       0.08238755 -0.02422199 -0.0262093 0.06846776
000270 22 be e1 3d 99 10 de 3c ba 5c 61 3d cd 1b de 3c
       0.11022593 0.027107524 0.05502007 0.027112866
000280 ed a2 38 bd 67 80 26 bd 1e bf 60 3d c4 d4 c6 bc
       -0.045077253 -0.040649798 0.054869764 -0.024271376
000290 bf d4 bb bc 1a 31 83 bd fa e6 8b 3c a3 d3 ec bd
       -0.022928594 -0.0640585 0.017077912 -0.11563804
0002a0 ee 84 4c 3d af 4a 7e 3d 65 53 4a be 7a ab 4b 3d
       0.04993146 0.062082943 -0.19758375 0.04972408
0002b0 2f ac 10 bb e5 a6 a7 3c 98 1b fa bb f6 a3 ff bc
       -0.0022075286 0.020465324 -0.007632684 -0.031206112
0002c0 97 66 88 bd 4d ae 99 3d 87 12 15 3d 31 d1 8d 3d
       -0.066601925 0.07503948 0.036394622 0.06924666
0002d0 79 62 92 bd 13 9f 13 bb 30 1f 5e bb ab ae 79 bd
       -0.071476884 -0.0022525236 -0.00338931 -0.060957592
0002e0 ff 48 0d 3d eb 8f 62 bd 90 91 3c 3c 11 30 0d 3e
       0.034493443 -0.055313032 0.011509314 0.13787867
0002f0 72 3b 75 bd cb 45 61 bd 93 e5 00 bc ba 07 a7 3d
       -0.059871145 -0.0549982 -0.007867235 0.081557706
000300 36 2c 9f 3d 22 e8 97 3d be 49 70 3d 46 56 4c bd
       0.077721044 0.07417323 0.058664076 -0.049886964
000310 52 9d be 3d 27 51 e3 3d b0 6a 2b 3e 64 3c 9c bd
       0.0930735 0.11099463 0.16739917 -0.07628706
000320 c4 94 ff 3c 4a 05 a0 3d ac 43 86 bd 07 42 50 bd
       0.031198867 0.07813509 -0.06555876 -0.05084422
000330 27 fc c4 bd c7 ce 87 bd b6 16 e9 3a 03 ec f2 bd
       -0.09618407 -0.066312365 0.0017783258 -0.11861422
000340 2a dc 19 bd b6 dc 25 3d c1 f7 37 3e aa 36 26 bc
       -0.03756348 0.04049369 0.17965604 -0.010144869
000350 9b c0 be 3d 94 24 ed bc 73 7f 20 be e8 35 67 bd
       0.0931408 -0.028948106 -0.15673618 -0.056447893
000360 51 66 de bd 55 1e 0a 3e b1 f1 10 bd 0a bd 8e bc
       -0.10859359 0.13488133 -0.035386745 -0.017424125
000370 70 5f bc bc cf de dc 3d 00 f4 f3 3c a3 b6 32 3d
       -0.022994727 0.10784685 0.029779434 0.043631207
000380 1a 49 bb 3d b9 4d b5 bc 04 63 57 3e 21 52 e3 3d
       0.091448024 -0.022131788 0.21033865 0.11099649
000390 a3 9f 37 3e e0 a1 4c 3d c4 1a b5 3d 16 55 ea 3d
       0.1793199 0.049959064 0.08842996 0.1144201
0003a0 ce d6 95 bd 8c d0 b1 bc c6 c2 8e bd 73 60 a6 3c
       -0.07316361 -0.021705888 -0.06970744 0.020309662
0003b0 02 06 a1 bc 61 1d 7c bc f3 bd 9c bc 48 4d 92 3c
       -0.019656185 -0.015387864 -0.019133544 0.017859116
0003c0 04 ba 25 be 13 4d d6 3d 40 23 6c 3c 35 a5 c8 3d
       -0.1618424 0.104639195 0.014412701 0.09797136
0003d0 24 63 11 be 34 d7 4d bd 51 c6 dc bd ee ff cb bc
       -0.14197975 -0.05025406 -0.10780013 -0.02490231
0003e0 8c bf e5 bd 85 23 16 3e 2f fd 07 3e 69 c3 57 bb
       -0.11218175 0.14661987 0.13280176 -0.003292287
0003f0 4f 99 5b 3a 55 1d 02 3e b7 c2 d0 bd 9b b7 9b bd
       0.0008377032 0.12706502 -0.10193389 -0.07603379

network_body.observation_encoder.processors.0.normalizer.running_mean f4 [8]
000000 40 d9 17 bb 52 e4 4d 3b ce 08 58 be 40 9a 43 40
       -0.0023170263 0.0031416607 -0.21097109 3.0562897
000010 cb 84 9f be b8 7f 82 3c bf 2e 9b be 14 ba 68 3c
       -0.31156 0.015930042 -0.30309102 0.014204521
