Project/Assets/ML-Agents/Examples/3DBall/TFModels/MyAgents/first3DBall.onnx (onnx, 73994 bytes, 9 tensors)

50 f4 [8]
000000 69 db 87 3d c8 ea 91 3d c1 09 7d 3f 91 fb a5 3e
       0.06633646 0.07124859 0.9884301 0.32418492
000010 03 00 71 3f 49 21 50 3f cd 34 73 3f bd 38 52 3f
       0.9414064 0.8130079 0.9500244 0.82117826

action_model._continuous_distribution.log_sigma f4 [1, 2]
000000 b6 ae f9 bd 96 b8 08 be
       -0.121915266 -0.13351664

action_model._continuous_distribution.mu.bias f4 [2]
000000 86 19 fe bc 0d a0 58 3c
       -0.03101803 0.013221753

action_model._continuous_distribution.mu.weight f4 [2, 128]
000000 41 0e 9b 3d 94 1d a7 3c ed 26 2e 3d 44 19 0e bd
       0.07571078 0.020399846 0.04251759 -0.034692064
000010 76 32 3c bd 78 8b 37 3d 53 d8 ea 3c 43 84 12 bc
       -0.04594656 0.044810742 0.028667605 -0.008942666
000020 52 13 d5 3b 41 36 10 3c cd 98 09 3c f0 13 9b bd
       0.0065025473 0.008801998 0.008398247 -0.07572162
000030 b9 c5 48 bc 85 19 0b 3c 47 be 79 bb d2 1d 67 3d
       -0.012254172 0.008489971 -0.00381078 0.056424923
000040 f0 9c 93 bd 6c 04 8d 3d 2b 47 f8 3c 14 ee c5 bc
       -0.07207668 0.06885609 0.030307373 -0.024161376
000050 f7 ba a8 3c eb 87 c8 3c e5 3f 1d 3c 86 60 fb bd
       0.020596964 0.024478873 0.009597753 -0.1227427
000060 06 48 35 bc 46 1f 1b 3d 80 25 3c 3c 78 1d 94 3c
       -0.011064535 0.03787162 0.01148355 0.018080458
000070 32 85 f1 bc c5 39 5a bd 10 3a 1d bd a0 8a d4 3c
       -0.029482458 -0.05327775 -0.03838545 0.025945008
000080 8c 61 a4 bc 9b 8f aa 3d c1 95 55 3d b4 6a 6b bd
       -0.020066045 0.08328172 0.05214477 -0.057474807
000090 5e 2a 50 3d 19 2f 34 bc 1b c6 11 3b d3 be 49 3c
       0.050821654 -0.010997557 0.0022243324 0.012313562
0000a0 e4 fd 82 bc d2 3b 05 3c 47 ca aa 3c 78 61 19 3d
       -0.015990205 0.008131938 0.020848406 0.03744647
0000b0 e6 36 7c bd 6e 85 a5 3c 87 00 ec 3c ec b0 9a bc
       -0.061575793 0.020205226 0.028808845 -0.018883191
0000c0 e4 ae 0f bc a4 9b 01 3d 73 92 88 3b 00 f9 de 3b
       -0.0087697245 0.03164257 0.0041678487 0.0068045855
0000d0 65 72 06 3d fe 68 7c 3d c1 81 04 3e da 76 b2 3c
       0.03282394 0.061623566 0.12940122 0.021785188
0000e0 fe 35 d3 3b 14 59 01 3d 56 a8 5b bd a0 c4 8e bd
       0.0064456454 0.031579092 -0.053627335 -0.06971097
0000f0 fe e4 7e bc 01 d5 54 3b 52 61 30 3b 6a 1a 5a 3d
       -0.015557526 0.0032475593 0.0026913476 0.053247847
000100 ce 02 03 3e 8f a8 b0 3c 50 46 8d bc 55 cd 97 3c
       0.12794039 0.02156475 -0.017245442 0.018530527
000110 3f 60 cd bc 0c d7 76 bd 46 b9 74 3c 2a 20 c4 bc
       -0.025070308 -0.06026368 0.014936751 -0.023941118
000120 e4 a7 b6 3c ed 1a d3 3c a5 50 7a bd e3 20 db bd
       0.022296853 0.025769675 -0.061112065 -0.10699632
000130 9f f1 b1 3c 14 bb 32 3c 15 e1 c5 bb 98 b5 48 bc
       0.02172166 0.010908861 -0.0060387948 -0.012250327
000140 6b f4 48 3c ba 17 81 3b 37 10 bd 3c d2 44 48 bc
       0.012265305 0.003939596 0.02307902 -0.012223439
000150 ba b9 8a 3c b8 24 e1 3c 3f fa 56 3c d9 06 54 bc
       0.016934264 0.02748333 0.013121187 -0.012941086
000160 70 99 e3 3b a2 15 61 3d c3 03 30 3a 3c c8 54 3c
       0.0069457814 0.05495227 0.0006714428 0.012987193
000170 1c d8 a2 3c a4 10 1e bd f2 68 88 3d 31 29 67 bd
       0.01987844 -0.03859009 0.06660642 -0.056435768
000180 b9 45 b1 3c 8d 02 c9 3c 31 a6 6f bd 03 0c 8a bd
       0.021639692 0.02453735 -0.0585081 -0.06740572
000190 9e 5c 1f 3d 35 b4 24 3d d5 e7 82 bb c3 9f 8d 3d
       0.038906686 0.04021092 -0.0039949217 0.06915238
0001a0 c3 17 9f 3d 81 88 71 3d 2d cf 34 bc 5f 32 9a bd
       0.07768204 0.05896807 -0.011035723 -0.07529139
0001b0 23 74 d8 3b a4 c3 c6 3c 22 ff 9c bc ec 0a af bb
       0.0066056415 0.02426321 -0.019164626 -0.005341878
0001c0 ac 2f 45 3b 50 e2 88 3c 40 7d 87 bd f5 6b 4c bb
       0.003008823 0.016709477 -0.066156864 -0.0031192277
0001d0 95 9b a9 3b 29 63 ae 3d b4 ad e6 bc 8f 55 c6 3c
       0.0051760175 0.08515007 -0.028159 0.02421072
0001e0 80 77 52 bd dc f8 2e 3c 1d 84 f2 bb c1 86 c2 3c
       -0.051383495 0.01067945 -0.007401003 0.023745896
0001f0 a5 6a 8f 3c 8b f0 34 3c 29 d2 a4 bd 67 9d 99 3d
       0.017506907 0.011043678 -0.08047897 0.07500725
000200 a0 bc 36 bd 8f 38 de bb d5 93 c6 bb df 33 f0 3d
       -0.04461348 -0.0067816447 -0.0060601034 0.117286436
000210 63 0c 38 bd 86 e2 7b 3d ac 2e 36 3d 45 0c df 3c
       -0.044933688 0.061495326 0.044478104 0.02722753
000220 41 4f 07 bb 66 a7 56 ba af dd e4 3b ff 94 ac 3c
       -0.0020646604 -0.00081883965 0.0069844346 0.02106714
000230 fe 73 65 bc 76 f9 0c bc 14 e2 58 bd fd 25 00 bd
       -0.0140047055 -0.008604398 -0.05294998 -0.03128623
000240 22 86 a2 bd ef d9 e3 bc f8 0e 0f bd 70 48 04 bd
       -0.0793574 -0.02781388 -0.034926385 -0.032295644
000250 40 d9 5a bc d5 bf c2 bc f3 d6 04 3c 2f a4 0e bd
       -0.0133574605 -0.023773113 0.0081078885 -0.034824546
000260 b4 e6 32 bd e5 b2 90 bc b6 1b b9 3b b6 74 28 3b
       -0.043677047 -0.017663429 0.0056490554 0.002570433
000270 72 aa fd 3c bd ae e6 3b c9 33 48 3d 89 a0 ce bb
       0.030965064 0.0070398734 0.04887751 -0.0063057584
000280 67 db 57 bd b5 64 6d 3d 64 19 c4 3d 1d 44 5b 3d
       -0.052699473 0.05795737 0.095751554 0.053531755
000290 c6 30 c2 3c 20 55 94 bc e1 27 c6 bb bf 2a 3d 3d
       0.023704898 -0.018106997 -0.0060472344 0.046183344
0002a0 10 65 77 bd c6 22 47 bd 0a f7 0d bd b2 09 2f bb
       -0.060399115 -0.048617147 -0.034659423 -0.002670866
0002b0 3a 79 13 3d 78 1e 49 3b 2a 44 9b 3b c3 05 e9 3c
       0.036004283 0.0030688327 0.0047383504 0.02844513
0002c0 0f ef 18 bd ee 2e d0 3c e0 a3 1d 3d 53 5d 06 bd
       -0.03733736 0.025413003 0.03848636 -0.032803845
0002d0 7a 73 9e 3d 1d 3a 1f bc 51 4f 7a 3d 90 af e4 bb
       0.07736869 -0.009718445 0.0611108 -0.0069789365
0002e0 ff e2 a9 3c 64 a2 fa bb 7e 1d 12 bd 5a 34 e1 bc
       0.020738123 -0.007648753 -0.035672657 -0.027490783
0002f0 f0 70 1d bc 05 81 37 3d 45 77 92 3a 85 98 29 bd
       -0.009609446 0.044800777 0.0011174461 -0.04140522
000300 6d fd d6 3c 07 84 d3 3c 38 d1 28 3d 3f 05 d9 bc
       0.02624389 0.025819791 0.04121515 -0.02649176
000310 f9 f7 e8 bc 51 8f 99 3d c7 c3 d8 b9 57 c7 e7 3c
       -0.028438555 0.074980386 -0.00041344596 0.028293295
000320 5a 12 11 bd fd 2b 71 bc fc 43 c8 bb f1 25 89 3d
       -0.035417892 -0.01471996 -0.00611162 0.0669669
000330 11 da 29 3c a9 ae 4a bc b2 3d f2 3b 00 bb 99 3c
       0.0103669325 -0.012370744 0.0073926086 0.018765926
000340 38 86 25 3c 77 94 85 bc 0c 60 b3 bd f3 54 90 bc
       0.010102801 -0.016306145 -0.08758554 -0.017618632
000350 5f b0 dd bc e2 20 6e 3d fa 7c e8 3d aa 6e ab 3c
       -0.02706164 0.05813683 0.113519624 0.020926792
000360 23 a6 5b 3d 35 15 2d bd 51 d2 7b ba 02 f1 3f 3d
       0.053625237 -0.042256553 -0.000960623 0.046860702
000370 e2 8b ee 3b 56 c7 55 bd 9b 79 c4 bb 93 3a 89 3c
       0.007279859 -0.052192055 -0.005995942 0.016751563
000380 da e8 be 3c 7f e0 75 3d c6 bf c7 3d 8a 3f 4f 3b
       0.023304392 0.06002855 0.09753375 0.0031623566
000390 d8 3d a5 bc 76 9f 3a bc d8 92 a6 bd 94 24 75 bc
       -0.020171091 -0.0113905575 -0.08133477 -0.014962334
0003a0 82 c0 4f bd de 26 38 bd d8 d4 7c 3d 4e 80 7b bd
       -0.0507207 -0.04495894 0.06172642 -0.061401658
0003b0 a2 a5 ce 3c b1 6a 2c 3c af f1 2a bd 1c 76 f5 3a
       0.025225464 0.010523484 -0.041734394 0.0018727216
0003c0 cf 4b 1a bd b5 77 cc bc 6e 1a 99 bd d7 73 4d bb
       -0.037669953 -0.024959425 -0.07475744 -0.0031349564
0003d0 88 b5 21 3d b3 63 26 3d 38 fa 2f 3d f6 13 c7 3c
       0.039479762 0.040622424 0.042963237 0.02430151
0003e0 1b 35 e7 bb 9a 76 ba bc 6e 47 37 3b 59 1a 8b ba
       -0.007055891 -0.022761632 0.002796616 -0.0010612711
0003f0 54 60 a5 bb 1c 5d 84 3d f7 4f e1 3d a3 04 3a 3c
       -0.0050468836 0.06463072 0.1100158 0.011353645

network_body._body_endoder.seq_layers.0.bias f4 [128]
000000 ca 97 9b 3d da 1f ad 3c e7 29 7b bc 1e fe 45 3c
       0.07597311 0.021133352 -0.0153298145 0.012084512
000010 45 e4 c3 bc ae 46 61 3c a2 fa 24 bd 44 69 a5 bd
       -0.023912558 0.0137497615 -0.040278085 -0.080767184
000020 15 8a 1c bd 55 9b 6a bd 8f a7 13 3c 17 3e cd bd
       -0.038217623 -0.057277042 0.009012117 -0.10021608
000030 9f d8 b9 bb 04 02 5c bd 20 a4 3f 3d 35 f2 07 bc
       -0.005671575 -0.05371286 0.04678738 -0.008297493
000040 1f 21 ce bc 3d 37 b3 3c c7 bd c5 3b 45 3f 32 3d
       -0.025162278 0.021876926 0.006034586 0.04351737
000050 44 72 89 bc a1 e7 8b bd e2 52 bf bb 5e 44 5a 3d
       -0.016778119 -0.06831289 -0.005838738 0.053287856
000060 ce 5e 67 bc c1 99 46 3d 73 1b 3b 3d c9 44 96 3c
       -0.014121724 0.048486475 0.045680474 0.018343346
000070 9b c6 9e bd 25 92 e6 bb f3 d4 54 bd 36 48 11 3d
       -0.07752725 -0.0070364648 -0.051960897 0.035469256
000080 2b 02 44 3d 9e 95 ac bc cf 07 04 3d 90 e9 5f bd
       0.04785363 -0.021067437 0.03223401 -0.054666102
000090 22 d8 39 3c 8d 51 d5 3b 26 a9 77 3b b4 20 97 bc
       0.011343034 0.0065099658 0.003779003 -0.018448211
0000a0 8b 09 c2 bd b5 45 ad bd 96 55 0d bd 08 ff 38 3d
       -0.094744764 -0.08460561 -0.03450545 0.04516509
0000b0 4c 5c 38 bd 6f 73 23 ba 26 75 b1 3c 08 0b 81 3d
       -0.045009896 -0.00062351575 0.021662306 0.06300932
0000c0 ec 2c 77 bd a9 52 fa ba 66 9e 16 3d 85 4d 5f 3c
       -0.060345575 -0.0019098121 0.036772154 0.013629322
0000d0 b5 73 50 3c 9e 11 13 3d 67 a8 6c 3d 1f ea 83 bd
       0.012722899 0.035905473 0.05777779 -0.064411394
0000e0 d2 f6 00 bd fc da ee 3c 91 79 20 bc f3 f4 bb 3b
       -0.031485386 0.029157154 -0.009794609 0.0057359873
0000f0 0d fd d0 3c 57 1d d6 bc 1c 19 21 3d d7 67 81 bd
       0.025511289 -0.026137037 0.039330587 -0.06318634
000100 66 39 3f bd 12 92 ac bc 40 40 bc bd d5 b0 21 bc
       -0.0466856 -0.021065746 -0.09191942 -0.00986882
000110 71 64 14 3d 00 df 43 3c 20 92 98 bd 36 88 c7 bb
       0.0362286 0.011955023 -0.07449746 -0.0060892357
000120 f6 c1 e2 bc a9 da e1 bc ba 72 13 bd 9a 84 89 bd
       -0.027680378 -0.027570086 -0.035998084 -0.06714745
000130 f2 5f 89 bc bc d6 00 bd 26 03 94 bd a0 dc 83 bc
       -0.016769383 -0.031454787 -0.07227163 -0.016096413
000140 f3 46 ee 3b 69 c2 3a bd 88 d3 09 bd dc f8 20 bd
       0.0072716414 -0.04559556 -0.033648998 -0.03929983
000150 2b 85 05 bc 40 f1 86 bc b7 00 8b bd 87 13 4b 3d
       -0.0081494255 -0.016472459 -0.06787246 0.04957917
000160 63 a6 0b 3d d7 13 aa bd 7c 5e 89 3c 79 90 78 3c
       0.034094226 -0.083045654 0.016768686 0.015171164
000170 b0 0b 8e 3d 9c 26 4b bc b2 95 4c bd 40 e7 ca bc
       0.06935823 -0.012399342 -0.049947448 -0.024768472
000180 4f 90 30 bd 85 2a 82 bd 9f be 82 3c 27 39 06 bd
       -0.043106373 -0.06355766 0.015960036 -0.03276935
000190 cb 8b 11 bd d6 97 18 bd ff 8b 1a bd 72 38 54 bc
       -0.035533708 -0.037254177 -0.037731167 -0.012952911
0001a0 fa 23 85 bd 7b 48 3b bb 01 c2 95 3b ea a1 e1 3c
       -0.065010026 -0.0028577137 0.004570246 0.027543027
0001b0 25 a4 4e bd 81 5e 57 bd 98 d7 76 bd 65 47 e4 bd
       -0.05044951 -0.05258036 -0.0602642 -0.1114643
0001c0 b0 40 15 3c 9b 77 0f bb 17 f8 45 bd 63 f0 98 bd
       0.009109661 -0.0021891359 -0.0483323 -0.07467725
0001d0 21 c3 a1 bd 41 0b 43 bd 02 64 16 bd 18 aa db bc
       -0.07898546 -0.047618154 -0.03671647 -0.026814505
0001e0 77 80 8f 3b 6a 2b 61 bd b6 1d d6 3c 3d cc aa bc
       0.004379328 -0.054973044 0.026137214 -0.020849342
0001f0 a9 17 51 bd fc 56 4b 3b 18 4f 47 3d 67 cb d6 bb
       -0.051047955 0.0031027189 0.048659414 -0.006555009

network_body._body_endoder.seq_layers.0.weight f4 [128, 8]
000000 b1 8e b2 3e 2a 94 07 be 82 c8 8a 3d c8 4e ec 3d
       0.3487449 -0.13240114 0.06776525 0.11538464
000010 6f 74 c7 bd d6 89 fa be fb ea ea 3e ce b7 1e bf
       -0.09739005 -0.48933285 0.458824 -0.61999214
000020 ae 01 03 be 1c ac b4 be ac 43 44 bf 61 1c ec 3e
       -0.1279361 -0.3528756 -0.7666576 0.461154
000030 e8 ec b0 be 4e b5 43 be c6 e5 d1 3e 38 01 2e 3d
       -0.34555745 -0.19112131 0.40995616 0.04248163
000040 d2 95 68 3e 0c 58 04 bf 77 55 01 3f 0a 16 f3 3d
       0.22713402 -0.5169685 0.50521034 0.11869438
000050 a2 a3 02 3e 70 3c 81 bd ff eb 02 3c b1 0c a4 bd
       0.12757733 -0.06310356 0.007990836 -0.08010233
000060 1c db b3 3e 6d 95 2a 3e 7d 25 83 3d f9 1c 89 be
       0.35128105 0.16658564 0.06403635 -0.26779917
000070 2d 61 97 bd 61 9f bd 3d 50 f4 a3 3e cb 74 7d be
       -0.07391582 0.09258915 0.32022333 -0.24751584
000080 bf 57 99 3c a9 21 75 3e f0 2e 96 3e c3 ba 89 3f
       0.018718598 0.23938622 0.29332685 1.076012
000090 f7 9d cc be 6c cf a9 3d ce 87 12 3e 9a fa 01 bd
       -0.39964268 0.08291516 0.14309618 -0.031733133
0000a0 ad ea 9a be 73 b2 1b 3d 76 d5 71 3e 1b a0 c2 3e
       -0.30257168 0.03801198 0.23616585 0.38012776
0000b0 ed 71 3a 3f de b0 17 3f ba e1 95 3e a7 34 26 3f
       0.72830087 0.5925425 0.29273778 0.6492409
0000c0 e0 9e 99 3c df aa 85 bd 82 5a 94 3e 0c 35 13 be
       0.018752515 -0.06526732 0.28975302 -0.14375705
0000d0 6d 1b 16 bf d5 5e 6f 3e 57 68 f0 3c 5a e4 b6 bd
       -0.586356 0.2337602 0.029346628 -0.08930273
0000e0 10 93 78 bf bb 67 92 3e bd 26 0b 3d 92 ad f2 be
       -0.970994 0.28594765 0.03397249 -0.4739805
0000f0 df 02 1e 3f c1 0e 23 be 4c a5 09 bf d4 da 85 3c
       0.6172313 -0.15923597 -0.5376785 0.016339697
000100 78 28 1e 3e e5 54 d0 3e ac 9d d4 bd 76 6f 9c be
       0.15445125 0.4068977 -0.10381636 -0.30553788
000110 87 6c de bd 86 a5 18 be b9 11 c5 be 1c 67 4e be
       -0.10860544 -0.14906892 -0.38490084 -0.2015652
000120 ba e9 7a be f3 7a 2a bf 44 99 ca 3e 84 7b 07 be
       -0.24503222 -0.66593856 0.39570057 -0.13230711
000130 68 2c d6 be 7b 38 0f bf 3c 17 86 bd f0 1f 6c 3f
       -0.41830754 -0.5594556 -0.065474 0.9223623
000140 78 bf 7e bd 14 be 11 3d 3b 4a 89 bd 76 57 24 bf
       -0.062194318 0.035581663 -0.067036115 -0.64195955
000150 a2 77 df 3e 6a b7 f7 be 62 00 c8 be 51 c6 3c 3f
       0.4364596 -0.4838212 -0.39062792 0.73740107
000160 f3 66 2a be eb 17 5d 3e 48 b2 30 3e a1 38 41 be
       -0.16640835 0.21591155 0.17255509 -0.18869258
000170 81 34 17 3f bb 26 ba bd 08 2d 4f bd 42 06 4f bd
       0.5906449 -0.090894185 -0.050580055 -0.050543077
000180 a2 98 22 3d d8 96 67 be c2 d4 9d bd be 3b a2 be
       0.039696343 -0.22616136 -0.07706596 -0.31686205
000190 c6 03 50 be cb ec 8d 3d 8d dd 6b bd ee be 71 3d
       -0.2031394 0.0692993 -0.057584334 0.059019975
0001a0 db 0f 25 bd db a1 fe be 60 6e 36 bf 3a 03 04 bd
       -0.040298324 -0.4973286 -0.7126217 -0.03222964
0001b0 33 3c 3f 3e c7 a1 28 be 12 af a4 be ed c3 3a be
       0.18675308 -0.16467963 -0.32164818 -0.18238802
0001c0 38 6e 9e 3e 8e 6c 9b be 25 11 02 bd a9 13 07 3e
       0.30943465 -0.30356258 -0.03175463 0.13191094
0001d0 ad 95 dc bd 79 54 95 3e 60 08 ab be a6 96 9d bd
       -0.10770736 0.2916601 -0.33404827 -0.076947495
0001e0 6c da b0 bd 60 ce 78 be 05 70 31 be 98 bc a5 3e
       -0.08635411 -0.24297476 -0.17327888 0.32370448
0001f0 20 da 44 3c 91 e1 0f 3f e7 2d c3 3e 91 92 12 3e
       0.012014896 0.5620356 0.38120958 0.14313723
000200 25 07 be be 33 62 1b 3f b9 99 1c 3f de c1 ea bc
       -0.37114826 0.60696715 0.6117206 -0.028656896
000210 b1 e1 0b 3f 68 40 85 be e7 39 86 be 8b de 0f 3f
       0.5464125 -0.260257 -0.2621605 0.5619895
000220 9c 54 05 3f bc f1 20 3f 23 d7 80 bd d0 08 d2 be
       0.5208223 0.6286886 -0.06291034 -0.41022348
000230 b7 ab 9b 3e 26 bc d5 be 3b 13 2a 3f 4e fa ef 3e
       0.30404446 -0.41745108 0.66435593 0.46870655
000240 d2 d3 9e be f2 48 86 3e 39 18 91 be 84 6a 84 3c
       -0.3102098 0.26227528 -0.28338793 0.016164072
000250 8f 40 55 bf db ec 79 be f9 f7 07 3f 6a b1 c6 3b
       -0.83301634 -0.2440676 0.5311275 0.00606363
000260 9e 92 6f 3e ce ef d8 3d 10 bf 68 3e 7e 50 93 3d
       0.23395774 0.10592614 0.22729135 0.07193087
000270 17 b0 8e 3e a4 7a 94 be 24 00 02 3f 2e 9e 8d be
       0.2786872 -0.28999817 0.50781465 -0.27659744
000280 f4 b0 06 bf 5e 6c 1f be dc 8d a1 bc 47 78 6e 3e
       -0.5261376 -0.15568683 -0.019720964 0.2328807
000290 03 8a 4d 3f 84 16 7c 3e 0c ef 83 be cf c3 3a bd
       0.80288714 0.24617964 -0.25768316 -0.045596894
0002a0 e6 18 1c 3f 2c f4 06 3e 65 8c 8d bd 05 54 dd be
       0.6097549 0.13179082 -0.06911544 -0.43228164
0002b0 4b d7 cd 3e 26 a2 db bd b8 e1 92 be 84 3b 83 be
       0.40203318 -0.10724287 -0.28687835 -0.25631344
0002c0 29 25 9c 3d 9a 45 55 3e a1 19 7b be e7 fc 48 3f
       0.07624275 0.20827332 -0.24521495 0.785109
0002d0 08 70 52 bf 21 53 df 3e ee 43 fc be 99 a6 0e 3f
       -0.82202196 0.4361811 -0.49270576 0.5572296
0002e0 97 6d 0c 3f 40 b1 05 bf 8a f5 14 bd a8 58 f1 3e
       0.5485472 -0.5222359 -0.036366977 0.47137952
0002f0 f0 e0 83 be e1 d1 95 3c df 1c bd 3e 39 a7 89 3f
       -0.2575755 0.018288555 0.3693609 1.0754157
000300 1d bd 03 3f 9a 26 92 be 58 1e 17 bf a4 af 0c 3d
       0.5146044 -0.28545076 -0.59030676 0.03434719
000310 42 04 e8 3d 49 e9 45 bf 40 45 d8 3d 21 99 3e 3d
       0.11328937 -0.7730909 0.105600834 0.046532754
000320 b6 19 31 3e 76 84 ae bc a8 1b aa be 90 3b 13 3d
       0.17294964 -0.021303397 -0.33224225 0.035945475
000330 94 fe ab 3d 57 64 c5 3e dc a3 12 3e 9e 80 4f bd
       0.08398166 0.38553116 0.1432032 -0.05065977
000340 2a eb 58 3d 07 44 6c be 46 79 12 3f eb 62 4c be
       0.052958645 -0.23072825 0.572163 -0.19959609
000350 38 ed 1b 3e 9a a2 d0 be 82 a2 46 3f fa bc 88 3c
       0.1522721 -0.40749055 0.7759172 0.016691674
000360 d7 ce 2a 3e c7 d2 98 be bf bb b6 3d ed 3f 10 3f
       0.16680466 -0.2984831 0.089225285 0.56347543
000370 75 ba 11 bf 78 30 d9 3e 44 52 a9 be f2 3a b9 be
       -0.56925136 0.4241979 -0.33070576 -0.36177784
000380 13 cb f8 bd 6d 32 9c be 0a 61 1f 3f 60 6f e8 be
       -0.12148108 -0.30507222 0.62257445 -0.45397472
000390 85 c4 c0 3d 8c ef 49 3f ab b6 80 be f4 16 67 3e
       0.09412483 0.78881145 -0.25139365 0.2256735
0003a0 ac 4f 5f 3d 04 42 94 3e 58 b7 90 3e a0 89 9d bd
       0.05451934 0.28956616 0.2826488 -0.076922655
0003b0 33 91 d7 3d 30 87 5d 3e ea 93 c6 3e a0 60 96 3d
       0.105257414 0.21633601 0.38784724 0.073426485
0003c0 d7 01 aa be fe 94 43 3e 2e b1 00 bd b2 b0 25 bf
       -0.3320453 0.19099805 -0.03141897 -0.6472274
0003d0 14 7a 3a bd 88 5c 5d 3d 19 b3 93 3e 57 6a 92 3e
       -0.04552658 0.054043323 0.28847578 0.28596756
0003e0 a7 46 25 3f c1 27 de 3e aa 09 91 3e 41 51 a5 3e
       0.6456093 0.43389705 0.28327686 0.32288554
0003f0 8f a0 3c 3e 49 d6 98 bd 62 4f 82 be 50 17 cc 3e
       0.18420623 -0.07462747 -0.2545119 0.39861536

network_body._body_endoder.seq_layers.2.bias f4 [128]
000000 72 a1 72 3a 2e 22 2e bd 91 a9 ff bc a2 b5 77 3d
       0.00092556246 -0.042513065 -0.031208785 0.060475953
000010 74 75 a6 3b 53 98 cf 3c 9f 5b eb 3c 7c a3 dd 3c
       0.0050799195 0.025341189 0.028730212 0.027055494
000020 e5 4a 05 bd 4d 8e 1d bd 5a 0c 82 bc 6c 4d a2 3d
       -0.032542128 -0.038465787 -0.01587503 0.07924923
000030 31 72 47 3c 5a 7d 46 bd 6e e3 ae 3b 6c 27 df bc
       0.012173221 -0.04845939 0.0053371703 -0.027240478
000040 f6 46 35 3d a3 49 0d bc 7f 46 27 bd 36 12 1c bc
       0.044257127 -0.008623513 -0.040838715 -0.009525826
000050 e8 74 e7 bc 4d 6d 17 bd e1 19 58 bc 6f bc 8e 3d
       -0.028253987 -0.03696947 -0.013189764 0.069695346
000060 3b 71 e8 bb 3e a7 9e bc c9 e7 f7 bc fc d3 23 bd
       -0.0070935762 -0.019366857 -0.030261891 -0.039997086
000070 93 80 da 3c 7f 8c 68 3d 21 db 25 3d 56 bd 33 bd
       0.026672637 0.056774613 0.04049218 -0.043881737
000080 e4 a4 8a 3c ca 24 84 3a 75 1f 03 3d 76 b9 89 3d
       0.01692433 0.0010081765 0.03201242 0.06724827
000090 17 28 b3 bc 68 56 07 3b 54 de fd bc 5e da e7 3b
       -0.021869702 0.0020650867 -0.030989803 0.007075592
0000a0 20 1f ff bb 4d 0f 61 bc 6a b0 2c bd ef 1d 2c bd
       -0.007785693 -0.013736558 -0.04216043 -0.042020734
0000b0 44 cf 6c 3d f0 53 11 bd ca 51 00 bd 57 bf 30 3c
       0.05781485 -0.03548044 -0.031328 0.0107878065
0000c0 b2 dc ce bb bd 7d 46 bc 60 84 5e 3c cf 64 d6 bc
       -0.00631293 -0.012114939 0.013581365 -0.026171116
0000d0 9a b6 fa 3c ff a2 d2 bc d4 98 0e 3c 70 b4 08 bd
       0.03060465 -0.025712488 0.008703429 -0.033375204
0000e0 36 62 2d 3c dd db 12 bd 97 e1 44 3d 42 71 89 3d
       0.010582497 -0.03585421 0.0480667 0.06711055
0000f0 27 a0 13 bc f4 f0 86 3c 06 61 3f bd 1d 87 df bb
       -0.009010351 0.016472317 -0.046723388 -0.0068215267
000100 39 5d 22 3c 7b d4 a8 bc d9 cd ac 3c 08 80 93 bc
       0.009909921 -0.020609131 0.02109425 -0.018005386
000110 a2 c3 25 3c ba df 96 3d 87 7a e5 bc 04 83 db 3c
       0.010117443 0.07366891 -0.028012527 0.026795872
000120 02 2e bf bc 8f 06 1b bd 1f f1 39 3d 9e 82 ce 3d
       -0.023337368 -0.03784805 0.045395967 0.10083507
000130 33 a1 cd bc e7 52 3d bd 4b 1c 3e 3c ab 02 51 3c
       -0.02510128 -0.04622164 0.011603425 0.012756984
000140 9d f1 c8 bc 42 37 03 bd 9d 8b 54 bc a1 b9 25 bc
       -0.024529273 -0.03203512 -0.0129727395 -0.010115058
000150 0d ef b6 bc e9 53 09 3d 5f 33 90 3d 99 8d bc 3c
       -0.022330785 0.03352729 0.07041048 0.023016738
000160 9c dd 80 3a 41 3a 17 bd a1 77 3f 39 6d 7e 03 3d
       0.000983167 -0.03692079 0.00018259745 0.03210299
000170 3a 52 93 bc 9c ea f7 3c 71 ea c6 bc be d7 50 3d
       -0.017983545 0.030263238 -0.024281712 0.050986998
000180 06 f6 74 3b d9 8f 33 3c ad b3 d7 3d 6b f6 66 3d
       0.0037378087 0.010959589 0.10532317 0.056387346
000190 27 84 ab bc 34 d1 22 bd bd 98 e7 3b 3a 0d 96 bc
       -0.020937039 -0.039750293 0.0070677684 -0.018316854
0001a0 aa b4 19 bc fb db b1 3b 03 ab e9 3c af 96 37 3d
       -0.009381453 0.005427835 0.028523928 0.044821437
0001b0 6c b9 34 b9 93 34 b6 bc 55 db f0 3b 09 39 8e bc
       -0.00017235213 -0.022241866 0.007350365 -0.01736118
0001c0 f1 31 9a 39 b9 ee 46 bd 67 80 08 3d e5 61 26 bd
       0.00029410378 -0.048567507 0.03332558 -0.040620703
0001d0 dc 29 f6 bb 2f 05 da bb ae 89 e8 3c 8b ca 09 bb
       -0.0075123142 -0.00665345 0.028385963 -0.0021025266
0001e0 18 eb 2d 3d 31 5e 5d bc 36 3c c4 3b 34 ea 13 bd
       0.04246053 -0.0135112265 0.005988623 -0.036112025
0001f0 40 e6 19 bd 2b 13 4e 3c f5 42 fb 3d b4 ca 31 bc
       -0.0375731 0.012577812 0.122686304 -0.010851551

network_body._body_endoder.seq_layers.2.weight f4 [128, 128]
000000 92 22 b8 3b 16 77 10 be a0 71 4b bd dc b4 88 bd
       0.0056193555 -0.14107928 -0.049668908 -0.06675121
000010 7a 39 63 bc 90 77 97 3d 0c 72 e8 3d a5 43 e6 3b
       -0.013868684 0.073958516 0.11349878 0.007027107
000020 2e 59 eb 3d 2c 56 58 be f7 2b 93 bd 65 ff 17 3d
       0.11491619 -0.21126622 -0.0718612 0.037108798
000030 f3 c7 7f 3d ad 45 49 bd d3 32 05 3d 0a 61 7f 3d
       0.062446546 -0.049138714 0.032519173 0.062348403
000040 66 56 bf bb 6f cc 88 3b 44 29 99 3d 88 77 6d bd
       -0.005839157 0.004174761 0.07478574 -0.057975322
000050 d4 44 11 be 39 87 89 bd 40 f1 a7 bd 5b 5c 5c 3e
       -0.14186412 -0.06715245 -0.08200312 0.21519606
000060 d6 7c 59 be 6f 65 b7 3c 71 34 5f bd 32 94 9e bd
       -0.21239027 0.022387234 -0.05449337 -0.0774311
000070 1d fe 8d bd 41 c5 7b 3c 34 6a 88 3b 5d 8a f2 bb
       -0.06933234 0.015366853 0.004163051 -0.007401748
000080 03 53 17 be ab 3f 82 be 43 f8 aa 3d 62 91 db 3c
       -0.1477776 -0.254392 0.083481334 0.026802722
000090 0a b4 04 be 9d 6e d2 3c ee 17 61 bd ea 92 b4 bd
       -0.12959304 0.02568751 -0.05495446 -0.08817084
0000a0 d2 16 bd bd 05 4d 0a be fc e2 af ba ed 8c 96 3c
       -0.09232868 -0.13505943 -0.0013419087 0.018377746
0000b0 41 72 57 be 28 8c 1c 3d be 6b fd bd 8e c5 3b bd
       -0.21039678 0.0382196 -0.12374066 -0.0458427
0000c0 e6 31 f2 bd f8 a6 ff 3a d9 91 f5 bd 09 6a e6 3d
       -0.118259236 0.0019504717 -0.11990709 0.11250693
0000d0 b9 bc 9f bd 2f 00 30 bd 85 8d 3d be 0c ab f6 bd
       -0.07799668 -0.042968925 -0.18511017 -0.12044343
0000e0 4e 6a 0a 3e bc 4f 92 3d fc 77 87 bd ff cd 05 3d
       0.13517115 0.071441144 -0.06614682 0.032667156
0000f0 b9 90 46 bd 3a 2b ec bc fc 95 05 be cc fc 99 bd
       -0.048477862 -0.028829206 -0.13045496 -0.0751892
000100 88 b4 f2 3d f2 6e e4 bd 41 78 83 3c d2 14 8c bd
       0.1185084 -0.11153974 0.016048552 -0.06839909
000110 0a e7 19 bd 99 03 9b bd 4a 63 5d 3e 39 10 cb 3c
       -0.03757385 -0.075690456 0.21619907 0.024788009
000120 79 3a 87 bc bc 01 a9 3c f1 27 80 bd ec 16 11 be
       -0.016507374 0.02063071 -0.06257618 -0.141689
000130 f3 f3 86 3c af 0a 78 3d cd 65 4b be 2e 3a 8c 3d
       0.016473746 0.060557064 -0.19863053 0.068470344
000140 76 71 a0 3c b6 8d 0b 3e 4f 9c 95 bd 32 6f ea bc
       0.019585352 0.13628277 -0.07305204 -0.028617475
000150 75 9d e9 3d 12 e1 05 be 8d da 24 3e 3d 6b c7 3c
       0.11406986 -0.13074139 0.16098996 0.024343127
000160 aa cf 98 bd bd 1d 18 bd 9a d9 45 3c 66 31 07 bd
       -0.07461484 -0.037137736 0.012075806 -0.033006094
000170 c9 2a a7 bd 5e f8 83 3d c7 67 43 3e 85 71 84 bd
       -0.081624575 0.06443857 0.19082557 -0.06466965
000180 e3 ae 71 3c 12 c2 a9 3d fa 2c c1 3c 85 54 36 3e
       0.014751169 0.08288969 0.023581017 0.17805679
000190 61 3c d8 bd bb 2c 2a 3d 62 97 b0 3d 0e 07 c1 3c
       -0.10558391 0.041546565 0.08622624 0.023562934
0001a0 57 ad f0 3d 7d 6b 92 bd 95 07 f8 bd 75 a3 c9 bd
       0.11751812 -0.07149408 -0.12110821 -0.0984563
0001b0 59 07 13 bc ad 72 2d 3d ad 65 12 3e cc 19 3c 3d
       -0.00897392 0.04234569 0.14296599 0.04592304
0001c0 0c 0c c3 bd ad 02 06 be a0 7f 88 bd 0f bb 07 be
       -0.09523782 -0.13086958 -0.066649675 -0.13254951
0001d0 f6 15 00 be f8 41 2e bd e3 d3 af 3d 34 45 4b 3e
       -0.12508377 -0.04254338 0.08585336 0.19850618
0001e0 9c e0 a0 bd cf c5 3e bd 9f 4c 3e 3d 53 b5 80 be
       -0.07855341 -0.046575364 0.04645979 -0.2513834
0001f0 78 b5 1e 3e 4d 0f e0 3d 4a 56 1b be 24 85 52 b8
       0.15498912 0.109404184 -0.15169635 -5.01919e-05
000200 e1 9e ab bd 66 a2 5f 3d b7 21 86 bd 8f f0 fa bd
       -0.08379913 0.054598235 -0.06549399 -0.12252914
000210 83 37 15 3d cf 9d e1 3d d1 9e af 3a ca e1 2c bd
       0.036429893 0.11016428 0.0013398771 -0.042207517
000220 e1 56 85 bc 1b 82 04 bd 20 79 69 3c 07 96 0e be
       -0.016276779 -0.03235064 0.01425007 -0.13924418
000230 a6 ea 79 3d 11 f3 fb bc 75 3f d5 3b cc 66 05 3d
       0.061014794 -0.030755552 0.006507809 0.032568738
000240 b9 b9 7d 3c 40 60 27 bd 64 34 bb 3b 8e 8e a7 bd
       0.015486174 -0.040863276 0.0057130326 -0.08181487
000250 04 48 b0 bd ab 20 d6 bc e7 90 fa 3d 49 38 a5 bd
       -0.08607486 -0.026138624 0.12234669 -0.08067376
000260 f0 52 42 bd 02 05 31 bc c7 9f 3a bd 45 f3 e2 bd
       -0.047442377 -0.010804417 -0.04556253 -0.11081556
000270 9b 9b f1 3d 22 60 18 be 65 f6 11 3d 39 84 7c bd
       0.117972575 -0.14880422 0.03563537 -0.061649535
000280 74 d2 4e bc 0a 3d ed bd f0 c5 9d bd 13 e9 c6 3c
       -0.012623418 -0.11583908 -0.07703769 0.02428106
000290 69 04 ad bc 43 e4 62 3d 81 11 04 be cb b6 42 3d
       -0.021120267 0.05539347 -0.12897302 0.047537606
0002a0 3c 54 00 3e 44 d1 75 3d 80 79 78 3b f9 c6 a0 bd
       0.12532133 0.060014024 0.0037914217 -0.07850451
0002b0 3b 24 1e be f2 f3 2d 3c bf ba e2 ba a5 c2 5f 3d
       -0.15443508 0.010617243 -0.0017298086 0.054628987
0002c0 7f df 7b bd 37 b3 46 be db 9e 02 bc 07 b7 41 bd
       -0.06149244 -0.19404303 -0.007972444 -0.04729369
0002d0 16 be b4 bc f5 93 40 be 5e 5c a1 bc 04 1f c2 3d
       -0.022063296 -0.18806441 -0.019697364 0.09478572
0002e0 6a cf 6b bd ed a8 94 bd a4 5d 2a bd 92 f1 d0 3c
       -0.057570852 -0.072587825 -0.04159321 0.025505815
0002f0 43 ea df bc ca 93 62 3e 18 99 55 3d 9e d4 08 3c
       -0.027333384 0.2212669 0.052147955 0.008351473
000300 fb 96 05 3e 35 c3 c0 bd 6f 19 19 3d b6 e3 93 bd
       0.13045876 -0.09412233 0.03737777 -0.07221167
000310 35 fa 0f bc 94 f2 dc 3c 6e d2 e1 bc b6 8a c8 3d
       -0.008787681 0.026971139 -0.027566161 0.09792082
000320 c8 e3 08 be 8c 68 fa 3c d6 69 41 3e 0f a6 e7 3c
       -0.13368142 0.03056743 0.1888803 0.028277425
000330 ba e6 d4 bd 89 91 99 bc 96 7d 77 bd 73 c0 99 3d
       -0.1039557 -0.018746154 -0.060422502 0.0750741
000340 29 f3 00 3d 97 c1 b2 bb 5d fc 3f 3d a6 b3 16 3e
       0.031481896 -0.0054552066 0.04687153 0.14716968
000350 27 cd 76 bc 07 34 de bd aa fc 98 3c f7 2c 97 3c
       -0.015063561 -0.10849767 0.018675167 0.018454058
000360 31 b9 9b 3d f7 d8 f3 3d 14 da 02 be 1a 56 71 3d
       0.07603682 0.11906617 -0.12778503 0.058920003
000370 9a 09 e1 bd 36 f0 8d 3d 08 20 9a bc 14 90 52 bd
       -0.109881595 0.06930582 -0.018814102 -0.051406935
000380 5e 3e fc bd c6 cd ae bd 01 76 c5 3c 68 dd 94 ba
       -0.12316583 -0.08535342 0.02410412 -0.0011357488
000390 da cb 6d 3c 3d 9d e3 bb 1c dc 0d be 67 44 91 3d
       0.014513934 -0.0069462345 -0.13853496 0.07093125
0003a0 d9 ac 24 3e e4 ce 85 bd 4a b9 3a 3d c6 ff b6 3d
       0.16081561 -0.06533602 0.04558686 0.08935504
0003b0 0a 30 1c 3c 9b 9e db bc 4a b8 7e 3e 2a ac 7a bd
       0.009532938 -0.026809027 0.24874988 -0.061199345
0003c0 57 ad 61 3d 0d 29 2c be a9 bf 70 3e a0 8d 88 bd
       0.05509695 -0.16812535 0.23510613 -0.06667638
0003d0 b1 fc f7 3d 52 88 66 bd 7f d6 f0 3d da 61 73 bd
       0.12108744 -0.05628235 0.11759662 -0.05941949
0003e0 cf da c1 3d dd 85 95 3d 60 20 80 bd 08 c8 08 bd
       0.094655626 0.07300923 -0.06256175 -0.03339389
0003f0 19 f7 ca 3c 75 75 9b 3c 03 3a d9 3d 2e 5c e5 3c
       0.024776028 0.018976906 0.10606768 0.027998056

network_body.observation_encoder.processors.0.normalizer.running_mean f4 [8]
000000 8c 3a c2 3b 23 58 80 ba 25 2c cf 3c db 6c 45 40
       0.0059273895 -0.0009791892 0.025289604 3.084769
000010 5c 19 47 3d 1b 91 87 bd e4 c3 14 bf c3 a7 57 3b
       0.04860817 -0.066194735 -0.58111405 0.003290639
