Project/Assets/ML-Agents/Examples/DungeonEscape/TFModels/MyMLAgent/DungeonEscape_JG.onnx (onnx, 653500 bytes, 6 tensors)

action_model._discrete_distribution.branches.0.bias f4 [7]
0.0059607313 0.013417156 0.032272503 -0.014570684 0.0008358772 -0.010765039 -0.037845314
00000000: 3d52 c33b a2d3 5b3c 2c30 043d e1b9 6ebc
00000010: c51e 5b3a d95f 30bc b003 1bbd

action_model._discrete_distribution.branches.0.weight f4 [7, 256]
0.0042314916 -0.03460598 -0.0151659 -0.0016983557 -0.040430278 -0.005022724 -0.056255985 -0.0024926811
0.022772288 0.021015799 -0.06106581 0.014703838 0.010706767 0.020804161 0.017541163 0.0026415451
-0.010777302 0.034666747 -0.017901352 -0.043831833 0.024598759 0.0025960985 0.0037199308 -0.0061090346
0.02416091 0.044589873 0.008188999 0.023536408 0.009185743 0.027107168 0.03993575 -0.033215914
-0.017818922 -0.008981571 0.04311648 0.00044242898 -0.041832734 -0.0045149103 -0.00022240751 -0.0074374564
-0.0058778087 0.037737563 0.00018953774 -0.049373552 -0.008723672 -0.014732448 0.03710765 0.04208317
0.012882367 -0.0068810643 0.03195913 -0.008376635 0.032285016 0.01595491 -0.006630736 -0.015917722
-0.04562724 0.012084654 -0.04357393 -0.026022764 0.010988222 -0.022427276 0.0037509005 0.008998514
-0.005638498 -0.029303987 -0.08434461 0.026327834 -0.031598426 0.035056025 -0.004429727 0.01572445
0.0510501 -0.005766505 0.015543176 -0.016892873 -0.0019010935 0.016954372 0.011132671 -0.03648399
-0.089377865 0.011859117 0.008429533 0.0072889184 -0.01727577 -0.016195 -0.00413277 0.0140016135
0.0039232806 0.014978814 0.012423612 0.039602302 -0.028039783 0.023997411 0.016197233 0.03891456
0.014563219 -0.02425789 0.03519541 0.03912278 0.025817508 -0.04342975 -0.036265075 0.052818485
0.009377217 -0.016972903 0.00537654 -0.075509466 0.030590544 -0.03120134 -0.012578573 0.008272778
0.0064377273 -0.028885797 0.022946984 0.025197687 -0.037631378 0.03687048 0.026230197 0.03741109
0.031279158 -0.01141397 0.0045133783 -0.010826831 -0.07235827 0.013075285 0.003665665 -0.09449807
0.038293224 -0.007487856 -0.0045435396 -0.0142379645 0.020746278 0.036720578 -0.008482104 -0.023354812
-0.0047441097 0.009878078 -0.0052203927 -0.072799146 -0.014764246 0.028598439 0.0313398 0.009046767
0.019275226 -0.0069239647 -0.013498776 -0.0150898285 0.0021167444 0.01865998 -0.0008194971 0.015847579
0.019757798 0.02329201 -0.047771934 -0.0055435807 -0.011290946 0.013960611 0.003566369 0.022905871
-0.054408435 0.02525749 -0.020322926 -0.007545914 0.02288131 0.0078077987 0.0010520885 0.016615162
0.007597469 0.013884619 0.0005211407 0.0076552927 0.003885788 -0.0044733086 0.007020964 -0.010348138
0.0012479983 0.0035294576 -0.030442467 0.028159212 0.023396662 0.027981246 0.0309507 -0.0072254464
0.033077333 0.008841705 -0.024271026 -0.05887586 -0.00021869657 -0.048068266 0.045863822 -0.003791568
0.023498317 -0.019501548 0.027542276 0.02555142 -0.059459265 0.008750879 0.02454889 0.024095256
0.04001988 -0.00037924768 -0.014780096 0.025866985 -0.0190499 0.0344206 0.018405315 0.020344183
0.009475325 0.02916881 -0.047924016 0.019854158 -0.012114796 0.0048493957 0.052828934 0.009991647
0.023403633 -0.040240433 0.0076186275 -0.06808875 0.003052143 0.03718935 0.021316797 0.0072198776
0.030882984 0.04322336 -0.008810188 0.014936167 0.008791513 0.0072693727 -0.0018750114 0.011934741
0.03384128 0.030437982 0.005599738 -0.0023054802 -0.02874864 -0.011929879 -0.04018784 -0.0021686337
0.0017085857 0.026423205 -0.035127237 0.011386517 0.016404359 0.026541637 -0.018865978 -0.0006606588
0.011916447 -0.010511625 -0.018760135 0.0052162847 -0.017014187 -0.017449545 0.017395897 0.040249795
00000000: 53a8 8a3b 00bf 0dbd 657a 78bc 5c9b deba
00000010: 389a 25bd aa95 a4bb ad6c 66bd 405c 23bb
00000020: f38c ba3c 5329 ac3c 2520 7abd 5ee8 703c
00000030: 706b 2f3c 7d6d aa3c 7cb2 8f3c c61d 2d3b
00000040: 4893 30bc b8fe 0d3d dba5 92bc 0289 33bd
00000050: 5683 c93c 4e23 2a3b 15ca 733b 4c2e c8bb
00000060: 1aed c53c dfa3 363d 272b 063c 6dcf c03c
00000070: cc7f 163c da0f de3c ab93 233d 690d 08bd
00000080: fdf8 91bc 7027 13bc e89a 303d d0f5 e739
00000090: cd58 2bbd d0f1 93bb 1036 69b9 e8b5 f3bb
000000a0: a29a c0bb b492 1a3d a6be 4639 ec3b 4abd
000000b0: bbed 0ebc 5e60 71bc 31fe 173d 675f 2c3d
000000c0: 9010 533c 8d7a e1bb 94e7 023d 273e 09bc
000000d0: 4b3d 043d dfb3 823c a546 d9bb e265 82bc
000000e0: a1e3 3abd b6fe 453c 947a 32bd b12d d5bc
000000f0: f207 343c 68b9 b7bc abd1 753b 816e 133c
00000100: 26c3 b8bb ea0e f0bc debc acbd 78ad d73c
00000110: 5a6d 01bd e896 0f3d 3e27 91bb 90d0 803c
00000120: e919 513d f3f4 bcbb cea8 7e3c ec62 8abc
00000130: 1d2e f9ba e5e3 8a3c ce65 363c 3c70 15bd
00000140: be0b b7bd be4c 423c 061c 0a3c e1d7 ee3b
00000150: ea85 8dbc 60ab 84bc 306c 87bb 0667 653c
00000160: dd8e 803b b369 753c 688c 4b3c 0636 223d
00000170: b0b3 e5bc 3896 c43c 0fb0 843c e064 1f3d
00000180: 919a 6e3c 7cb8 c6bc 1029 103d 353f 203d
00000190: 3d7f d33c 65e3 31bd b08a 14bd 3258 583d
000001a0: e6a2 193c c20a 8bbc b02d b03b b5a4 9abd
000001b0: 0599 fa3c f499 ffbc 5c16 4ebc 8c8a 073c
000001c0: 92f3 d23b e8a1 ecbc 50fb bb3c 616b ce3c
000001d0: 5c23 1abd 8005 173d b6e0 d63c 5f3c 193d
000001e0: 931e 003d a901 3bbc f6e4 933b 0563 31bc
000001f0: 9330 94bd b839 563c a73b 703b 3488 c1bd
00000200: 5bd9 1c3d b05c f5bb f9e1 94bb 5a46 69bc
00000210: 19f4 a93c 5168 163d 86f8 0abc 9752 bfbc
00000220: 7a74 9bbb a9d7 213c d40f abbb b817 95bd
00000230: bce5 71bc 4647 ea3c 2a5e 003d e438 143c
00000240: 14e7 9d3c 6de2 e2bb f829 5dbc 543b 77bc
00000250: 14b9 0a3b d0dc 983c 85d3 56ba c8d2 813c
00000260: 1bdb a13c e3ce be3c 81ac 43bd eda6 b5bb
00000270: a9fd 38bc 0cbb 643c beb9 693b 18a5 bb3c
00000280: 61db 5ebd cce8 ce3c 447c a6bc b743 f7bb
00000290: 9671 bb3c 90d8 ff3b 3be6 893a 851c 883c
000002a0: 30f4 f83b 507c 633c 299d 083a 40d9 fa3b
000002b0: b4a8 7e3b d594 92bb 1d10 e63b 3d8b 29bc
000002c0: e093 a33a 794e 673b 7b62 f9bc 26ae e63c
000002d0: 5baa bf3c ed38 e53c 538c fd3c 70c3 ecbb
000002e0: 197c 073d ccdc 103c 08d4 c6bc d027 71bd
000002f0: ea51 65b9 3be3 44bd b4db 3b3d f57b 78bb
00000300: 8b7f c03c b6c1 9fbc 57a0 e13c 3651 d13c
00000310: 8f8b 73bd d95f 0f3c c11a c93c 6a63 c53c
00000320: e3eb 233d c3d5 c6b9 3728 72bc 00e7 d33c
00000330: 890e 9cbc 9dfc 0c3d bec6 963c d8a8 a63c
00000340: 653e 1b3c 6ef3 ee3c f94b 44bd 30a5 a23c
00000350: 237d 46bc aee7 9e3b 2763 583d 01b4 233c
00000360: fab8 bf3c 27d3 24bd aea5 f93b 1d72 8bbd
00000370: 7606 483b dc53 183d 90a0 ae3c b994 ec3b
00000380: 50fe fc3c fa0a 313d 9b58 10bc d3b6 743c
00000390: 470a 103c eb33 ee3b f1c2 f5ba ef89 433c
000003a0: 279d 0a3d 1359 f93c 027e b73b 8a17 17bb
000003b0: 4582 ebbc 8a75 43bc 019c 24bd a31f 0ebb
000003c0: 9ff2 df3a 7a75 d83c 94e1 0fbd 848e 3a3c
000003d0: 6f62 863c d96d d93c d38c 9abc 1030 2dba
000003e0: 343d 433c f338 2cbc dbae 99bc 5eed aa3b
000003f0: 5661 8bbc 59f2 8ebc d781 8e3c f8dc 243d

network_body._body_endoder.seq_layers.0.bias f4 [256]
0.008125707 0.003965528 0.008078827 0.0018181833 -0.0017580674 0.019406764 0.008144582 0.008147531
-0.0028028947 0.0036351215 -0.007554164 0.008068619 0.0011881259 0.008858454 0.0109050805 0.0056167655
0.01921188 9.218416e-05 0.013671771 -0.003790266 -0.0012203733 0.017254146 0.0044372696 0.0007402633
0.023423504 -0.005438164 0.0141129885 0.013267601 -0.000103341205 0.0032341008 0.01298649 0.0017174054
0.0053082653 0.0020354765 -0.00013198718 0.03751642 0.0032984207 0.019216035 0.015416792 0.033431552
0.0075960187 -0.0013168966 -0.001493795 0.005521472 0.00895432 -0.018838005 -0.016045015 -0.0017043406
0.0154172 -0.00019917308 0.010281298 0.005671428 0.012775002 0.008728813 0.027400902 -0.0061216787
-0.0054697553 0.01169691 0.011283732 0.02436217 -0.011813316 0.014944099 0.013900673 -0.010771514
-0.0069783386 0.00042473865 0.012163542 -0.012868801 0.004580124 -0.005350208 0.018212607 0.005321814
0.012993276 0.0034883681 0.012125127 0.021664115 -0.014914578 0.011263725 0.014674511 0.0034045386
0.017855387 0.0059987195 -0.028165044 -0.00067301135 -0.0007920943 0.018712282 -0.0029723472 0.007826533
0.011954572 0.006375668 -0.01608277 0.015709598 0.009797618 0.018531902 0.015367839 0.006519243
0.005757385 0.013269989 0.012400239 -0.0006663481 0.04600436 0.0040917657 0.0016078504 0.014264185
0.0044080997 0.012145013 0.009846164 0.028973663 0.0123466365 0.008208661 0.0054182 0.011709725
0.022033874 -0.0029357579 0.00050469354 0.008678077 0.00062311615 0.009013198 0.005318893 0.022191348
0.011719451 0.001684803 -0.005503786 0.0008032139 -0.004878739 0.0010730653 -0.013432965 0.056675564
0.007455558 -0.026426764 0.011305959 0.011361754 0.0026947486 0.019626336 0.008802277 -0.025580779
0.00945056 0.00067742186 -0.006389481 -0.0033792704 0.00838502 -0.0024545286 0.0137757035 -0.0067764325
0.008320391 0.013000544 0.020010298 -0.00806894 0.004887087 0.00013350362 -0.00080245157 0.008376734
0.009083544 -0.018523227 0.001197508 0.012322411 -0.02002815 0.016669579 0.009888799 0.004103788
0.01671823 0.014175516 0.016392354 -0.002937201 0.012336789 0.026050529 -0.0020025568 -0.009079876
0.019126056 -0.0032625562 0.007145489 0.0051346896 0.023143822 0.009020697 0.021760423 0.00398159
0.010488558 0.016526958 0.015445671 -0.0009876824 0.024538025 0.0045815883 0.011980557 0.009436299
0.0037802416 0.022323469 -0.0011972535 -0.004812462 0.003439254 -0.0026078688 0.010720016 0.017017383
0.00494846 0.005796462 -0.0108977705 0.0041069626 0.016126484 0.013994732 0.015757684 0.00075371255
0.0020321824 -0.016385548 -0.018639807 0.00089934975 0.004785634 0.0012305398 0.0042627095 0.03585985
0.016195891 -0.011626382 0.0024416104 0.022728775 -0.0016329654 0.015194516 0.010626067 -0.00032825558
0.0074728862 0.0033519568 0.027391644 0.013653633 0.008204803 0.0068043675 -0.012254054 0.0054792557
0.010841457 0.0029321692 -0.0023038874 -0.00882358 0.015250955 -0.011114702 0.011740503 -0.009024481
-0.011400193 0.006452167 0.017069656 0.013277356 0.0038752481 0.010212723 0.018672606 -0.02506705
0.005992961 0.005801673 0.0013212359 -0.020094791 0.0011900781 0.0052788984 0.014954043 0.0069792373
0.011992174 0.00617106 0.0003253207 -0.01195765 -0.0069620814 0.031063763 0.008288806 -0.0007764837
00000000: af21 053c 43f1 813b 0e5d 043c 1c50 ee3a
00000010: f46e e6ba effa 9e3c da70 053c 397d 053c
00000020: c5b0 37bb 383b 6e3b ec88 f7bb 3e32 043c
00000030: e4ba 9b3a 0d23 113c 39ab 323c d80c b83b
00000040: 3c62 9d3c fe52 c138 90ff 5f3c 1d66 78bb
00000050: eff4 9fba 9158 8d3c 8466 913b 3b0e 423a
00000060: a6e2 bf3c a032 b2bb 2a3a 673c 5a60 593c
00000070: e3b8 d8b8 35f3 533b 49c5 543c 901a e13a
00000080: f5f0 ad3b a165 053b 0a66 0ab9 d1aa 193d
00000090: 512a 583b f26a 9d3c b696 7c3c 86ef 083d
000000a0: 06e8 f83b b89b acba 71cb c3ba 77ed b43b
000000b0: 24b5 123c 2952 9abc d670 83bc 2e64 dfba
000000c0: 6c98 7c3c 1ed9 50b9 e472 283c 63d7 b93b
000000d0: 3e4e 513c 4c03 0f3c db77 e03c 5d98 c8bb
000000e0: a23b b3bb 65a4 3f3c 67df 383c 2c93 c73c
000000f0: a38c 41bc 18d8 743c a6bf 633c 017b 30bc
00000100: 8caa e4bb 75af de39 9849 473c aad7 52bc
00000110: dd14 963b cc50 afbb 9b32 953c 9d62 ae3b
00000120: c0e1 543c 1b9d 643b 78a8 463c f178 b13c
00000130: 465c 74bc 7d8b 383c 5c6d 703c ae1e 5f3b
00000140: 7645 923c e890 c43b 61ba e6bc 076d 30ba
00000150: 8ca4 4fba 804a 993c b6cb 42bb dc3a 003c
00000160: 1cdd 433c fbea d03b 03c0 83bc 6ab1 803c
00000170: 3086 203c 37d0 973c 63c9 7b3c 609f d53b
00000180: 72a8 bc3b 5e6a 593c 5f2a 4b3c ddad 2eba
00000190: 116f 3c3d 3814 863b 82be d23a 54b4 693c
000001a0: d271 903b e0fb 463c ce51 213c 2d5a ed3c
000001b0: 8c49 4a3c 9f7d 063c 288b b13b 25da 3f3c
000001c0: 6280 b43c d865 40bb 694d 043a 7e2e 0e3c
000001d0: 9e58 233a 18ac 133c 1c4a ae3b a1ca b53c
000001e0: f102 403c 9cd4 dc3a 1a59 b4bb c68e 523a
000001f0: d4dd 9fbb 19a6 8c3a f015 5cbc a324 683d
00000200: c14d f43b f17c d8bc a13c 393c a626 3a3c
00000210: 619a 303b 69c7 a03c 6d37 103c c88e d1bc
00000220: 86d6 1a3c 0395 313a da5e d1bb c076 5dbb
00000230: 5361 093c 28dc 20bb 7db3 613c d60c debb
00000240: 4052 083c 3c00 553c a3ec a33c 9633 04bc
00000250: db23 a03b 1bfd 0b39 9d5b 52ba 923e 093c
00000260: 25d3 143c 06be 97bc b3f5 9c3a f0e3 493c
00000270: 1312 a4bc a48e 883c a104 223c 1279 863b
00000280: abf4 883c 6c40 683c 4249 863c 0e7e 40bb
00000290: 3e20 4a3c eb67 d53c 543d 03bb c3c3 14bc
000002a0: 3fae 9c3c 9cd0 55bb b524 ea3b e640 a83b
000002b0: 1d98 bd3c 8ccb 133c ea42 b23c ff77 823b
000002c0: 33d8 2b3c 8b63 873c d70f 7d3c 1f75 81ba
000002d0: f803 c93c 2621 963b 194a 443c b59a 1a3c
000002e0: eebd 773b b5df b63c 29ed 9cba dbb1 9dbb
000002f0: 1b65 613b c7e8 2abb 02a3 2f3c 0a68 8b3c
00000300: b126 a23b 3ff0 bd3b 908c 32bc b393 863b
00000310: b01b 843c 294a 653c 4216 813c cb94 453a
00000320: 5d2e 053b fc3a 86bc 82b2 98bc 57c2 6b3a
00000330: cfd0 9c3b 104a a13a 33ae 8b3b c7e1 123d
00000340: 3fad 843c 957c 3ebc 6d03 203b b231 ba3c
00000350: 3a09 d6ba 6bf2 783c f518 2e3c b819 acb9
00000360: 1ddf f43b 81ac 5b3b 7164 e03c 7db3 5f3c
00000370: 706d 063c 2cf7 de3b 3ac5 48bc 548b b33b
00000380: 5ea0 313c a329 403b d1fc 16bb c790 10bc
00000390: 24df 793c 701a 36bc 3d5b 403c 6bdb 13bc
000003a0: e0c7 3abc b36c d33b aad5 8b3c 4489 593c
000003b0: e0f7 7d3b 4453 273c 4bf7 983c 6a59 cdbc
000003c0: 9a60 c43b f61b be3b 522d ad3a d59d a4bc
000003d0: 65fc 9b3a 9cfa ac3b cd01 753c 16b2 e43b
000003e0: d37a 443c 9a36 ca3b ce8f aa39 05ea 43bc
000003f0: 2c22 e4bb 6f79 fe3c c6cd 073c f08c 4bba

network_body._body_endoder.seq_layers.0.weight f4 [256, 371]
-0.0011849249 0.14039539 0.02714385 0.058904104 0.045190502 0.00613446 0.0561876 -0.045313574
0.042235672 -0.070085846 0.07965558 -0.12222122 -0.15232866 0.059509896 -0.09860429 -0.04342648
0.06475858 0.016884405 0.007139016 0.015280552 -0.005322705 0.037602745 0.11264878 -0.16942598
-0.015968535 -0.1101656 -0.046224736 0.016562993 0.07098632 -0.05228182 -0.1314499 -0.07778414
-0.08183455 0.07303048 0.032252263 -0.08623667 0.055657852 -0.06511949 0.08236351 -0.08569486
-0.045991078 -0.064793 -0.016177762 -0.02333857 0.05284886 -0.060600836 0.03615495 0.06003099
-0.046801105 0.062305883 0.07952307 0.14887506 -0.08975376 -0.024348086 -0.08335762 0.014800901
-0.010441955 0.028850667 0.066566944 0.11413156 0.068269484 0.09901718 -0.052679844 0.038458332
-0.09124738 0.046354774 0.044023313 0.0013461502 0.07003205 0.10110989 -0.0028415455 -0.030175962
0.021614369 0.11815627 0.015227549 0.043442998 0.12520818 0.10108964 0.078453004 -0.062221665
-0.032206457 -0.052174907 0.045377076 0.047699425 0.0410664 0.07318458 0.09097153 -0.015619254
-0.08828518 0.10250334 0.08306319 0.01614391 0.10226984 0.103228584 -0.02516221 0.08131941
-0.07608309 0.08903803 0.03259093 -0.024258269 0.14388679 0.015331236 -0.043636203 0.0017990944
0.077114105 0.030693095 0.029924206 0.035509273 0.04857018 0.13767369 0.08833584 -0.032512475
0.027731854 0.03876247 0.052998997 0.0020301803 -0.12666297 0.055677902 -0.14756449 0.11152058
0.08025548 0.08139654 -0.1346419 -0.06952309 0.06953147 0.121302515 -0.03941823 -0.03913593
0.06133618 0.072171494 -0.03769084 0.018451026 -0.045935392 0.10188801 0.016450128 -0.07043897
-0.080604136 0.13773268 -0.012496521 -0.057150915 0.036646463 -0.037286937 0.04524079 0.03791723
-0.19669242 -0.0060228747 0.012841587 0.0019027733 -0.043044068 0.07090169 0.00933575 -0.12330423
-0.061008263 0.10277744 -0.0046299854 0.09879249 -0.07438044 0.07264528 0.06654419 0.026061015
-0.020262524 -0.114402466 -0.099511996 -0.068627 0.11027356 0.02037449 0.0030846703 0.062090836
0.0014945458 0.076845296 0.046710428 0.02407895 0.048310112 0.039116625 0.012285777 0.020411268
-0.060937945 -0.09079242 -0.0786273 0.0022359726 0.03507116 0.08351064 0.019058194 -0.20075649
-0.09024726 -0.03899651 0.016731674 0.085052215 -0.06591164 -0.026903208 -0.0066147614 0.05098932
-0.08212277 0.069723025 -0.0040630926 0.027841143 0.053827826 0.11347503 -0.007536499 0.07624539
-0.03781651 0.02067847 0.042152073 -0.025021285 -0.0023235907 -0.10092877 -0.084174864 -0.02557009
-0.007878622 0.076778404 0.115698904 0.047836203 0.086785465 0.11455891 0.009807312 -0.0914789
-0.07489759 0.1007428 0.056026228 0.06656978 -0.031300895 -0.024270415 -0.07464046 -0.030050496
0.018290445 0.027428217 -0.010276051 -0.01167395 0.09823669 0.11884511 0.0023787695 -0.008630858
-0.0498999 0.02362535 0.02345623 -0.05247928 -0.08831508 -0.05753467 -0.037198193 0.07983974
0.04082275 0.034093782 0.07715123 0.08232432 0.072211206 0.08448403 -0.10631406 0.04318126
-0.02086585 0.038541347 -0.07726354 -0.02929573 0.023648608 0.33675012 0.15828519 -0.083062194
00000000: 7b4f 9bba cfc3 0f3e c85c de3c 6e45 713d
00000010: ad19 393d 9503 c93b f824 663d ba9a 39bd
00000020: 50ff 2c3d 2b89 8fbd 7722 a33d 1e4f fabd
00000030: 0bfc 1bbe a6c0 733d 0cf1 c9bd f7df 31bd
00000040: 25a0 843d 2a51 8a3c 68ee e93b 485b 7a3c
00000050: 166a aebb 5605 1a3d 67b4 e63d 017e 2dbe
00000060: 72d0 82bc 819e e1bd 2656 3dbd 1daf 873c
00000070: 4761 913d 7625 56bd cd9a 06be 4b4d 9fbd
00000080: df98 a7bd 0191 953d f31a 043d da9c b0bd
00000090: 7df9 633d 5e5d 85bd 33ae a83d c980 afbd
000000a0: 2461 3cbd 31b2 84bd 3a87 84bc 8730 bfbc
000000b0: 0c78 583d 9538 78bd 3617 143d 0ee3 753d
000000c0: 84b2 3fbd 7434 7f3d fedc a23d b472 183e
000000d0: d2d0 b7bd a375 c7bc 66b7 aabd 7a7f 723c
000000e0: bc14 2bbc 3c58 ec3c 4054 883d cfbd e93d
000000f0: dfd0 8b3d 85c9 ca3d d2c6 57bd 7c86 1d3d
00000100: e8df babd 81de 3d3d ca51 343d 4e71 b03a
00000110: f76c 8f3d b412 cf3d 3939 3abb 9433 f7bc
00000120: 9e10 b13c eafb f13d f87c 793c 49f1 313d
00000130: 9336 003e 1608 cf3d f8ab a03d 25dc 7ebd
00000140: ebea 03bd 5bb5 55bd 50dd 393d 7960 433d
00000150: 3e35 283d cce1 953d 484f ba3d e6e7 7fbc
00000160: dcce b4bd 45ed d13d 091d aa3d 3c40 843c
00000170: da72 d13d 8269 d33d fb20 cebc ca8a a63d
00000180: 73d1 9bbd 9259 b63d 117e 053d 47b9 c6bc
00000190: 0f57 133e dd2f 7b3c e0bb 32bd 97cf eb3a
000001a0: 00ee 9d3d 1670 fb3c 9c23 f53c 2c72 113d
000001b0: 86f1 463d 55fa 0c3e 6ce9 b43d cd2b 05bd
000001c0: ea2d e33c 65c5 1e3d 7a15 593d c60c 053b
000001d0: f0b3 01be 830e 643d 251b 17be e764 e43d
000001e0: fc5c a43d 3bb3 a63d 91df 09be 1f62 8ebd
000001f0: 8466 8e3d 746d f83d 0375 21bd ff4c 20bd
00000200: a53b 7b3d a6ce 933d b661 1abd 9b26 973c
00000210: c026 3cbd a9aa d03d 6bc2 863c 4f42 90bd
00000220: c813 a5bd cc09 0d3e 35be 4cbc 1417 6abd
00000230: 9a1a 163d 30ba 18bd 684e 393d 194f 1b3d
00000240: bd69 49be 895b c5bb 8565 523c 7a66 f93a
00000250: fa4e 30bd e834 913d f9f4 183c ee86 fcbd
00000260: cde3 79bd fa7c d23d 22b7 97bb b853 ca3d
00000270: c654 98bd 0cc7 943d 5248 883d e97d d53c
00000280: 98fd a5bc d74b eabd f2cc cbbd 508c 8cbd
00000290: 1bd7 e13d 67e8 a63c 2e28 4a3b f652 7e3d
000002a0: a3e4 c33a 1161 9d3d 6f53 3f3d 3841 c53c
000002b0: d3e0 453d c138 203d 494a 493c 8835 a73c
000002c0: 119a 79bd 60f1 b9bd 5a07 a1bd 6589 123b
000002d0: c7a6 0f3d a007 ab3d ee1f 9c3c 1c93 4dbe
000002e0: 8ed3 b8bd ceba 1fbd dd10 893c db2f ae3d
000002f0: affc 86bd 1e64 dcbc a4c0 d8bb 2dda 503d
00000300: fc2f a8bd f2ca 8e3d b123 85bb 1c13 e43c
00000310: 917a 5c3d 9965 e83d bcf4 f6bb 8b26 9c3d
00000320: 7ce5 1abd e565 a93c a7a7 2c3d 70f9 ccbc
00000330: 6247 18bb beb3 cebd df63 acbd 5e78 d1bc
00000340: 5615 01bc ff3d 9d3d 8cf3 ec3d e5ef 433d
00000350: 94bc b13d dd9d ea3d d9ae 203c 4a59 bbbd
00000360: e863 99bd 3e52 ce3d c27b 653d bd55 883d
00000370: 5e35 00bd c0d2 c6bc 19dd 98bd 752c f6bc
00000380: d8d5 953c 24b1 e03c e25c 28bc 1844 3fbc
00000390: 5130 c93d 1165 f33d 21e5 1b3b 7168 0dbc
000003a0: d663 4cbd f389 c13c 4827 c03c 83f4 56bd
000003b0: 89de b4bd 79a9 6bbd 225d 18bd 0583 a33d
000003c0: c235 273d eca5 0b3d 7701 9e3d a799 a83d
000003d0: 78e3 933d f705 ad3d 30bb d9bd d5de 303d
000003e0: dcee aabc 88dd 1d3d 593c 9ebd 99fd efbc
000003f0: baba c13c 836a ac3e 8315 223e 831c aabd

network_body._body_endoder.seq_layers.2.bias f4 [256]
-0.010234251 -0.006147593 0.012481807 0.0040440476 -0.001982929 0.010702185 0.007849042 -0.0349877
0.0038228577 0.023973333 0.008494971 -0.014062583 -0.00954906 -0.007513718 0.029908214 -0.006113393
-0.0047061467 0.026350481 0.010309081 0.018475799 0.04272075 0.0051564476 0.0023797892 -0.002785815
0.0038222498 0.020887528 -0.0014188415 0.032722026 -0.016669784 0.025704592 0.024354655 0.00012622052
0.041987885 0.042149186 0.011893329 0.0051107192 0.021446193 0.03546083 0.007027603 0.03676447
0.00716323 0.007841447 -0.01272574 -0.005253322 0.021112144 -0.017451739 0.017954351 -0.014621061
0.009213101 0.012578801 -0.025357338 0.012859292 0.027167192 0.014684448 0.0063678264 -0.00047858313
0.026155315 -0.02979934 -0.014475998 -0.011626709 0.010003797 -0.014731744 -0.017032988 0.017769048
0.017517243 0.019244654 0.0030717817 0.017140396 0.014342945 -0.00052558724 0.020931488 0.01054574
0.00962418 0.019559197 0.00614402 0.0049536256 0.032862335 0.0017910296 0.02168268 0.014016045
-0.00010530401 0.015699992 -0.00893909 0.006713317 -0.011499551 -0.018743644 0.0151837235 -0.004296889
-0.009080985 0.0012545512 0.08338561 0.007705309 -0.004891184 0.009682224 -0.043255776 0.021018263
0.018481344 -0.003315539 0.014788463 0.0019456634 -0.014137623 2.5980502e-05 0.014876174 0.029326396
0.013618929 0.010898292 -0.0006732018 0.0058923312 0.029240431 -0.004037148 0.026302474 0.013818596
-0.018508488 -0.004721593 -0.0012870088 0.01765255 0.020669302 0.032830037 0.017633064 0.014821627
0.013653406 0.032737434 0.024671271 0.0062988624 -0.0051720846 0.00672344 0.022218328 0.028030656
0.016147852 -0.0007309212 -0.003207306 0.01079967 0.018541291 0.01968409 -0.02675626 0.01790959
0.010277418 0.008177062 -0.0012966801 0.0051967152 -0.0029998366 -0.0028020716 0.0004527826 0.010521465
0.018132105 -0.004991146 0.009710698 0.021841653 -0.035511535 0.001426697 0.010450981 0.03589731
0.037444472 0.01940062 0.0056744996 0.017453732 0.023114158 -0.01558038 0.01145954 0.026378307
0.0009906574 0.02198984 -0.035380494 0.019703181 0.019593744 0.0023496475 0.05800902 0.0050297095
0.00933529 0.011109336 -0.0042224242 0.015847625 -0.02897608 0.0057185837 -0.012708627 0.0027772628
-0.018121371 0.0044288984 0.009448169 0.01720086 0.014367321 0.013279531 0.012425439 0.0039000164
0.026355611 0.013397776 0.0135868 -0.019960443 0.017751805 0.010350184 0.0022114583 0.0064954944
0.014990469 -0.0062475484 -0.0014701807 0.058362547 -0.006718411 -0.028093368 0.015254716 -0.006884179
0.0229558 -0.0010116562 -0.010423333 0.026470557 0.01648383 -0.0037169727 0.011539689 -0.00020961402
0.0049925256 -0.003604901 0.0061267107 -0.01952086 0.0081634065 0.023275273 0.017912582 0.00017348019
0.017719189 0.015822371 0.0067003444 -0.0046606623 0.0064273565 0.022651976 0.013044429 -0.004151653
0.011732904 0.009526944 0.027252762 0.020126479 0.015618211 0.024563564 0.037799917 -0.021945959
0.03384924 0.032991864 0.022325879 -0.010771357 -0.02333997 0.0059825717 0.013571727 0.034259412
0.002196414 0.0056941616 0.025259601 -0.011120143 0.016640091 -0.01569659 0.0332923 0.01306948
0.010756035 -0.005800807 0.014142424 -0.013356422 0.029924415 0.005587732 0.022306364 0.009332886
00000000: 8fad 27bc bf71 c9bb 7e80 4c3c ee83 843b
00000010: 07f4 01bb 3858 2f3c 4599 003c 434f 0fbd
00000020: e988 7a3b b963 c43c 7e2e 0b3c c066 66bc
00000030: a973 1cbc a335 f6bb 1202 f53c dc52 c8bb
00000040: 0536 9abb f7dc d73c 6be7 283c 8f5a 973c
00000050: f4fb 2e3d 6bf7 a83b 3df6 1b3b 3892 36bb
00000060: b67e 7a3b 521c ab3c 6cf8 b9ba 8807 063d
00000070: 128f 88bc 7092 d23c 6a83 c73c 105a 0439
00000080: 7dfb 2b3d a0a4 2c3d 3ddc 423c d277 a73b
00000090: edaf af3c 603f 113d cf47 e63b 5796 163d
000000a0: 87b9 ea3b 6a79 003c 9f7f 50bc 0f24 acbb
000000b0: 60f3 ac3c f3f6 8ebc 0115 933c 2d8d 6fbc
000000c0: 8cf2 163c 5117 4e3c 31ba cfbc c8af 523c
000000d0: bb8d de3c 0a97 703c 33a9 d03b 57ea fab9
000000e0: ac43 d63c bf1d f4bc bc2c 6dbc f47d 3ebc
000000f0: f7e6 233c 6a5d 71bc c488 8bbc 6590 913c
00000100: 5280 8f3c f7a6 9d3c f24f 493b 046a 8c3c
00000110: acfe 6a3c 90c7 09ba 8378 ab3c 0ac8 2c3c
00000120: bdae 1d3c 9c3a a03c c653 c93b 0652 a23b
00000130: a89a 063d fbc0 ea3a e09f b13c 8ea3 653c
00000140: a9d6 dcb8 459d 803c 4375 12bc 62fb db3b
00000150: 9d68 3cbc 458c 99bc 27c5 783c ebcc 8cbb
00000160: 69c8 14bc c16f a43a 13c6 aa3d d17c fc3b
00000170: 3a46 a0bb 31a2 1e3c f82c 31bd 7e2e ac3c
00000180: 3066 973c 8449 59bb 4f4b 723c a105 ff3a
00000190: 7da1 67bc b4f0 d937 32bb 733c e93d f03c
000001a0: ee21 5f3c c08e 323c cf79 30ba 7514 c13b
000001b0: a189 ef3c 0d4a 84bb 4978 d73c 6467 623c
000001c0: 1d9f 97bc 98b7 9abb d9b0 a8ba 159c 903c
000001d0: ab52 a93c ca78 063d 3773 903c 69d6 723c
000001e0: 89b2 5f3c b017 063d 681b ca3c b066 ce3b
000001f0: 977a a9bb 4d50 dc3b 3603 b63c 8ca0 e53c
00000200: 8048 843c 4b9b 3fba aa31 52bb 19f1 303c
00000210: e8e3 973c 8740 a13c f22f dbbc 22b7 923c
00000220: 9e62 283c 15f9 053c 5df5 a9ba 3549 aa3b
00000230: e898 44bb f6a2 37bb 7463 ed39 3962 2c3c
00000240: c889 943c c48c a3bb 9f19 1f3c 44ed b23c
00000250: 8b74 11bd 0200 bb3a 973a 2b3c 0f09 133d
00000260: 605f 193d 0dee 9e3c 27f1 b93b 21fb 8e3c
00000270: e759 bd3c da44 7fbc cbc0 3b3c 5217 d83c
00000280: f2d8 813a 0924 b43c 23eb 10bd 9168 a13c
00000290: 0f83 a03c 8bfc 193b de9a 6d3d 43d0 a43b
000002a0: 0bf3 183c ef03 363c 435c 8abb e1d2 813c
000002b0: 3e5f edbc f562 bb3b d837 50bc bd02 363b
000002c0: 4573 94bc 4b20 913b 7ecc 1a3c d1e8 8c3c
000002d0: e964 6b3c 6492 593c 1294 4b3c 6b97 7f3b
000002e0: b9e7 d73c 5882 5b3c 2b9b 5e3c 1584 a3bc
000002f0: 3c6c 913c d193 293c 1dee 103b 28d8 d43b
00000300: 969a 753c 3cb8 ccbb 14b3 c0ba 910d 6f3d
00000310: 1e26 dcbb 1024 e6bc ebee 793c ae94 e1bb
00000320: cd0d bc3c 8d99 84ba a1c6 2abc c8d8 d83c
00000330: 1909 873c 7498 73bb f710 3d3c d6cb 5bb9
00000340: 5798 a33b 3440 6cbb 93c2 c83b 36ea 9fbc
00000350: cfbf 053c c9ab be3c 68bd 923c 3ce8 3539
00000360: d527 913c eb9d 813c 908e db3b 78b8 98bb
00000370: 939c d23b a390 b93c 4db8 553c 970a 88bb
00000380: 5e3b 403c e616 1c3c 2f41 df3c 49e0 a43c
00000390: 86e3 7f3c 8739 c93c 16d4 1a3d 03c8 b3bc
000003a0: 80a5 0a3d 7a22 073d c3e4 b63c 597a 30bc
000003b0: 7733 bfbc 7309 c43b f35b 5e3c 9953 0c3d
000003c0: b6f1 0f3b 1796 ba3b 39ed ce3c 4331 36bc
000003d0: cd50 883c 2396 80bc 825d 083d 5f21 563c
000003e0: 153a 303c b214 bebb a0b5 673c e5d4 5abc
000003f0: 0c24 f53c 4b19 b73b d6bb b63c f6e8 183c

network_body._body_endoder.seq_layers.2.weight f4 [256, 256]
-0.066124536 0.014170753 -0.07297556 0.057138532 -0.011530616 -0.009224428 -0.120399706 0.069193035
-0.06797652 -0.051395167 0.01833956 0.029859317 0.05078781 -0.069026366 0.093412474 -0.055369325
0.1413997 -0.09878454 0.07579869 -0.017116386 0.08302076 -0.12263603 0.0058172676 0.032240376
0.10975425 -0.06550403 -0.037623245 -0.0013751475 0.016359905 0.110116445 -0.009543251 0.012658354
0.09424839 -0.038540985 -0.0023669116 -0.13955335 -0.05424855 -0.058907904 0.10997555 -0.007462299
0.048291396 -0.06588762 0.056779135 0.03033722 0.05220182 -0.06494516 0.072447814 -0.076563455
0.07168692 0.031163875 -0.10599811 -0.03737896 0.08673537 0.04282903 -0.08625061 -0.06439243
0.050819132 -0.002030077 0.05144696 0.044446513 0.046531435 0.013146142 -0.033233 0.0726961
0.024712337 -0.06712006 -0.12403584 -0.053785868 -0.013635995 0.17761703 0.11411132 0.013645817
-0.048851695 0.007165203 0.035011157 -0.079877965 0.13580404 -0.03776409 0.049436808 -0.0532506
-0.08397637 -0.015947837 -0.06541337 0.051071793 0.0009837571 0.076854415 0.0735362 -0.044811673
-0.050453898 0.05421134 0.038123164 0.007944338 -0.019541351 0.024437623 -0.008880599 -0.038888853
-0.04604242 -0.10704721 -0.02820338 -0.047444087 0.0047238762 -0.085298166 -0.0218957 0.095194705
0.07729994 -0.17793235 0.096373826 -0.08595352 -0.015469596 0.050031953 0.018065007 -0.03326419
0.085393146 0.07464454 0.006037915 -0.14553973 0.0032875454 0.009130982 0.0005947487 0.006396765
0.05764641 0.21685378 0.053962175 -0.012315227 -0.07047651 -0.022986649 0.0035439373 -0.09857516
-0.034488175 -0.05314083 0.0051964275 0.05627511 -0.0090809055 0.060431868 0.08893486 -0.05381105
0.020204023 0.023586703 -0.06299595 -0.05417143 0.10822743 0.028512673 0.053517055 0.10066465
-0.00023521371 0.061545845 0.075138345 0.06386315 -0.041487154 -0.13521688 0.11021038 -0.06091538
-0.00062097586 -0.103969716 -0.19479682 -0.016929368 0.097395 -0.0705702 -0.020776846 0.100695394
-0.017530322 0.018468367 0.049870502 0.10495272 0.072376035 0.026827086 0.040176477 -0.14738336
-0.1545581 0.05388654 -0.05939003 0.0016250011 -0.13152136 0.017886672 -0.07763501 0.0033636105
0.14005274 -0.03837681 0.029690038 -0.067822404 -0.03016732 0.032406326 0.07533448 0.031978633
0.107705325 -0.08395675 -0.04067437 0.012120738 0.018697493 0.08353442 -0.051518586 0.056145836
0.025552228 -0.14940803 0.00078007876 0.08539406 -0.06127869 0.028012248 0.19032505 -0.14759646
0.06280054 -0.06496689 -0.012652236 0.0055763684 0.07621072 -0.1703144 -0.0024886308 0.0049788924
-0.2105619 0.105418265 -0.04649082 -0.12520906 0.08729041 0.034343924 0.07739394 -0.08047262
0.0146869775 -0.04202675 -0.060823962 -0.12242157 0.09144619 0.047224913 0.068696566 -0.09749348
-0.1075416 -0.02751959 -0.1147825 -0.116674006 -0.10441173 -0.14474823 -0.0097051505 -0.05587067
0.15816891 0.020390246 -0.0040294635 0.056050133 -0.058646183 -0.096245795 -0.018382763 0.1041948
0.011304879 -0.05216425 -0.081010796 -0.019891705 0.09172267 0.07607877 -0.12785512 0.10524265
-0.15608555 0.11356499 0.042368956 0.0015917341 -0.12770505 -0.0826295 -0.07410948 0.06321434
00000000: 4d6c 87bd 722c 683c 3674 95bd 180a 6a3d
00000010: e9ea 3cbc 0e22 17bc 1f94 f6bd 14b5 8d3d
00000020: 4637 8bbd bd83 52bd d83c 963c 879b f43c
00000030: e106 503d b25d 8dbd 0a4f bf3d f2ca 62bd
00000040: 15cb 103e 8d4f cabd 583c 9b3d aa37 8cbc
00000050: ca06 aa3d 9928 fbbd c79e be3b 7c0e 043d
00000060: d6c6 e03d fa26 86bd d51a 1abd 4b3e b4ba
00000070: 3505 863c bb84 e13d 4c5b 1cbc fc64 4f3c
00000080: 4d05 c13d 27dd 1dbd 301e 1bbb 13e7 0ebe
00000090: ba33 5ebd 6a49 71bd dc3a e13d 4d86 f4bb
000000a0: 33cd 453d 17f0 86bd 3d91 683d c385 f83c
000000b0: 93d1 553d f801 85bd 855f 943d 4dcd 9cbd
000000c0: 98d0 923d 624b ff3c 8915 d9bd ae1a 19bd
000000d0: 50a2 b13d 7e6d 2f3d 29a4 b0bd 2ee0 83bd
000000e0: b927 503d 0a0b 05bb 0cba 523d 8c0d 363d
000000f0: bf97 3e3d ea62 573c 541f 08bd b1e1 943d
00000100: 8771 ca3c 3e76 89bd 8106 febd 924e 5cbd
00000110: 8269 5fbc 3de1 353e 32b3 e93d b492 5f3c
00000120: b718 48bd 14ca ea3b dc67 0f3d 0f97 a3bd
00000130: 3710 0b3e 85ae 1abd 407e 4a3d 4d1d 5abd
00000140: cefb abbd 0aa5 82bc 72f7 85bd a830 513d
00000150: 69f1 803a d965 9d3d 269a 963d 728c 37bd
00000160: bfa8 4ebd b60c 5e3d 0927 1c3d f828 023c
00000170: 2f15 a0bc 6931 c83c ef7f 11bc eb49 1fbd
00000180: fa96 3cbd 913b dbbd c60a e7bc bb54 42bd
00000190: bfca 9a3b ceb0 aebd 9c5e b3bc 71f5 c23d
000001a0: 6e4f 9e3d e633 36be a45f c53d 6608 b0bd
000001b0: 3074 7dbc 4eee 4c3d 11fd 933c 0840 08bd
000001c0: 9ae2 ae3d 3ddf 983d b4d9 c53b 5e08 15be
000001d0: dc73 573b 1d9a 153c e9e8 1b3a f49b d13b
000001e0: a41e 6c3d eb0e 5e3e 7107 5d3d cec5 49bc
000001f0: fd55 90bd 7f4e bcbc 6741 683b c6e1 c9bd
00000200: 7943 0dbd 33aa 59bd cb46 aa3b bb80 663d
00000210: 14c8 14bc 6887 773d 7b23 b63d fa68 5cbd
00000220: e882 a53c e738 c13c 0504 81bd dde2 5dbd
00000230: 58a6 dd3d 6993 e93c b334 5b3d 4529 ce3d
00000240: b3a3 76b9 7f17 7c3d 22e2 993d afca 823d
00000250: 6fee 29bd 4b76 0abe fbb5 e13d 6882 79bd
00000260: fcc8 22ba 13ee d4bd d178 47be 75af 8abc
00000270: 0877 c73d 1c87 90bd 3434 aabc 6339 ce3d
00000280: c09b 8fbc f94a 973c 0345 4c3d 74f1 d63d
00000290: e339 943d 7ac4 db3c 1790 243d aaeb 16be
000002a0: 7b44 1ebe 22b8 5c3d f642 73bd fdfd d43a
000002b0: 89ad 06be 1287 923c 1bff 9ebd 0570 5c3b
000002c0: fc69 0f3e 0031 1dbd 8638 f33c 79e6 8abd
000002d0: 7521 f7bc 7fbc 043d f748 9a3d 07fc 023d
000002e0: 9c94 dc3d 84f1 abbd 2b9a 26bd 0f96 463c
000002f0: 7c2b 993c 1814 ab3d 2705 53bd 2df9 653d
00000300: e852 d13c 6bfe 18be 337e 4c3a 15e3 ae3d
00000310: 5dff 7abd f179 e53c 92e4 423e 8723 17be
00000320: 929d 803d 5c0d 85bd 534b 4fbc f8b9 b63b
00000330: 5e14 9c3d e666 2ebe 4c18 23bb fa25 a33b
00000340: 8a9d 57be 88e5 d73d 286d 3ebd ce36 00be
00000350: 51c5 b23d 37ac 0c3d b780 9e3d d4ce a4bd
00000360: a6a1 703c 3e24 2cbd 8c22 79bd 29b8 fabd
00000370: 2448 bb3d e96e 413d c9b0 8c3d a9aa c7bd
00000380: c53e dcbd c370 e1bc 1613 ebbd c8f2 eebd
00000390: d1d5 d5bd e138 14be 5a02 1fbc a5d8 64bd
000003a0: 08f7 213e 7209 a73c 9709 84bb d394 653d
000003b0: fb36 70bd 841c c5bd 7397 96bc 1564 d53d
000003c0: 1938 393c 2eaa 55bd fde8 a5bd eef3 a2bc
000003d0: 18d9 bb3d 30cf 9b3d 74ec 02be 7589 d73d
000003e0: e4d4 1fbe c394 e83d 128b 2d3d bca1 d03a
000003f0: 1dc5 02be a839 a9bd b6c6 97bd 8576 813d
