Project/Assets/BrickBreaker/BrickBreaker.onnx (onnx, 74881 bytes, 6 tensors)

action_model._continuous_distribution.mu.weight f4 [1, 128]
00000000: 5b7b 5c3d 0ff5 113d cab6 b73d 6bbe 94bd
00000010: e8d0 603d cc4b df3d 32f5 e83c a320 96bc
00000020: aac3 45be b1f6 a83d 7778 8d3d 1e72 8a3d
00000030: 2334 273d 14a4 013e 6d98 483c b3b1 e5ba
00000040: d057 c23d 794f debd 5a6a 1fbd 15bc 6c3e
00000050: 4468 33bd dc5e 9d3d 4ad0 ca3d 8548 863d
00000060: fb88 4c3d 3652 0b3d be36 6cbd bd1e 71bd
00000070: 9011 0cbd 0b19 63bd f798 303d 1ab1 25bc
00000080: d260 823d 9ff3 6e3c b933 303e c291 943d
00000090: 1a95 c8bd 9c72 673e 6ca1 a03c 88c8 64bd
000000a0: 1903 c33d 9dfb f2bd 9fc4 573d 157e 20bd
000000b0: 54dc 3a3d bb84 443d a1e1 653d 6c9c 8abd
000000c0: 4487 643d ad49 343d 12a5 263c f5b8 da3d
000000d0: c8fe 983c 4538 8f3d d6f3 f8bc fad6 2d3d
000000e0: 2f68 933d 4a9c c2bc 6210 bb3d 34e2 c4bc
000000f0: d2a9 133c 5e42 603d 7f72 1ebd 94f7 443d
00000100: 5074 36bd ac21 863d 45e6 713d 4cdf 1d3e
00000110: dd33 c13c 44a2 8e3d e9b8 83bd 3674 943d
00000120: eef3 ba3d 024a 8e3c 5168 b5bd 376e 0d3d
00000130: cb49 293d 984b 383d 3dbf 713c 4054 503c
00000140: 098f a23d d85e 413c 33ed 153e f41b 7bbd
00000150: 6044 923b dc2a 433d cfcc 853d 22f4 2a3d
00000160: 103d ad3d 6616 123d d1f2 793d 5b3a ecbc
00000170: 2394 923d c8d9 9f3d 7965 5b3d fe0d 2c3d
00000180: a678 61bd cf2b 5c3d 8cb7 533d ed6b fdbd
00000190: 834e 2abd c359 613d bafc 9f3d d1a1 cc3c
000001a0: 45ed 5ebc 0648 003d 1386 c23c 67b7 cc3c
000001b0: e910 ca3d 9b07 923d 02a0 033e 5eaa 2cbd
000001c0: 8568 9b3c 72d1 d33d 058c 0cbd 18e6 26bd
000001d0: bb2e fcbb 05db 35bd 6ca8 b33d 3fe6 633d
000001e0: 9f1e d93d ac5d 593d 0143 c33c c91f d03d
000001f0: 5250 a83d aefa e0bc 6166 b53c 77a5 083d
0.05382858 0.035634097 0.08970411 -0.07262882 0.05488673 0.10903129 0.02843723 -0.01832611
-0.19312921 0.08250178 0.069077425 0.067600474 0.040821206 0.12660247 0.012243372 -0.0017524272
0.09489405 -0.10855002 -0.038919784 0.23118623 -0.043800607 0.076841086 0.09903009 0.06556801
0.049935322 0.03401395 -0.057669394 -0.058867205 -0.034196436 -0.055443805 0.04311463 -0.010113025
0.06366123 0.014584451 0.1720723 0.072543636 -0.09794064 0.22602314 0.019608222 -0.055855304
0.09522075 -0.11864398 0.052677747 -0.03918274 0.045620278 0.047978144 0.05612338 -0.06768116
0.05579306 0.044015575 0.010171192 0.10679809 0.018676177 0.069931544 -0.030389708 0.042441346
0.07197606 -0.023756165 0.09133984 -0.024033643 0.009012656 0.054750793 -0.03868341 0.04808767
-0.044544518 0.06549391 0.059057493 0.15417212 0.0235843 0.069645435 -0.06431753 0.07248728
0.09128557 0.017369274 -0.088577874 0.034528937 0.04133014 0.044993967 0.014755067 0.012715399
0.07937438 0.011802398 0.14641266 -0.061305955 0.0044637173 0.047648296 0.06533205 0.04173673
0.084589124 0.035665892 0.061022583 -0.02883642 0.07157161 0.0780521 0.05356357 0.04200553
-0.0550467 0.053752717 0.051688716 -0.12374101 -0.04157878 0.055017244 0.07811876 0.024979504
-0.013606374 0.031318687 0.023745572 0.024989797 0.098665066 0.07130357 0.12854007 -0.042154662
0.018970737 0.10342683 -0.03431322 -0.04074678 -0.0076960004 -0.044398326 0.08772358 0.0556395
0.10601544 0.053067848 0.02383566 0.101623125 0.08218445 -0.027463283 0.022143545 0.033360925

action_model._discrete_distribution.branches.0.weight f4 [1, 128]
00000000: 2091 673c 1e52 30bb 0fe1 07bc 2d43 0dbb
00000010: b5f1 4abb 1f0b 92bb 63b5 3e3c 6b4b 9b3b
00000020: 35e7 613a ec6c 14bb 88dc d43a 1f24 3fbc
00000030: bab7 2abb 637b 753a 36cc 3fbc 879a 1ebc
00000040: e69f 13bb d54b 053c db93 c5bc ef1d 963b
00000050: 4b6c 153b 9ef4 44bb 8a90 613b 7aae ffba
00000060: 398a 933b a8e3 4fba 5ae2 e73b 3bff 2fbc
00000070: d02c 26bc 8dbb 0e3b d9ae 2ebb ea3e de3b
00000080: 8323 58bb 8f97 cbbb 43e1 d1bb f0a5 b1bb
00000090: 9cdc 323c 8f12 c6bb e0d2 6f3b 6881 b8bb
000000a0: d6cf 263c 18df 4f3c 07ae 11bc ad34 57bb
000000b0: c76b 1c3c 9dcb f1ba 7ab1 e0b9 e318 3bbb
000000c0: a65f 283c abaf 213b 1ae6 cd3b 9b8d a93c
000000d0: 57e3 1c3c 07f6 3f3b 17c0 9fbb c974 133c
000000e0: 3207 4abc e83d c6bb e396 b9ba 52f6 6e3c
000000f0: a6a4 043a a0dd f6bb 9131 343b 7ce5 c73b
00000100: d53f 13bc af43 33bc 3ec1 aeb8 2718 ac3b
00000110: 269d 8f3c b312 c13b 275e 59bb 6b5c 00bc
00000120: 2d19 3dbc da1f 493c bc2e abbb 1cc7 0b3c
00000130: 295c 873c 3d3c eebb ebce b23b bf23 11bc
00000140: 5d8b 9ebb da74 003c 247a bebb d580 22b8
00000150: b7f4 d43b 20dd 6bbb 0b4a 8e3b eb36 cfbb
00000160: 6280 2e3b 5bf8 19bc 7376 f2bb ad4d ac3b
00000170: c724 97bb 61cd 963b 8008 db3b b248 bc39
00000180: 90aa 813c 1fc8 3e3c 5c5e 9b3b 0fe4 8dbc
00000190: 0565 0b3c 8518 45ba e006 51bb 827c e43b
000001a0: e745 97bc 9a39 febb a314 3fbc 5f55 92bb
000001b0: dac7 6dbc 0cc9 803b 6c13 c6bb 5f2d ba3b
000001c0: 43b7 6fbc 0ac1 cc3b 9361 e83b 5613 9bbb
000001d0: 45e0 e8bb 780f 2e3a b837 08bc 831c 87ba
000001e0: 088b 5fbc 8f9f 5a3b 57db a6bb e7f6 1f3c
000001f0: d5ea d6bb cbfb 543b 5b2f 29bc 80c7 7a3c
0.014133722 -0.0026904414 -0.008293404 -0.0021554932 -0.0030966823 -0.004456892 0.011639926 0.004739215
0.00086175214 -0.002264793 0.001624004 -0.011666327 -0.002604945 0.00093643944 -0.0117064025 -0.009680397
-0.0022525727 0.008135756 -0.024118355 0.004581205 0.0022800143 -0.003005303 0.0034418427 -0.0019506954
0.0045025614 -0.0007930347 0.0070765438 -0.010742004 -0.01014252 0.002177927 -0.002665451 0.0067824023
-0.003298015 -0.0062131356 -0.006405027 -0.0054213926 0.010916855 -0.006044693 0.0036594197 -0.005630661
0.010181388 0.012687467 -0.008891589 -0.0032837794 0.0095471805 -0.0018447522 -0.0004285684 -0.002854877
0.010276711 0.0024671357 0.0062835338 0.020697406 0.009575686 0.002929093 -0.004875194 0.009000012
-0.012330817 -0.0060498603 -0.0014159348 0.0145850945 0.0005059935 -0.007533744 0.0027495364 0.0061003547
-0.008987387 -0.01094143 -8.332961e-05 0.0052519026 0.017530989 0.0058921217 -0.0033167691 -0.007834534
-0.011541647 0.01227566 -0.005224077 0.008531358 0.016523438 -0.0072703646 0.0054567955 -0.00885862
-0.0048383907 0.00784036 -0.0058129 -3.8743794e-05 0.006498899 -0.0035989955 0.0043423227 -0.0063236854
0.0026626815 -0.009397591 -0.007399374 0.005258283 -0.0046125385 0.00460212 0.006684363 0.00035912317
0.0158284 0.011644392 0.004741473 -0.01732066 0.008507972 -0.00075186073 -0.0031894967 0.0069728503
-0.01846595 -0.0077583315 -0.011662635 -0.0044657434 -0.01451298 0.0039302167 -0.0060447957 0.005681678
-0.014631095 0.006248598 0.00709171 -0.0047325296 -0.007106813 0.0006639878 -0.008314066 -0.001030818
-0.0136439875 0.0033359264 -0.0050920653 0.009763456 -0.006558756 0.0032498713 -0.010326232 0.015306354

network_body._body_endoder.seq_layers.0.bias f4 [128]
00000000: dcee f13c 3aff f33c 24f3 5fbc 14c9 8fbd
00000010: fde3 29be 3b34 ad3c 3d4c 19bd 0382 b5bd
00000020: 8721 85bd 3282 373c cdfb 053d b1c0 ae3d
00000030: 0d9f 00bc 0397 c5bd 7d78 6d3c 64fb f3bc
00000040: 43f0 c93b 078b dd3c 108b f73c 5353 ac3c
00000050: e31e c9bc 0c3b a8bd d81a 40bd 6d1e 6dbd
00000060: b3a7 70bc e22a f0bd 2106 553c e15b 1a3c
00000070: bb02 543c ab9a a7bc 20a9 b3bd 1cba c53c
00000080: 9fc9 253c 9656 313d 54a7 dbbb 0ed1 1bbd
00000090: 402c 91bd a70c 7f3d 5261 97bc c15a 2cbe
000000a0: 85e4 ae3b 34d2 95bc a31a 3fbd 3fc5 dbbd
000000b0: e924 1c3d 57ea 123d 279b 69bc 80ce bd3b
000000c0: 00c9 9c3c 723d b8bd a0ae 1fbd 3151 023e
000000d0: 6f43 debc a962 72bd 8c8a c63c 766d 75bc
000000e0: e458 98bc 97c7 07bb a858 a6bd fdc7 dbbc
000000f0: 3979 fc3c 7738 2abd 615c bdbc 9dfc 8fbd
00000100: 6d38 f13c 3b39 17bc 2563 85b9 1941 7dbd
00000110: 6a77 39bd c654 ad3d dc66 323e 6426 0abb
00000120: 8a07 9bbd 87b0 0fbe 53f1 13bd 1c06 25bc
00000130: 4a6c c53d 0803 a5bc 088f e3bc 61b7 b2bc
00000140: 7616 78bc f63f cfbd 75c2 bfbd c13c e03d
00000150: 3ce1 633d 157e 0c3a 686c c63d 8256 6ebc
00000160: e73d 62bd d145 89bc 0ff3 c0bd dfec 55bd
00000170: c88e 95bd f6a0 483d 7e58 b93b c201 15bd
00000180: eb19 e03c 8389 0ebd b361 b43c cdd6 bb3d
00000190: f288 23bd 4eb5 ab3d 06cf aabd e9e4 903c
000001a0: a59d ccbc 6139 29be a4bc cfbd e922 953d
000001b0: 09a7 5dbd 2359 57bc ae6a fbbc 9b4a a23c
000001c0: 6f83 80bd cac1 63bd 9407 cbbc 6f69 d7bd
000001d0: 91fb 3d3d 0e08 5fbd ac50 06bd 4a17 743d
000001e0: 05d8 8fbd 7996 be3c 2999 74bd 6bca c2bc
000001f0: 4631 d33c 28c8 6bbd f62b ef3d 9fe8 e7bc
0.029532842 0.029784787 -0.013668809 -0.070207745 -0.16590877 0.02114307 -0.037426222 -0.088626884
-0.065005355 0.011200475 0.03271084 0.08532847 -0.007850421 -0.09647944 0.014494059 -0.029782958
0.0061626746 0.027043832 0.030217677 0.021035826 -0.02455086 -0.08214387 -0.0469006 -0.057890344
-0.01468842 -0.11726929 0.0130019495 0.00942132 0.012940104 -0.020459494 -0.087724924 0.024136595
0.010118871 0.043295465 -0.0067032967 -0.038041167 -0.07088518 0.062267926 -0.018479023 -0.16831495
0.0053373002 -0.01828871 -0.046656262 -0.10730981 0.038121138 0.035868015 -0.014258183 0.005792439
0.019138813 -0.08996095 -0.038984895 0.12726285 -0.027131764 -0.05917612 0.024235986 -0.014979711
-0.018597074 -0.002071833 -0.081223786 -0.02682876 0.030819522 -0.041557755 -0.023115339 -0.07030604
0.029445851 -0.009229953 -0.00025441605 -0.06182966 -0.045279898 0.08463435 0.1742205 -0.0021080012
-0.07569797 -0.14032184 -0.036118817 -0.010072257 0.09639795 -0.020143047 -0.027778164 -0.021815958
-0.015142074 -0.101196215 -0.093632616 0.10949088 0.055634722 0.0005359364 0.096886456 -0.014546992
-0.055234816 -0.016756924 -0.0942136 -0.05222785 -0.07302624 0.04898163 0.005656301 -0.03637863
0.027356109 -0.03479911 0.022019243 0.091718294 -0.039925523 0.083841905 -0.08340268 0.017687278
-0.024977515 -0.16525795 -0.10143402 0.07282049 -0.054114375 -0.01314381 -0.030690517 0.019810965
-0.06275069 -0.055604734 -0.024783887 -0.10518157 0.04638249 -0.05445104 -0.03279178 0.059592523
-0.07023624 0.02326511 -0.059716377 -0.023778161 0.025780331 -0.05756393 0.11678307 -0.028309165

network_body._body_endoder.seq_layers.0.weight f4 [128, 8]
00000000: ea19 ee3e aca3 ee3e 58e7 cc3e 297b c73d
00000010: 08e6 19be 7435 babe c66b 093f 06a0 f9bd
00000020: 7c9c 2fbf 60f4 1cbe aa45 14bf 77b6 853e
00000030: 9936 d7be 6cf5 aa3e ab3c 23bc 7ef7 6abe
00000040: 83d0 c03d 0ecb 24bb 1e4c a3be ccae d8be
00000050: ea4a 053e bcbc 003f b268 d3be 1c90 46bd
00000060: fee4 b1be fa97 853e d240 9fbe 1534 483e
00000070: 2cbd 843e ac00 ed3e 4047 4abd c618 bf3d
00000080: 7d10 d63e 42cb e43d e641 1bbe 0300 483e
00000090: ad5e ccbd c313 cabe f609 603d 9d8d 2a3e
000000a0: a710 e1be 18b9 c73c 117e 2cbd 310a 2b3f
000000b0: 66de 533e 1aab 6f3e 6d44 7ebd dea9 08be
000000c0: 81e2 82be 7a37 f63e d0bb aabe 985a bdbe
000000d0: d267 57be 9ddc a8be 7668 fa3d 0257 2f3f
000000e0: 3498 183f 1e36 60be cbf0 353f cdaf 8fbe
000000f0: ae55 aabe 4768 e03e 5154 b43a 0248 c23e
00000100: 9cb6 6b3f d117 10bd 2e4d a73e f7f7 073f
00000110: d14b f43e 35ed 67be 41b5 3c3e 9846 a33e
00000120: 548d 5bbc 016a 2c3d df91 483e 70ba 0cbf
00000130: 9edb 5a3e f591 82bd 3031 a73b 8767 ffbd
00000140: dd2b 163e 58c8 59be 1948 72be bc26 96bd
00000150: bf77 143e 2c91 75bc 4a42 803d 3059 293f
00000160: 34c0 3b3e b5a1 d6bd 6c4e 723e 25eb a93d
00000170: 4891 8bbe ea97 273f 5753 7b3e d35f 76bd
00000180: f51d a73e 6ee0 c33e 6c5b ca3e 437c 39bf
00000190: 8f3e f4bd 504e 9f3e 38e7 93be a171 f4bd
000001a0: 7801 94be c215 d4bd 8512 9dbd 875b 3a3e
000001b0: 8d34 053e c362 113d 2d06 253f 0a04 353f
000001c0: b966 98bc 4f4d 983e da80 ac3e c271 7ebd
000001d0: 819a 583e a14f 943e 8829 35bf 0b73 02bd
000001e0: a181 bdbe bebb 303f 26cb 1a3f 12c7 233d
000001f0: e116 443e 41d8 55be 1a44 64be b7e4 8cbe
00000200: 0255 0fbe 1aa4 5e3d d2de 033c bf23 df3d
00000210: a924 843d 0402 ce3e 8f94 883e 26c9 d63e
00000220: 940d 5f3e fe13 3c3d 7d88 853e 9da2 c63e
00000230: 6ec8 9fbd 27ca 89be 578a 51be 560c 3bbf
00000240: 3535 ecbd e156 17bc 20cb c43e 84f1 45be
00000250: d35a 643e 4c45 ccbe fb36 bb3d cbf5 90be
00000260: bc59 633e 138f c3bd acf2 2cbe 01fb 083e
00000270: d0a9 c4be 9778 1f3c 9b27 b13e 30ef 3f3e
00000280: bbf3 5d3e 860a c7be 6eed 233e c6b9 08be
00000290: 1a7f 76be bc2a 1a3f 69be 193e 457f 633f
000002a0: a9cd 4abd 4b2b 12bf 1be6 5bbe 610a fcbe
000002b0: ec8f babd ad15 d43d e290 00bf ee84 a3be
000002c0: 1d9e b73e 570c 74be f613 693e 35ed 0abf
000002d0: 8a2d c53e b0c3 563e b030 f93d 678d 473e
000002e0: 68b0 913d ede5 c1bd b88e ba3d e0ac 5f3e
000002f0: 0581 0c3e ca3e 34be 0918 95be f51c 11be
00000300: 3d1e 033f 972a 873d ffb8 563d 0243 923e
00000310: d769 123f 52fa 5fbe 4ee0 13bf 1447 91be
00000320: a911 ce3e 182e 3bbe 1b2f 5c3d 2ba6 b3bc
00000330: f4ca fbbe 152c 8ebc 36a0 b73c 9e63 0e3f
00000340: cc16 5c3c 4ca8 51be 3737 2fbe 2ea2 493c
00000350: e74a 023e fe24 ae3e 0be7 53bc 8225 7ebd
00000360: dbad 9a3e f204 833f 23e0 80be 971e fb3e
00000370: d37a cdbe e34a 1fbe 96e4 243e 629c e83e
00000380: 9010 bb3e 6e10 c1be b834 95be a65c db3e
00000390: 5da8 123e b50e 173f 1cd4 9abd b048 083e
000003a0: 3f73 923d 6cb8 063d f89f e43d 7e9f 723e
000003b0: 4233 703e 1337 81be e79d 2cbe 22c2 44bd
000003c0: 9bfd 18bf 383d 513f 6ace a3be c724 f93d
000003d0: 72e1 713c 9909 89be ee00 e4be 70f7 d8be
000003e0: 1f06 8dbd db5a 9dbd 7635 bb3e e300 1ebd
000003f0: 3cbe 393d 309c 64be a688 113e 32eb dc3e
0.46504146 0.46609247 0.4002025 0.09740288 -0.15029156 -0.36368906 0.53680074 -0.12188725
-0.6859815 -0.15327597 -0.579188 0.26115772 -0.42033842 0.33390367 -0.009963195 -0.22945973
0.094147705 -0.0025145444 -0.3189401 -0.4232086 0.13016859 0.50287986 -0.41290814 -0.048477277
-0.3474502 0.2609251 -0.3110414 0.19551118 0.25925577 0.46289575 -0.049384356 0.09330897
0.41809455 0.11171581 -0.15161857 0.19531254 -0.099789955 -0.39468202 0.054697 0.16655584
-0.43958017 0.024380252 -0.042112414 0.66812426 0.20690307 0.23405114 -0.062076975 -0.13346049
-0.25563434 0.480892 -0.33346415 -0.3698318 -0.21035698 -0.32980815 0.122269556 0.6849214
0.59607244 -0.21895644 0.71070546 -0.28063813 -0.33268493 0.43829557 0.0013758038 0.37945563
0.92075515 -0.035178963 0.3267607 0.5311274 0.47714093 -0.22649081 0.18428518 0.31889796
-0.0134003945 0.04209328 0.19586895 -0.5497198 0.2137284 -0.06375495 0.005102299 -0.12470918
0.1466517 -0.21267831 -0.23660316 -0.07331607 0.14498805 -0.014988225 0.06262644 0.66151714
0.18335038 -0.10480062 0.23662728 0.082968034 -0.27259278 0.6546618 0.2454351 -0.06014998
0.32640043 0.38257164 0.39522874 -0.72455233 -0.119259946 0.31114435 -0.28887343 -0.119357355
-0.2890737 -0.103557125 -0.07669548 0.18198977 0.13008328 0.035494577 0.6446255 0.7070929
-0.01860367 0.29746482 0.33692056 -0.062120207 0.21152689 0.28967002 -0.70766497 -0.031847995
-0.37012962 0.6903647 0.6046623 0.03998477 0.19149353 -0.20883276 -0.22291604 -0.27518246
-0.13997272 0.05435572 0.00804873 0.1089549 0.06452305 0.40235913 0.2667584 0.4195034
0.21782523 0.045917504 0.26080695 0.3879594 -0.07801901 -0.26912042 -0.20462929 -0.730657
-0.11533586 -0.009237022 0.38436222 -0.19330412 0.22300272 -0.3989662 0.09141346 -0.28312525
0.222022 -0.095487736 -0.16889447 0.13377 -0.38410807 0.009733341 0.3460053 0.18743587
0.21675007 -0.38875216 0.16008541 -0.13352117 -0.24071923 0.6022146 0.15014042 0.8886607
-0.04951254 -0.5709731 -0.21474497 -0.49226668 -0.09109482 0.10355697 -0.50221074 -0.31937355
0.35862818 -0.23832832 0.2276152 -0.542682 0.38511306 0.20973086 0.121674895 0.19487534
0.07113725 -0.09467683 0.09109253 0.2184329 0.13721092 -0.17602077 -0.291199 -0.14171202
0.51218015 0.0659992 0.05242252 0.28566748 0.5719275 -0.21872833 -0.57764137 -0.2837454
0.4024785 -0.18279302 0.05375586 -0.021929821 -0.49178278 -0.017355004 0.022415262 0.55620754
0.01343317 -0.20474356 -0.17110907 0.012306733 0.12723885 0.34012598 -0.012933503 -0.06204749
0.30210766 1.0235884 -0.25171003 0.49046776 -0.4013277 -0.15555911 0.16102824 0.4543181
0.36536074 -0.37707847 -0.29141784 0.42844123 0.14322038 0.59006816 -0.07559988 0.13308978
0.07150888 0.032890722 0.11163324 0.23693654 0.23457053 -0.2523733 -0.1685711 -0.048036702
-0.5976197 0.8173404 -0.3199342 0.12165218 0.014763223 -0.26765135 -0.4453196 -0.4237628
-0.06885933 -0.07683345 0.36564225 -0.038575064 0.045347437 -0.22325206 0.14212283 0.4314819

network_body._body_endoder.seq_layers.2.bias f4 [128]
00000000: 25de 24bd 11ee 04bb ead9 523b 7603 d73d
00000010: 5539 0dbc 51e2 d6bc 85ba 4fbb 5602 83bd
00000020: dbc1 d73d 9de7 ebbc 91b3 64bd 9cc1 f1bc
00000030: 0c92 9cbd 8655 2b3d 2594 a7bd b747 a2bd
00000040: 3c09 78bc 1f33 ea3d 3dbe d8bb 30ba 7abd
00000050: da68 343d a08b 24bd 208b d13c d121 58bd
00000060: f039 adbc 086f 57bd 4080 d83d e67a da3d
00000070: de9f f83d f7c3 463d 06e0 3bbd 5781 a4bd
00000080: a22c e93b 0ad5 5bbc 069f f43c 3bef 48bb
00000090: 34db 2f3e 5890 d83c d6c9 72bd 46ea 073d
000000a0: bac5 95bd a6e7 8d3d 7159 8fbd 40dd 833d
000000b0: 38d4 eebc 3c0e 61bd 8db6 b2bd 1376 233e
000000c0: 0632 e2bc db95 98ba c240 b8bd 0539 88bd
000000d0: e3db 6cbc 1120 20bd 7ca3 233d 66b7 b6bc
000000e0: fffa 27bd bd63 353d 71aa 87bd ee4d ec3d
000000f0: 40f9 a2bc cd40 38bb a1f6 593d 863f 25bd
00000100: edba 923d 459d cdbc a8ff 99bc 7064 e3bb
00000110: 63d8 5ebd cb14 4b3c 552f d23d dd17 abbc
00000120: d50a 60bc 7061 19bd f1b0 1f3d 8ed1 6ebd
00000130: 655d a03c ebc3 babd 84f5 20bd 3717 79bd
00000140: c16f d6bd b5c5 233d 3f86 1c3d 258d 0f3e
00000150: 81be dd3c 4f9d 133c f54c fcbc 192b a2bc
00000160: eecf 423c af05 d3bc 89f6 38bd 488f 2f3e
00000170: a51a 583c 38b5 4dbc 7d2d c33b cd85 55bd
00000180: 7838 893d 0584 58bd c77b 41bd d17d 3e3e
00000190: 6370 a6bd 66c5 9a3c 4c6a 2fbd f3dd a23d
000001a0: d579 05be f59b eabb 8937 38bd 364f 67bc
000001b0: ed78 363d 8df5 64bd 793d a7bc 4adb 733d
000001c0: fa69 3d3c d80d 03bc 6216 953d e749 4f3b
000001d0: baaf 3fbd 2608 833a f100 e9bc 5092 2fbd
000001e0: 0fc6 81bc 7081 97bd 36ad 06bd cdc6 3abd
000001f0: 20f1 19bd 1c2a fe3d 79df debc 965c 99bd
-0.040250916 -0.00202835 0.0032173344 0.10498707 -0.008619626 -0.026230963 -0.0031696868 -0.0639693
0.10535022 -0.028796965 -0.05583531 -0.029511265 -0.07645044 0.04182961 -0.08182553 -0.07923835
-0.01513892 0.11435532 -0.006614475 -0.06121272 0.044045307 -0.04017222 0.025579035 -0.052766625
-0.02114579 -0.052596122 0.10571337 0.10667972 0.12139867 0.04852673 -0.045867942 -0.08032482
0.0071159163 -0.013417492 0.029860985 -0.003066017 0.17173463 0.026436016 -0.059274517 0.033182405
-0.07313104 0.06928949 -0.069994815 0.064386845 -0.029153928 -0.054945216 -0.08726225 0.1596301
-0.027611744 -0.001164134 -0.089967266 -0.066515006 -0.014456722 -0.03909308 0.039950833 -0.022304248
-0.041010853 0.04428457 -0.06624306 0.115383014 -0.019894242 -0.0028114796 0.05321372 -0.040343784
0.071645595 -0.025099406 -0.018798664 -0.0069394633 -0.05440558 0.012395094 0.10262934 -0.020885402
-0.013674458 -0.03744644 0.038987104 -0.058305316 0.019575784 -0.091194 -0.039296642 -0.060813155
-0.10470534 0.03998347 0.038213965 0.14018686 0.027068378 0.009009673 -0.030798415 -0.019795941
0.011890395 -0.025759546 -0.04515699 0.17144501 0.013189946 -0.012555413 0.0059563504 -0.052129555
0.06700224 -0.05286028 -0.047237184 0.18602683 -0.08126905 0.018892955 -0.042825982 0.0795249
-0.13034756 -0.007159705 -0.044974837 -0.014118006 0.044548918 -0.055898238 -0.020415055 0.059535302
0.011560911 -0.007998906 0.0727966 0.0031629743 -0.046798445 0.0009996935 -0.028442832 -0.042864144
-0.015841512 -0.07397735 -0.03288003 -0.045599747 -0.03758347 0.124103755 -0.02720617 -0.074883625

network_body._body_endoder.seq_layers.2.weight f4 [128, 128]
00000000: cb05 b13d b9a2 813d 9af5 a3bc 7e04 0fbd
00000010: e030 36be ec68 abbd 5884 e9bd 9b25 553d
00000020: 72e3 39be f959 f53c b801 3fbe 05d9 a4bd
00000030: 0051 07bd 5926 a13d 1ae4 1c3e 34b7 f8bc
00000040: 738a 253d 642e eb3d fde9 a8bd f334 a03d
00000050: ed20 03be f405 df3c 7399 0ebe 17dc 983c
00000060: 05e3 b8bd 5f9d a0bd 2f1f 8dbd 0ea8 9abd
00000070: 6c5b a6bd 00d7 a9bd eea2 943e 0493 63bd
00000080: e191 aabd cafa d93d fbf6 703d 21f7 bc3d
00000090: 1313 3b3e b689 b5bd e02b 6abd 66e4 f4bd
000000a0: 9b9d 13be 0f2f b3bc fb66 c4bd 9ab8 8c3e
000000b0: f0c5 2c3d a142 9a3d 4a37 a03d 349b 133c
000000c0: 2f32 833d e1c7 003e 1ac7 303e 3519 5ebe
000000d0: 7590 843d 58a5 9e3d ff1a 7c3d f264 3ebe
000000e0: 564a 37bd 5c4b 2bbd 8a4c 6a3e d579 b63d
000000f0: 3b13 5b3d c10d 683e 8958 9e3d fa72 4bbd
00000100: 19a0 d13d 58f3 343e 2a86 813d 8d4f c23d
00000110: d5e5 903d 0b5d a8bd 4ed4 a6bd 2e5f 853d
00000120: f5c9 be3d a68a c63d f07b 0cbe 3b19 253d
00000130: 6a90 653d 1e13 6bbe 0163 6fbd 30e1 c1bd
00000140: 3dec 49bc 4031 0b3e 3d07 8c3d d856 b83d
00000150: 016b 07be bdbe a1bd f299 7cbd a1ec 24be
00000160: 72c8 bd3c 229b 863d 1904 f63d 6f53 023e
00000170: 82f6 b63c 3919 6bbd 222d 363c 9226 9fba
00000180: 1f26 4bbd e5b1 4bbe 3ac7 853c f9bf 7fbc
00000190: 69af 323e 819f a53d 77f7 85bc 5967 4b3d
000001a0: 413e 76be 99ee b73c 4bbd 45be 23af 70be
000001b0: 770f 7a3e 7be6 933d 164f 723c 933b 88bc
000001c0: 463e 503e 458d 1e3e 1ac6 623e dd73 0fbe
000001d0: e2bf 5a3e ee25 56be b385 813d 94b4 68be
000001e0: f50c 283d 91cd b9bd 226c 323e 2e5c d5bd
000001f0: d921 8f3c a299 e53c 231a 17bd 2ee2 5cbb
00000200: c6a0 b0bd a0cd e13d c44a 8e3d de08 893d
00000210: 2046 3cbe 9c5b 26bd 2eaf cc3c 5f3d 2c3e
00000220: 0992 8dbd 3f67 d23d e107 8abc 23b7 c0bd
00000230: 5f74 783e cade 003b bc03 853d 2ecb 8d3c
00000240: 9707 1dbe 2d49 17be 3543 4a3d b606 98bd
00000250: b988 253c 39d7 0f3d fd1c 4bbd 3987 a6bd
00000260: e2bb 163e 2f4b aebd 2fd1 c1bd 236a 75be
00000270: eb03 3abe 4c41 1fbd abfb 663c 1b1f 243d
00000280: b5d8 87bc f3ab ef3c 9f98 afbd 3b7d cf3d
00000290: 5346 1f3c 5e9c 9cbd bc6d 09be 7003 e3bc
000002a0: 22d1 b6bd 56a4 273e 4290 03bc c010 443d
000002b0: f724 983d d66c eebc 586c 6f3d af4b 47be
000002c0: c3c5 c8bd 5d78 f83d 2c6a 273e 826f b13c
000002d0: 3c6e 993c cfaf b13d 5e91 d4bd b841 b2bd
000002e0: fbf2 683e 8a1f 27be 7032 513d 6567 b3bd
000002f0: 8b5c bebd 4805 9cbd 001a 8ebc ce38 b0bd
00000300: fedd 6abd 790a 78be e6da 4f3c 2b3c a2bd
00000310: f174 f03d 00bc febd e63c aabd 2d58 113e
00000320: 98bb 1cbd c5b6 7abd 3dff a13d 2cb7 7cbd
00000330: a274 e2bd 942b 813b 6e5f 58be 429b c73b
00000340: ca7a ecbc 5d67 d5bc 0b8a 133e 4d63 843d
00000350: 7987 073d 040a 2bbd 58cd dfbd 2e95 e2bd
00000360: a82c 203d 0d46 143d dbd5 0a3e e6ea 6b3d
00000370: 2436 993d 0d72 9c3b 5950 9c3d b257 2f3e
00000380: 197c 3fbd aa6d 0f3b 38e9 05bc 19b6 913b
00000390: ac23 663c 8c2b 76bd 373e d8bd 896d 7bbd
000003a0: 3402 2e3e 778b d6bb 5f0f 983d e670 1f3e
000003b0: fb84 30be 9254 b8bd f405 c23d 7d6c 343e
000003c0: f8ba febc 7238 713d dc16 1e3d e072 07bd
000003d0: a904 85bd fbf0 16be 2c81 923d d1f2 71bd
000003e0: 01f1 a9bd efec 81be 5da1 2dbe 2e09 5c3e
000003f0: 9396 cbbd a3a3 d7bd c7a3 a8bd eed4 e43d
0.08643683 0.06329865 -0.020014573 -0.034916393 -0.17792082 -0.08369622 -0.11402196 0.052037816
-0.1815317 0.029950129 -0.18653 -0.08049206 -0.033036232 0.07868642 0.15321389 -0.030360796
0.04041524 0.11483458 -0.08247755 0.07822599 -0.12805529 0.027224518 -0.13925724 0.018659635
-0.090276755 -0.07842516 -0.068907134 -0.07551585 -0.08122906 -0.08292961 0.29030555 -0.055560127
-0.083286054 0.10643537 0.05882929 0.092268236 0.18268995 -0.08864157 -0.05717075 -0.11957626
-0.1441559 -0.021873025 -0.095899545 0.2748459 0.042180955 0.0753224 0.078230456 0.009009171
0.06406056 0.12576248 0.17263451 -0.21689303 0.064728655 0.077463806 0.061549183 -0.18593195
-0.044748627 -0.041819915 0.2288076 0.08909956 0.053485136 0.22661497 0.077317305 -0.049670197
0.10235614 0.17670953 0.06324418 0.09487829 0.07075087 -0.082208715 -0.08145963 0.06512295
0.09315864 0.09694414 -0.13719153 0.040307265 0.056045927 -0.22956511 -0.058444027 -0.09466779
-0.01232439 0.13593006 0.06837318 0.09000939 -0.13224413 -0.078977086 -0.06167025 -0.16105892
0.023166869 0.06572558 0.120125 0.1272714 0.022334341 -0.0573971 0.011119159 -0.0012142232
-0.049596902 -0.1989208 0.01633035 -0.015609735 0.17449726 0.080870636 -0.016353352 0.049659107
-0.24047185 0.02245264 -0.19310491 -0.2350431 0.24419962 0.07221695 0.014789363 -0.01662997
0.20336255 0.15483578 0.22145882 -0.14009042 0.2136226 -0.20912907 0.06324329 -0.22725135
0.04102798 -0.09072412 0.17424062 -0.104179725 0.017472195 0.02802736 -0.03689016 -0.003370415
-0.08624415 0.11025548 0.06947854 0.066911444 -0.18386126 -0.04061471 0.024985876 0.16820286
-0.069126196 0.10273599 -0.01684946 -0.094099306 0.24263142 0.0019664043 0.06494853 0.017308798
-0.15334927 -0.14774008 0.0493805 -0.07423155 0.010103398 0.03511736 -0.049588192 -0.081312604
0.14720109 -0.08510434 -0.09463727 -0.23966269 -0.18165557 -0.03888063 0.014098088 0.040068727
-0.016582826 0.029256796 -0.08574032 0.10131308 0.009721356 -0.07647012 -0.13420767 -0.0277116
-0.08926608 0.16371283 -0.008029999 0.047867537 0.074289255 -0.029104631 0.058452934 -0.19462465
-0.09803345 0.121323325 0.16349095 0.021659616 0.018729322 0.08676111 -0.10379289 -0.08703941
0.2274894 -0.16320625 0.05107349 -0.08759955 -0.09294995 -0.07618195 -0.017346382 -0.08604585
-0.057340614 -0.24222745 0.012686467 -0.079216324 0.11741055 -0.12438202 -0.08312397 0.14193793
-0.03826484 -0.06120946 0.07910011 -0.061698124 -0.11057402 0.0039419625 -0.21130154 0.006091506
-0.028867144 -0.026050264 0.14408128 0.064642526 0.03308818 -0.0417576 -0.10927838 -0.1106361
0.039105088 0.036199618 0.13558142 0.057597063 0.0748103 0.004774338 0.076325126 0.17123297
-0.046749208 0.0021885433 -0.008173279 0.0044467566 0.014046591 -0.060100123 -0.105587415 -0.061383758
0.16993028 -0.006547387 0.07424807 0.15570411 -0.17238228 -0.090005055 0.09473792 0.1761951
-0.031095013 0.05889172 0.03859602 -0.033068538 -0.064950295 -0.14740364 0.07153544 -0.05906946
-0.08297921 -0.25376078 -0.16956086 0.21487877 -0.09940829 -0.10529258 -0.08234363 0.111734256
