Project/Assets/BrickBreaker/BrickBreaker_smartest.onnx (onnx, 72321 bytes, 6 tensors)

action_model._continuous_distribution.mu.weight f4 [1, 128]
0	0x3c82635f	0.015916524
1	0xbac289d1	-0.0014842098
2	0xbcab6744	-0.020923264
3	0xbc851abf	-0.016248105
4	0x3d7c2981	0.06156302
5	0x3d01e742	0.031714685
6	0xbd94f8d5	-0.072740234
7	0x3d1d8436	0.038456164
8	0xbc538520	-0.012910157
9	0x3ca37f25	0.019958088
10	0x3cf14aa2	0.029454533
11	0x3d50d897	0.050987806
12	0xbc3cabbb	-0.011515553
13	0x3d6aec06	0.057353996
14	0x3d80ad8b	0.06283101
15	0x3cf1bfcd	0.029510403
16	0xbc673623	-0.014112028
17	0x3c00183c	0.007818278
18	0x3ce89120	0.028389513
19	0x3cbe1b68	0.023206428
20	0x3c075fad	0.008262557
21	0xbc8c5e29	-0.017134743
22	0xbbd42429	-0.006474037
23	0x3be12e97	0.006872009
24	0xbc72bed7	-0.014816008
25	0x3cfc3c85	0.030790577
26	0xbcefd370	-0.029275626
27	0xbc367e49	-0.011138507
28	0xbd90238c	-0.0703803
29	0x3d849792	0.06474222
30	0x3da7141d	0.08158133
31	0xbd0da341	-0.03457952
32	0xbcdbff3a	-0.0268551
33	0x3d3fafc0	0.046798468
34	0x3cc9c09a	0.024627972
35	0xbb7eeed2	-0.0038899672
36	0xbd803759	-0.06260557
37	0xbd2b6ff0	-0.0418548
38	0xbc2b6e95	-0.0104633765
39	0x3d753e70	0.059874
40	0x3cfe37a6	0.031032395
41	0xbbfe7aca	-0.0077661024
42	0x3b85afb7	0.0040797847
43	0x3c831d7c	0.01600527
44	0xbd0ffa73	-0.035150956
45	0xbc841edf	-0.016128002
46	0xbb9b6788	-0.0047425665
47	0x3d33b4d0	0.043873608
48	0x3d1a7ee3	0.037718665
49	0xbcb5190b	-0.022106668
50	0x3cd88b48	0.026433602
51	0x3c920d14	0.017828502
52	0xbbdbe088	-0.006710116
53	0xbc70d15b	-0.014698352
54	0xbc472a76	-0.01215612
55	0xbd671fff	-0.056427
56	0x3cc2bc79	0.023771511
57	0xbcb4a08a	-0.022049207
58	0x3d97362d	0.0738338
59	0xbd0bf851	-0.03417236
60	0xbcf2f9c8	-0.02966012
61	0xbc9682f7	-0.018372996
62	0x3b28cb3c	0.0025755903
63	0x3c822485	0.015886554
64	0x3d10b346	0.03532722
65	0xbda48cd9	-0.08034677
66	0x3bb1ec96	0.0054298146
67	0x3d6e3954	0.05816014
68	0x3c1060de	0.008812157
69	0x3d3af825	0.045646805
70	0xbc1cee34	-0.009578276
71	0x3cd7fc3f	0.026365397
72	0xbc828f4e	-0.015937474
73	0xbca5e804	-0.020252235
74	0x3ce46ac8	0.027882949
75	0x3c90261a	0.017596293
76	0xbd47e7bc	-0.048804983
77	0xbd12db51	-0.035853688
78	0x3d108d8a	0.035291232
79	0xbccfde5b	-0.025374582
80	0xbcb23a33	-0.021756267
81	0x3d53a64b	0.05167226
82	0x3cba08ff	0.022709368
83	0xbd92d8e6	-0.07170276
84	0xbca4c07c	-0.020111315
85	0x3c8dccfa	0.017309655
86	0x3d582505	0.05276968
87	0xbb6cef96	-0.0036153547
88	0xbc7b2458	-0.015328489
89	0x3d02ae09	0.031904254
90	0x3d38777e	0.04503583
91	0x3d515521	0.051106576
92	0x3d0f3bf9	0.034969304
93	0xbb30ab8b	-0.0026957716
94	0x3baaa2bc	0.0052073877
95	0xbcb0f13b	-0.021599403
96	0xbc87b920	-0.016567767
97	0x3cafdc31	0.0214673
98	0xbdbefe1d	-0.09325812
99	0xbd04b84b	-0.032402318
100	0x3d92cd0c	0.07168016
101	0x3d65a776	0.056067906
102	0xbc020626	-0.007936036
103	0x3d8320bc	0.06402728
104	0xbb62f182	-0.0034628813
105	0xbc075f2c	-0.008262437
106	0xbd95d453	-0.07315888
107	0x3d8c090c	0.06837663
108	0x3ccb9aa1	0.024854006
109	0x3bffcc44	0.007806333
110	0x3dad7e20	0.08471322
111	0x3e06b6b5	0.13155635
112	0x3ca685aa	0.020327408
113	0x3d931870	0.071823955
114	0xbc5369ef	-0.0129036745
115	0xbd666322	-0.056246884
116	0x3e3216e7	0.17391549
117	0xbd6f73fb	-0.058460217
118	0x3d6a896e	0.05725997
119	0xbcd7467c	-0.026278727
120	0xbd1a3806	-0.037651084
121	0x3c83ccd6	0.016088884
122	0x3c6d225f	0.014473527
123	0x3d441406	0.04787066
124	0x3cd77a4f	0.026303438
125	0x3d412445	0.04715373
126	0x3d7b8fb7	0.061416354
127	0x3d5e24c5	0.054234285

action_model._discrete_distribution.branches.0.weight f4 [1, 128]
0	0xbc3b3473	-0.011426079
1	0xbc66c0e8	-0.014084078
2	0x3bb63484	0.0055604596
3	0x3c05fe8f	0.008178367
4	0x3bab8193	0.0052339523
5	0x3c5236ca	0.012830446
6	0xbb0277e1	-0.001990788
7	0xbc33e977	-0.010980955
8	0x3c24c57b	0.010056849
9	0xbc225ed8	-0.009910308
10	0xbc08cfdc	-0.008350339
11	0xbbfc4e1d	-0.0076997415
12	0x3b5d77df	0.0033793373
13	0x3bb0907b	0.005388317
14	0xbc503c9a	-0.012709761
15	0x3c1e7cc9	0.009673306
16	0x3c464a22	0.012102636
17	0x3c2c0368	0.010498859
18	0xbc37ed87	-0.0112260645
19	0xbb0ed6bf	-0.002179548
20	0xbb52074a	-0.0032047802
21	0x3c7ad665	0.015309905
22	0xbc3726ad	-0.011178655
23	0x3c06e313	0.00823285
24	0x3b8162e7	0.0039485577
25	0x3bb961c7	0.005657408
26	0x3bc73305	0.00607908
27	0xbc258086	-0.010101443
28	0xbaed345f	-0.0018097273
29	0xbbd53e2d	-0.006507656
30	0x3b095489	0.0020954928
31	0x3ac381c6	0.0014915995
32	0x3c0987a6	0.0083941575
33	0x3b4e000d	0.0031433136
34	0x3bb5abf1	0.0055441787
35	0xbbde6c63	-0.006787823
36	0xbc11d49d	-0.008900789
37	0x3b089d1a	0.0020845593
38	0xbbae230f	-0.005314238
39	0xbb4bbd4e	-0.0031088176
40	0x3bae31a7	0.0053159776
41	0xbbe0b6d2	-0.0068577314
42	0xbbefcad2	-0.0073178792
43	0xbb581bcf	-0.003297556
44	0x3b97bf17	0.004630934
45	0x3c68f36a	0.014218191
46	0x3a636c68	0.00086755166
47	0x3ce24098	0.027618691
48	0xbca10aa5	-0.019658396
49	0xbbdaf04b	-0.006681477
50	0x3c219e52	0.009864407
51	0xba873193	-0.0010314457
52	0xbc0cc674	-0.008592237
53	0x3bddb96a	0.006766488
54	0x3bf88ec3	0.007585378
55	0xba8c8c1b	-0.0010722907
56	0xbc8dc7f2	-0.017307255
57	0xbb259571	-0.0025266076
58	0xbc26e7a5	-0.010187064
59	0xbbd78832	-0.006577515
60	0xb96fd257	-0.00022871174
61	0xbbc5669a	-0.006024194
62	0x3bc14ef3	0.005899304
63	0x3b5130c8	0.0031919945
64	0xbc243b78	-0.010023944
65	0xbad08937	-0.0015910034
66	0x3c044706	0.008073574
67	0xbc4e7000	-0.012599945
68	0x3c851ae7	0.01624818
69	0x3b493e39	0.0030707254
70	0x3c2418f3	0.010015714
71	0x3bbaad73	0.0056969463
72	0x3baf0398	0.0053410046
73	0x398cbdab	0.00026844195
74	0xbb500e9f	-0.0031746996
75	0xbbb4703f	-0.005506545
76	0x3c44553c	0.011983212
77	0xbb92c803	-0.0044794097
78	0x3ba6f3df	0.0050949897
79	0xbcec2645	-0.028826842
80	0x3b8da66c	0.0043228175
81	0x3c3b8383	0.011444929
82	0x3bd840d8	0.006599527
83	0xbc5fead5	-0.013666828
84	0x3bf1d328	0.007379908
85	0x3aeadc07	0.0017918356
86	0x3c7a61b2	0.015282081
87	0x3c89e069	0.01683064
88	0xb932098c	-0.0001697896
89	0x3c4a73e3	0.012356731
90	0x3b88ad0e	0.0041710204
91	0xb8aa22d3	-8.112718e-05
92	0xbb9d845d	-0.0048070387
93	0xbc231db3	-0.009955811
94	0xbc9903cd	-0.01867857
95	0x3be69255	0.007036487
96	0xbc15e4fb	-0.0091488315
97	0x3c0b7559	0.008511865
98	0x3b3b45f6	0.0028575636
99	0xb9ec806f	-0.00045109118
100	0x3be9f640	0.007139951
101	0xbc75d148	-0.01500351
102	0x3afc8edb	0.0019268648
103	0xbc5a03b5	-0.013306548
104	0xbaf500c2	-0.0018692242
105	0x3c1adebf	0.009452521
106	0x3c0184f8	0.007905237
107	0xbb9c7abf	-0.0047753747
108	0x3b59ef9a	0.0033254386
109	0x392c59d0	0.00016436656
110	0x3bd288d0	0.0064250007
111	0xbc594a47	-0.013262338
112	0xbba0f0c0	-0.004911512
113	0x3c1297fb	0.008947368
114	0xbb898577	-0.0041968185
115	0x3a8198ca	0.0009887454
116	0xbc474b67	-0.012163973
117	0x3c2294f0	0.009923205
118	0xba948b41	-0.0011333005
119	0xbc04931e	-0.008091716
120	0x3bcb370f	0.006201632
121	0xbcb02193	-0.021500384
122	0x3b497a2a	0.0030742981
123	0x3bdeb6e2	0.0067967037
124	0xbbc88913	-0.006119856
125	0x3acc9af6	0.0015610147
126	0xbcb5d163	-0.02219457
127	0x3c8fb712	0.01754335

network_body._body_endoder.seq_layers.0.bias f4 [128]
0	0xbd48a922	-0.048989423
1	0xbdf6df22	-0.12054278
2	0xbd63eb10	-0.055644095
3	0xbe1dea08	-0.15421307
4	0xbdece2fb	-0.115667306
5	0xbe82ad7d	-0.25522986
6	0x3e23188d	0.15927334
7	0xbda2e025	-0.079529084
8	0x3ded982b	0.11601289
9	0x3db59e03	0.08868029
10	0xbd17cc80	-0.03706026
11	0x3dd46935	0.10371629
12	0x3dbbd1a8	0.09170848
13	0x3cc5aaa5	0.024129221
14	0x3df1407c	0.117798775
15	0x3e8fbef8	0.28075385
16	0xbdfc54bf	-0.123208515
17	0xbe70f9a4	-0.2353273
18	0x3e3286bd	0.17434211
19	0xbcfc1c0c	-0.030775093
20	0xbe1a89a4	-0.15091568
21	0xbd738108	-0.059449226
22	0xbe290a0b	-0.16507737
23	0x3c056726	0.008142268
24	0xbd1f2857	-0.03885683
25	0xbba57dee	-0.0050504124
26	0xb9b0abf5	-0.00033697454
27	0xbe33a99f	-0.17545174
28	0x3cbb653e	0.022875424
29	0xbd9370f4	-0.071992785
30	0xbbfb77be	-0.0076741865
31	0xbe1a31be	-0.15058038
32	0xbb0d28ee	-0.0021539289
33	0x3de6597a	0.11247535
34	0xbe453c48	-0.19261277
35	0x3d7dc6d2	0.061957188
36	0xbdab50f4	-0.0836505
37	0xbe2c9925	-0.16855295
38	0x3dd99833	0.10624733
39	0xbded5128	-0.11587745
40	0x3e8cf95a	0.2753399
41	0xbe6e2aae	-0.23258469
42	0xbd7995d3	-0.0609339
43	0x3d69ca29	0.05707756
44	0xbdf606f6	-0.120130464
45	0xbddf288d	-0.10896406
46	0xbdb2f1b1	-0.08737505
47	0xbdc7497c	-0.09730813
48	0x3d6baf49	0.05754021
49	0xbe455f49	-0.1927463
50	0xbe04d10d	-0.12970372
51	0xbe05f0ec	-0.13080186
52	0xbe20823f	-0.15674685
53	0x3c716d22	0.014735492
54	0x3cb4af0b	0.022056123
55	0x3a8305f2	0.0009996279
56	0xbd49f742	-0.04930807
57	0xbe1f983a	-0.15585414
58	0xbd90d843	-0.07072499
59	0xbd6cd6cf	-0.057822045
60	0xbdf8e9b2	-0.12153949
61	0x3cecc937	0.02890454
62	0xbda36b31	-0.079794295
63	0xbe1cfd6f	-0.15331052
64	0xbd83487c	-0.0641031
65	0x3d859f72	0.065245524
66	0x3c7182ff	0.014740705
67	0x3d723003	0.05912782
68	0x3daffd0a	0.08593185
69	0xbcc8b592	-0.024500642
70	0xbd2e398e	-0.042535357
71	0xbd00b639	-0.03142378
72	0x3d07d860	0.033165336
73	0xbe3ec1dd	-0.1862864
74	0xbe0a5c05	-0.13511665
75	0xbdc986e5	-0.09840182
76	0xbda15ecb	-0.078794084
77	0x3dbfff60	0.09374881
78	0xbdf9ef9a	-0.122039035
79	0x3e3cac5f	0.1842513
80	0x3dce6e51	0.10079635
81	0x3d8f82a5	0.0700734
82	0x3d2b1323	0.041766297
83	0x3d145d77	0.036221948
84	0xbe2c92e7	-0.16852914
85	0xbb3de503	-0.0028975613
86	0xbdd20ef2	-0.10256757
87	0xbc2f2138	-0.010689072
88	0x3d82ecfe	0.06392859
89	0x3baa5162	0.00519769
90	0xbdac4772	-0.084120646
91	0x3c8f5ce9	0.017500358
92	0xbc8efc8d	-0.01745441
93	0xbd5a5767	-0.05330601
94	0x3d2137eb	0.03935997
95	0xbe26e8fe	-0.16299817
96	0x3e1b9612	0.15193966
97	0xbdc11a18	-0.09428805
98	0xbdae6c4f	-0.08516752
99	0xbdeca7de	-0.115554556
100	0xbe0392b0	-0.12848926
101	0xbe21b1fe	-0.15790555
102	0x3d2e1ee1	0.042509917
103	0x3e30a6a9	0.17251076
104	0x3da11bd1	0.07866634
105	0xbddd9f40	-0.1082139
106	0xbd8b4386	-0.067999884
107	0xbdbba518	-0.091623485
108	0xbe7f63d9	-0.24940433
109	0x3cf01754	0.029307999
110	0x3e1939bb	0.14963429
111	0xbe3559d3	-0.17710046
112	0xbd866289	-0.06561763
113	0x3cd6bb21	0.026212277
114	0xbcb1d03e	-0.021705743
115	0xbd4d817a	-0.050172307
116	0xbd9f64e4	-0.07782915
117	0xbdf1085c	-0.117691725
118	0x3d6153ef	0.055011686
119	0xbda02580	-0.078196526
120	0xbcdd03a7	-0.02697928
121	0xbd98274d	-0.07429371
122	0x3d5a859c	0.053350076
123	0xbda713bc	-0.08158061
124	0xbcac1fc5	-0.021011243
125	0xbd72ab69	-0.0592455
126	0xbe3f193a	-0.18661967
127	0xbd05c94f	-0.032662686

network_body._body_endoder.seq_layers.0.weight f4 [128, 3]
0	0x3e6b0fe4	0.2295528
1	0xbe23868c	-0.15969294
2	0xbdfdb1cc	-0.12387428
3	0xbf130207	-0.5742497
4	0x3f2aadf7	0.666717
5	0x3f7f91bf	0.99831766
6	0xbf17edb9	-0.5934711
7	0xbf02601c	-0.509279
8	0x3f826cb9	1.018943
9	0xbe9d91ed	-0.30775395
10	0xbe2a350c	-0.16621798
11	0x3f379089	0.7170492
12	0x3f4fbf30	0.81151104
13	0xbe1dba07	-0.15402995
14	0xbf3db606	-0.7410587
15	0xbdcc20dc	-0.09967205
16	0xbf3aa074	-0.7290108
17	0xbf0d8649	-0.5528303
18	0x3f19101b	0.597902
19	0xbeee0e36	-0.46495217
20	0xbde7c02c	-0.11315951
21	0xbde21b9e	-0.11040424
22	0xbe0e2ec8	-0.13885033
23	0x3e4b44e9	0.19850506
24	0x3f2a64fb	0.66560334
25	0xbee196b1	-0.4406028
26	0x3ed61e7c	0.41820133
27	0xbd46985b	-0.04848514
28	0x3f160874	0.5860665
29	0x3d3a4a97	0.04548129
30	0xbe9fa674	-0.3118168
31	0xbf418209	-0.7558904
32	0x3f77e8b2	0.9683944
33	0xbf9f96be	-1.2467878
34	0x3e7b9167	0.24567185
35	0xbf8ffa3c	-1.124824
36	0xbf0420e2	-0.51612675
37	0x3f1544cb	0.58308095
38	0x3ed03cb7	0.40671322
39	0xbf6101e8	-0.87893534
40	0xbe602516	-0.21889147
41	0xbe46af4f	-0.19402812
42	0xbf5962cf	-0.84916395
43	0x3e8a4ba9	0.2701085
44	0xbf0c95da	-0.54916155
45	0xbf6a2069	-0.91455704
46	0x3f3ff352	0.7498065
47	0x3d061b69	0.032740984
48	0x3f7cda19	0.9877029
49	0x3e18f191	0.149359
50	0x3e6d42ce	0.23170015
51	0x3e5070ee	0.2035558
52	0xbf2197bc	-0.63122153
53	0xbefc7baa	-0.49313098
54	0xbf39d130	-0.7258482
55	0x3f5dff92	0.86718094
56	0x3e0d0fc8	0.13775551
57	0x3db4b7a3	0.088240884
58	0xbf458758	-0.77159643
59	0xbf1182b5	-0.5684007
60	0x3f080892	0.5313808
61	0x3dbc8c86	0.0920649
62	0x3f3d492d	0.7393978
63	0xbe2fc05d	-0.17163225
64	0x3efb8eb7	0.4913232
65	0x3eba841d	0.3642892
66	0xbdc7cd96	-0.09756009
67	0x3ef82ad7	0.48470184
68	0x3fac1f4c	1.3447051
69	0x3e445ec9	0.19176783
70	0xbf2787fc	-0.6544187
71	0x3dd4e25a	0.10394736
72	0xbe66e2b7	-0.22547422
73	0xbf2db8f0	-0.6786032
74	0x3eac92d0	0.3370576
75	0xbe062a15	-0.1310199
76	0x3f86b35c	1.0523486
77	0x3f05d67d	0.5228041
78	0xbd86d57f	-0.0658369
79	0x3ea20908	0.31647515
80	0xbdef70e0	-0.11691451
81	0x3c66180a	0.014043817
82	0xbf778985	-0.96694213
83	0xbf3cc41f	-0.7373676
84	0x3f5732f0	0.840621
85	0xbef46d64	-0.47739708
86	0xbec8f812	-0.39251763
87	0xbc9aa722	-0.018878523
88	0xbed3b3e2	-0.41348177
89	0x3ed6039e	0.41799635
90	0xbf646114	-0.8921063
91	0x3e92e49a	0.28690034
92	0xbdf7c97a	-0.120989755
93	0x3d749d49	0.05972031
94	0xbddbf5cc	-0.107402414
95	0x3e97b2b7	0.29628536
96	0x3e59dcc7	0.21275626
97	0xbee6e86f	-0.45099208
98	0xbe6254ac	-0.22102612
99	0xbf147aa3	-0.5799963
100	0x3e8e7530	0.27823782
101	0xbeaa3a17	-0.33247444
102	0x3e4ea1f6	0.2017897
103	0x3f25eb6a	0.6481234
104	0xbf0c19be	-0.5472678
105	0xbe8b2dcf	-0.27183387
106	0x3e45f545	0.19331844
107	0x3d80c167	0.062868886
108	0x3deb9f23	0.11504962
109	0xbf44cfdd	-0.76879674
110	0x3e06ab31	0.13151242
111	0xbe92e46f	-0.28689906
112	0xbc4fe191	-0.012688057
113	0x3f111939	0.5667911
114	0xbedba13c	-0.4289645
115	0x3e66bf04	0.22533804
116	0xbf169a22	-0.5882894
117	0x3f311176	0.6916727
118	0xbe2dd596	-0.16976008
119	0xbeb941cd	-0.36183015
120	0xbf55e28d	-0.83548814
121	0x3f627103	0.8845369
122	0xbe19aac3	-0.15006547
123	0x3e6e9cdb	0.23302023
124	0x3d301a5b	0.042993885
125	0xbf46689d	-0.7750338
126	0xbe44d5ed	-0.19222231
127	0xbdda70cf	-0.10666048
128	0x3ebfbba7	0.37447855
129	0x3ec84425	0.3911449
130	0xbf2910a9	-0.66041046
131	0xbdc29896	-0.0950176
132	0xbe3458ae	-0.17611954
133	0xbf092497	-0.53571457
134	0xbee2e68c	-0.44316518
135	0x3eeb251e	0.45926756
136	0x3dc3b376	0.09555714
137	0xbcdcbb20	-0.026944697
138	0xbe9ffa48	-0.31245637
139	0x3f0cd109	0.5500646
140	0x3f87f12a	1.0620472
141	0x3ec9f970	0.39448118
142	0x3f1593f6	0.58428895
143	0xbf7bd2ef	-0.98368734
144	0x3f9d826e	1.2305429
145	0xbf91a97b	-1.1379846
146	0xbf450b65	-0.7697051
147	0x3e99389f	0.2992601
148	0x3e2b1abf	0.16709422
149	0xbefafb40	-0.49019814
150	0x3f70d195	0.94069797
151	0xbe3da7d1	-0.18521048
152	0xbf817c44	-1.0116048
153	0x3e663f36	0.2248505
154	0xbd38c78a	-0.04511217
155	0x3f3c14ec	0.73469424
156	0xbd4863a5	-0.048923153
157	0x3e433886	0.1906453
158	0x3ef46a70	0.47737455
159	0xbeb9620c	-0.36207616
160	0xbf3f01bc	-0.7461202
161	0x3f292a00	0.6607971
162	0xbeff3008	-0.49841332
163	0x3f042960	0.51625633
164	0xbf049166	-0.5178436
165	0x3c8753dc	0.01651948
166	0x3f63e977	0.89028114
167	0xbf3490df	-0.70533556
168	0xbd428a08	-0.047494918
169	0xbe8f7b41	-0.28023723
170	0x3e849e9d	0.25902262
171	0x3eaf1c40	0.3420124
172	0x3c556b00	0.013025999
173	0xbf2f4d88	-0.6847768
174	0x3c03eb71	0.008051739
175	0xbb919901	-0.0044432883
176	0xbc187e76	-0.009307494
177	0xbe9d27bf	-0.30694386
178	0x3ec4917d	0.3839225
179	0xbf267c6a	-0.6503359
180	0xbdad4291	-0.08459962
181	0x3e8633c4	0.2621137
182	0x3f28f46a	0.65997946
183	0x3ea2b715	0.31780306
184	0xbf80c87e	-1.0061185
185	0x3cd651aa	0.026161987
186	0x3eb8674b	0.36016306
187	0x3e008cd5	0.12553723
188	0xbe93afb3	-0.28844985
189	0xbeca49dc	-0.39509475
190	0xbf3aa5d1	-0.72909266
191	0x3f117011	0.56811625
192	0x3f673f43	0.90330905
193	0xbbac9ab5	-0.005267466
194	0xbee0bb17	-0.43892738
195	0xbf0df3e4	-0.5545027
196	0xbd4c425f	-0.049867984
197	0xbe850649	-0.25981358
198	0xbea92714	-0.33037627
199	0xbe470ad6	-0.19437727
200	0xbe8f020f	-0.27931258
201	0x3ec46a24	0.3836223
202	0xbdb3e9e7	-0.08784848
203	0xbfc302ee	-1.5235269
204	0x3ee664ab	0.4499868
205	0xbf82f7d4	-1.0231881
206	0xbe61c25d	-0.220468
207	0xbbc64a32	-0.0060513252
208	0xbe2c403f	-0.16821383
209	0x3f0b0604	0.54306054
210	0x3ee7b9cb	0.45258936
211	0xbe1bf5d9	-0.15230502
212	0xbd4b4743	-0.049628507
213	0xbf522e71	-0.82102114
214	0xbef6cc56	-0.4820277
215	0x3ea6858c	0.32523763
216	0x3f3101c9	0.6914335
217	0xbef84a7c	-0.48494327
218	0x3f6c7340	0.9236336
219	0x3e3248ce	0.17410585
220	0xbc1d95fd	-0.0096182795
221	0x3e6e85b8	0.23293197
222	0x3f78029c	0.9687898
223	0x3d814773	0.06312456
224	0xbf0d39a5	-0.55166084
225	0x3f32c487	0.69831127
226	0xbe772442	-0.24134925
227	0xbdbbf73d	-0.09178016
228	0x3bd0eada	0.0063756527
229	0xbe6c2a81	-0.23063089
230	0x3f8e4527	1.1114854
231	0xbf9df209	-1.2339488
232	0x3ed7cf10	0.42150164
233	0xbc187275	-0.009304632
234	0x3e034639	0.12819757
235	0x3eb60f07	0.3555834
236	0x3bc1b396	0.005911301
237	0xbf20e282	-0.62845623
238	0x3eee93b0	0.46597052
239	0xbed81625	-0.42204395
240	0xbf1f3962	-0.62196934
241	0x3e1e6f9b	0.15472262
242	0xbd2681f8	-0.04065129
243	0xbe1e7891	-0.1547568
244	0x3d228931	0.039681617
245	0xbe86959f	-0.26286027
246	0x3eb7ad02	0.35874182
247	0xbfa263ae	-1.268667
248	0xbd141317	-0.036151018
249	0x3e3db054	0.18524295
250	0xbf0876c3	-0.53306216
251	0x3e2abf42	0.16674522
252	0x3ddce1bd	0.10785244
253	0xbc862747	-0.01637615
254	0xbe710656	-0.23537573
255	0xbece512a	-0.40296298

network_body._body_endoder.seq_layers.2.bias f4 [128]
0	0xbd8628cc	-0.0655075
1	0xbdafaabd	-0.085774876
2	0xbd1e528b	-0.038652938
3	0xbdf649cb	-0.12025794
4	0x3d03df50	0.03219539
5	0xbd85f11c	-0.065401286
6	0x3e01d65e	0.12679431
7	0x3ce63052	0.028099213
8	0xbd1675e8	-0.036733538
9	0xbd3580ec	-0.044312403
10	0xbd569e05	-0.052396793
11	0xbdb57d5f	-0.08861803
12	0xbdddd1cd	-0.10831032
13	0x3d4f1b2d	0.050563026
14	0x3c9abe08	0.018889442
15	0xbd45bd24	-0.04827608
16	0x3be865aa	0.0070921974
17	0xbd4ca0b0	-0.04995793
18	0xbdf4e720	-0.11958146
19	0x3d797bd6	0.060909115
20	0xbcf082fd	-0.029359335
21	0x3d9988be	0.074967846
22	0x3d2d905f	0.04237401
23	0xbe13dfc9	-0.14440836
24	0xbd0afb6f	-0.033931192
25	0xbd93b645	-0.072124995
26	0x3e22011b	0.15820734
27	0x3ddb85ca	0.107188776
28	0x3d755ec7	0.05990484
29	0xb92a65b2	-0.00016250348
30	0xbd4d2b91	-0.050090376
31	0x3e0d67e6	0.13809165
32	0xbd9e619f	-0.077334635
33	0xb8698324	-5.5673663e-05
34	0xbd6c8eea	-0.05775348
35	0x3cb24661	0.021762075
36	0x3e5dfdae	0.21678802
37	0x3d3b5ddd	0.045743812
38	0xba21cad8	-0.00061718887
39	0xbc10a5ed	-0.008828622
40	0xbdc1d9f6	-0.09465401
41	0x3da730e8	0.08163625
42	0x3a226179	0.0006194334
43	0xbcec9127	-0.028877808
44	0x3dfc14b5	0.12308637
45	0x3da73214	0.081638485
46	0x3d88d863	0.066818975
47	0xbe090e1c	-0.13384289
48	0xbd03d13f	-0.032181975
49	0x3d78ad99	0.06071243
50	0xbd06edf6	-0.03294178
51	0xbdda6664	-0.10664061
52	0x3d7295bd	0.059224833
53	0xbd49b280	-0.049242496
54	0xbc0ba58f	-0.008523359
55	0xbdaf60c6	-0.0856338
56	0x3c4fd1a2	0.012684258
57	0xbc9d3589	-0.019190567
58	0xbd58892a	-0.052865185
59	0x3e078a88	0.13236439
60	0xbd8f4074	-0.06994715
61	0x3d9a14b4	0.0752348
62	0x3d57434d	0.052554417
63	0xbe300868	-0.17190707
64	0x3d02bc8e	0.0319181
65	0xbb4f977b	-0.0031675983
66	0xbd354801	-0.04425812
67	0x3b2253e9	0.0024769253
68	0x3bd3a132	0.006458425
69	0xbc82103d	-0.015876884
70	0x3d6cf4b9	0.057850573
71	0xbc58c13e	-0.013229666
72	0x3d409a86	0.047022365
73	0xbd0894d3	-0.033345055
74	0x3d916b5d	0.07100556
75	0xbc6a1e84	-0.014289502
76	0x3da8276a	0.08210643
77	0x3e2eb91e	0.17062804
78	0x3d93d652	0.07218613
79	0x3de22c09	0.11043555
80	0xbd953eb6	-0.07287352
81	0xbd2d8c17	-0.04236993
82	0xbdaebba0	-0.085318804
83	0xbd670dc1	-0.0564096
84	0x3d421910	0.047387183
85	0xbd00b4e1	-0.0314225
86	0xbcd7fbd8	-0.026365206
87	0x3da185b7	0.07886832
88	0xbd0d3aee	-0.034480028
89	0x3cae8039	0.021301376
90	0xbd33e71c	-0.043921575
91	0x3c8de747	0.017322196
92	0xbceddecc	-0.029036902
93	0xbe138960	-0.14407873
94	0xbdcfc8e1	-0.101457365
95	0xbd38170d	-0.044943858
96	0x3b7f9b14	0.0039002346
97	0xbcf2943a	-0.029611696
98	0x3dd9723c	0.106174916
99	0x3ba3bb93	0.004996726
100	0xbd07abbf	-0.033122774
101	0xbb329697	-0.0027250403
102	0xbbcb2bec	-0.0062003043
103	0x3dba82be	0.09106968
104	0xbd676dfe	-0.05650138
105	0xbde65da5	-0.1124833
106	0x3cd27f68	0.025695518
107	0x3d46461c	0.048406705
108	0xbd10370b	-0.035208743
109	0xbd58991f	-0.052880403
110	0x3d2f0776	0.042731725
111	0xbcac55be	-0.021036979
112	0xbdfa99a6	-0.12236337
113	0x3c0b0ba5	0.008486663
114	0xbd733173	-0.05937333
115	0x3e31e083	0.173708
116	0xbdc7c8b3	-0.09755077
117	0x3dab08d8	0.08351296
118	0x3d46dd3b	0.048550826
119	0xbd9aac6f	-0.0755242
120	0x3e2e1205	0.16999061
121	0x3d9ffff9	0.07812495
122	0x3ca58182	0.020203356
123	0x3d1b417b	0.037904244
124	0xbdb34929	-0.087541886
125	0xbd72549f	-0.059162732
126	0x3cf5308b	0.029930374
127	0x3d9eb993	0.07750239

network_body._body_endoder.seq_layers.2.weight f4 [128, 128]
0	0xbd85a01a	-0.065246776
1	0xbdab0bc7	-0.08351856
2	0xbcfb2e09	-0.0306616
3	0x3b384f78	0.002812354
4	0xbd913e56	-0.07091968
5	0x3e09e9bb	0.13468067
6	0xbd5b5c10	-0.053554595
7	0x3d8886c0	0.066663265
8	0xbd64eaed	-0.055888105
9	0xbde5d17c	-0.112215966
10	0xbdbcf3b0	-0.09226167
11	0xbe0f94ef	-0.14021657
12	0xbd6af184	-0.057359233
13	0x3d9008f6	0.07032959
14	0x3d086552	0.03329975
15	0xbdf6e4dc	-0.1205537
16	0xbe9e91ff	-0.3097076
17	0xbdde7ac4	-0.108632594
18	0xbdbf81fc	-0.093509644
19	0xbd43b876	-0.047783338
20	0xbe800ebc	-0.2501124
21	0x3d0e1b6b	0.034694117
22	0xbe8b1315	-0.27162996
23	0xbe0d53d8	-0.13801515
24	0xbe2535ba	-0.16133776
25	0xbd19f394	-0.03758581
26	0x3d2198c3	0.039452326
27	0x3d66a433	0.056308936
28	0x3e0a9c2b	0.13536136
29	0xbdcd73ca	-0.10031851
30	0xbd87ef67	-0.06637459
31	0xbe6271e0	-0.22113752
32	0xbc85d4dc	-0.01633685
33	0xbe1ed7bb	-0.15511982
34	0xbda98d76	-0.08278935
35	0xbde999a1	-0.114062555
36	0x3dc572a7	0.09641009
37	0xbdb57811	-0.088607915
38	0x3dd1c850	0.10243285
39	0xbb491f94	-0.0030688988
40	0x3d930d6a	0.07180293
41	0xbddb8c02	-0.10720064
42	0xbba7413a	-0.005104211
43	0xbbfdb4f1	-0.007742517
44	0xbc5a3a9e	-0.0133196395
45	0xbe5c6dd4	-0.21526271
46	0xbe48e5c8	-0.19618905
47	0x3daa7ab0	0.08324182
48	0xbd8c5821	-0.06852747
49	0x3bc0760c	0.0058734473
50	0x3b86a588	0.0041090883
51	0x3c95ee81	0.018302204
52	0xbe340d9c	-0.17583317
53	0xbe153caf	-0.1457393
54	0xbda37b2d	-0.07982478
55	0xbe04b9c6	-0.12961492
56	0xbd8ef63e	-0.06980561
57	0xbde74e6e	-0.11294256
58	0xbde11eb5	-0.10992185
59	0xbe2e30b1	-0.17010762
60	0xbd2ccf46	-0.04218986
61	0xbda516b6	-0.080609724
62	0xbd4f217e	-0.05056905
63	0x3d7562d2	0.059908696
64	0xbe74a733	-0.23891906
65	0x3d9430f4	0.072358996
66	0xbcf8ed09	-0.030386465
67	0xbe2dc6e3	-0.169704
68	0xbd3c9dbb	-0.04604886
69	0xbdcc3132	-0.09970321
70	0x3cf35b1f	0.029706536
71	0xbc1ae56f	-0.009454115
72	0xbdac13b7	-0.08402198
73	0xbe001e30	-0.12511516
74	0xbc976594	-0.018481053
75	0xbe330587	-0.17482577
76	0xbd70432e	-0.058657818
77	0xbde432cf	-0.111425035
78	0xbe17b4fa	-0.14815131
79	0x3d93702f	0.07199132
80	0x3dbd367a	0.09238906
81	0xbdc476fb	-0.09593006
82	0xbd76bb4d	-0.060237218
83	0xba9067d7	-0.0011017275
84	0xbda018be	-0.07817219
85	0x3c65ecbd	0.014033494
86	0xbd90a035	-0.07061807
87	0xbde95bee	-0.11394487
88	0xbdbc6857	-0.09199589
89	0xbddd9331	-0.1081909
90	0xbd51997f	-0.051171776
91	0xbe040d44	-0.12895685
92	0xbbcc51c4	-0.006235333
93	0xbe552f2b	-0.20818774
94	0xbcdee4f5	-0.027208785
95	0x3e18820a	0.14893356
96	0xbe064085	-0.1311055
97	0xbd527f2c	-0.05139081
98	0x3c8123d4	0.015764154
99	0xbe1bc8a8	-0.15213263
100	0xbce6f806	-0.028194439
101	0xbe896dbd	-0.26841536
102	0xbdfeb1d7	-0.12436264
103	0x3d77878d	0.060432006
104	0x3d5abe91	0.053404395
105	0xbdda3bf6	-0.10655968
106	0xbce5f934	-0.02807293
107	0x3e04e123	0.12976508
108	0xbdaa6056	-0.08319156
109	0x3c8d801c	0.017273001
110	0xbd5aff0e	-0.053465895
111	0x3d734929	0.059395943
112	0xbd88d502	-0.06681253
113	0xbcc1e2de	-0.023667749
114	0xbd9d84cb	-0.07691344
115	0x3d2965da	0.0413569
116	0x3b6ae87d	0.003584414
117	0xbe2925e9	-0.16518368
118	0xbd9367ab	-0.071975075
119	0xbe31fbf6	-0.17381272
120	0x3d853c62	0.06505658
121	0x3d88df7c	0.06683251
122	0xbdd18f54	-0.10232416
123	0xbde9a5f5	-0.11408607
124	0xbdafe63e	-0.08588837
125	0xbde45f4c	-0.11150989
126	0x3a60b803	0.0008572342
127	0xbe45c526	-0.19313487
128	0xbe3c64d8	-0.18397844
129	0x3d239b10	0.0399428
130	0xbdfd2ebc	-0.123624295
131	0xbdeb945d	-0.115029074
132	0x3d335f21	0.043791894
133	0x3dea918c	0.11453542
134	0x3d092839	0.033485625
135	0x3e090b8f	0.13383316
136	0xbd62b681	-0.05534983
137	0x3d6ce5e6	0.057836436
138	0xbe3a0886	-0.18167314
139	0xbd959f0e	-0.07305728
140	0x3cfa95c3	0.03058899
141	0x3da52792	0.08064188
142	0x3d56e556	0.052464806
143	0x3dd8cdae	0.10586105
144	0xbdafb236	-0.08578913
145	0xbd0a9bb4	-0.033839896
146	0x3e2f56e3	0.17122988
147	0xbe1c19b1	-0.15244175
148	0xbca8c9d3	-0.02060405
149	0xbdbd6aec	-0.09248909
150	0xbd72a5f9	-0.059240315
151	0x3df37ca0	0.11889005
152	0x3db03841	0.086044796
153	0xbe029f4a	-0.12756076
154	0x3d0a6226	0.033785008
155	0xbdb23070	-0.08700645
156	0x3ddc3eb1	0.10754145
157	0x3d5bbfcf	0.05364972
158	0xbca3474b	-0.019931456
159	0x3d0f974f	0.03505641
160	0xbdf10a00	-0.117694855
161	0x3b270a8e	0.0025488469
162	0x3ba51635	0.0050380477
163	0x3b26979a	0.0025419951
164	0x3d9d0968	0.0766781
165	0x39f9e5b2	0.00047664117
166	0x3e781933	0.24228363
167	0xbd33145a	-0.04372058
168	0x3dd14fc7	0.102202944
169	0x3e19504c	0.14972037
170	0x3daca8dc	0.08430645
171	0xbe792f5c	-0.24334472
172	0xbd062f96	-0.032760225
173	0x3e26c02f	0.1628425
174	0x3dab91d3	0.08377423
175	0xbd9c3221	-0.07626749
176	0xbd981703	-0.07426264
177	0x3d9373d1	0.071998246
178	0xbe7e632f	-0.24842523
179	0x3e0257f1	0.1272886
180	0xbe1697c1	-0.14706327
181	0xbd4f9c6c	-0.050686285
182	0xbe42294a	-0.18961063
183	0x3d1e9ecc	0.03872566
184	0x3d573ae5	0.0525464
185	0x3c94c719	0.018161343
186	0xbd277228	-0.040880352
187	0xbd9ae595	-0.075633205
188	0xbd627f56	-0.05529722
189	0xbe186d5d	-0.14885469
190	0xbda3e457	-0.08002537
191	0x3e30979c	0.17245334
192	0xbe3a1841	-0.18173315
193	0xbd7af48e	-0.06126838
194	0xbd74c8b8	-0.059761733
195	0xbd936533	-0.071970366
196	0xbd2500ec	-0.040284082
197	0xbdeeecab	-0.116662346
198	0x3cb69133	0.022286033
199	0x3d59a46f	0.05313533
200	0xbe63648c	-0.22206324
201	0xbd919132	-0.07107772
202	0xbdd447ce	-0.10365258
203	0x3c883668	0.016627505
204	0x3ca7bbd6	0.02047531
205	0x3d6fc291	0.058535162
206	0xbe20c750	-0.15701032
207	0x3b92d410	0.004480846
208	0xbe4e355e	-0.20137545
209	0x3d092b40	0.033488512
210	0xbe1770f8	-0.14789188
211	0x3cd0eb3b	0.025502792
212	0x3da14f00	0.07876396
213	0x3cbc9a73	0.023022866
214	0x3e55715e	0.20844027
215	0x3d2a7af9	0.041621182
216	0x3de48ff7	0.111602716
217	0x3d781aed	0.060572553
218	0xbc711d93	-0.014716524
219	0xbdb60b3d	-0.08888862
220	0x3d2ab68f	0.041678008
221	0x3cc81229	0.024422722
222	0xbd4adbf2	-0.049526162
223	0xbe0dffc9	-0.13867106
224	0x3d0a844d	0.033817578
225	0xbe34158e	-0.17586347
226	0x3e4fec56	0.20304999
227	0xbdcfaaaa	-0.101399735
228	0x3d6ebc43	0.05828501
229	0x3d607184	0.054795757
230	0xbe29acda	-0.16569844
231	0xbc753a09	-0.01496745
232	0x3d0c5239	0.0342581
233	0x3e06e3e3	0.1317287
234	0xbccd3852	-0.02505127
235	0x3ced6ab7	0.02898155
236	0x3cb5644e	0.022142556
237	0xbd16b3ab	-0.03679244
238	0x3e2d5a8e	0.16929075
239	0x3dbdba4a	0.092640474
240	0x3e16a923	0.14712958
241	0xbe1a2119	-0.15051688
242	0xbd1c100c	-0.03810124
243	0x3cee0423	0.029054707
244	0x3d00a6a0	0.031408906
245	0xbd06a51f	-0.032872315
246	0x3debb965	0.115099706
247	0x3d321067	0.043472674
248	0x3d65ba06	0.05608561
249	0xbe371362	-0.17878488
250	0xbda32fcc	-0.07968101
251	0xbc562f73	-0.013072836
252	0x3d40c50b	0.047062915
253	0x3e39841c	0.18116802
254	0xbcb08085	-0.021545658
255	0x3d9e019a	0.07715149
