Project/Assets/BrickBreaker/BrickBreaker_smarter.onnx (onnx, 72321 bytes, 6 tensors)

action_model._continuous_distribution.mu.weight f4 [1, 128]
00000000: e416 eb3b e86e c439 1acb 0fbc 4808 92bc
00000010: 632d 7e3d 11da e13c 2462 99bd 0aa3 1b3d
00000020: 15aa d5bb bbfc bd3c 5ed1 ea3c 1a95 613d
00000030: 6281 febb f311 773d 0e45 953d 86ed f93c
00000040: aa7d 46bb 92e4 ec3b 50c1 e73c 2510 d43c
00000050: d2d4 0e3c dcf4 7abc 024c 4fbc 10cf e33b
00000060: e5dd 04bb 52b6 0d3d bbf7 06bd 77d3 85bc
00000070: bc20 99bd 4607 8b3d 5402 b43d 2eb3 20bd
00000080: 0d7f bfbc b49f 503d 30c5 b53c cfe8 e43b
00000090: a77e 82bd 7f60 41bd e654 5cbc e7cc 6d3d
000000a0: 9576 f53c 56b4 3cbc bb6a 1e3c e19d 703c
000000b0: 48e3 22bd 9d82 bbbc 511a eabb 614f 233d
000000c0: 18ea 163d 76e4 dfbc d5de 053d d48f 2a3c
000000d0: ebae 1dbb 4de9 06bd c759 773a a36d 5dbd
000000e0: 0b75 ff3c 3182 9bbc 2aee 843d 7ae8 1dbd
000000f0: 8cb8 01bd eae0 bdbc 0b0b a4bb 1d8a 5c3c
00000100: 88dc 193d c89d a8bd a745 313a 0eec 763d
00000110: 60e0 1e3c ba5e 3e3d 5672 84bc 7db3 bb3c
00000120: 6cc2 98bc d429 cebc 5daa d93c 4ab0 8e3c
00000130: cc64 65bd 7190 1dbd 7544 243d d1c0 e2bc
00000140: f578 a6bc f0f8 5b3d f0ce c53c d557 9dbd
00000150: 2fbe c5bc dd47 9e3c 011d 5f3d 8fb1 2cbc
00000160: ca8e b9bc 786c 0b3d 8e23 1c3d 74f7 5c3d
00000170: 201f 1b3d 31fd 223b 4dd2 c73a 25dc c2bc
00000180: c523 a6bc b1d4 e23c 4308 c7bd aa4a 11bd
00000190: 4fbe 8a3d c003 803d 107f 55bc f34c 923d
000001a0: d163 72bb 7815 65bc a5a1 8abd 1a46 983d
000001b0: 5266 f33c f3a1 033b 5200 a93d 81c6 0b3e
000001c0: 6e0d 9f3c ce22 9d3d f243 32ba 12a8 80bd
000001d0: 2ae6 3e3e 912a 7fbd d31b 693d 65c4 5bbc
000001e0: 0d55 25bd f59b 5f3c 511d 613c aecc 433d
000001f0: 1ab0 cf3c b925 583d 2930 8e3d faf5 7d3d
0.0071743596 0.00037466665 -0.0087764505 -0.017826214 0.062055003 0.027569802 -0.07489422 0.037997283
-0.0065205195 0.0231918 0.028664287 0.055073835 -0.0077668885 0.060319852 0.07288562 0.030508768
-0.0030287304 0.007229396 0.02829042 0.025886605 0.0087177325 -0.015317168 -0.012652399 0.006952174
-0.002027386 0.034597702 -0.032951098 -0.016336186 -0.07476947 0.06788497 0.087895066 -0.03923338
-0.023376012 0.050933555 0.022188753 0.0069857608 -0.06371813 -0.047211166 -0.013447976 0.05805674
0.02996377 -0.011517605 0.009669001 0.014686079 -0.039767534 -0.02288943 -0.0071442504 0.039870623
0.036844343 -0.027330618 0.032683212 0.010410268 -0.0024060558 -0.032937337 0.000943568 -0.054059636
0.03118374 -0.018982979 0.06490739 -0.038551785 -0.03167014 -0.023178536 -0.0050061992 0.013460663
0.03756383 -0.082332194 0.0006762393 0.060283713 0.00969705 0.046477057 -0.0161678 0.022912735
-0.018647395 -0.02516643 0.026570493 0.017418046 -0.05600433 -0.03846783 0.04010435 -0.027679833
-0.020321349 0.053704202 0.024146527 -0.07682768 -0.024138538 0.019321376 0.05447102 -0.01054038
-0.022651095 0.03403899 0.038119845 0.053946927 0.03787148 0.0024870152 0.001524517 -0.023786614
-0.020280728 0.02768931 -0.09718373 -0.035471596 0.0677458 0.06250715 -0.013030782 0.07143583
-0.0036985765 -0.013982169 -0.067691125 0.07435246 0.029711876 0.0020085543 0.08252014 0.13649942
0.019415583 0.07672654 -0.0006800286 -0.06282057 0.18642488 -0.062296454 0.0569113 -0.013413523
-0.040364314 0.013648023 0.0137399 0.04780262 0.025352526 0.05277035 0.069427796 0.06200216

action_model._discrete_distribution.branches.0.weight f4 [1, 128]
00000000: 7334 3bbc e8c0 66bc 8434 b63b 8ffe 053c
00000010: 9381 ab3b ca36 523c e177 02bb 77e9 33bc
00000020: 7bc5 243c d85e 22bc dccf 08bc 1d4e fcbb
00000030: df77 5d3b 7b90 b03b 9a3c 50bc c97c 1e3c
00000040: 224a 463c 6803 2c3c 87ed 37bc bfd6 0ebb
00000050: 4a07 52bb 65d6 7a3c ad26 37bc 13e3 063c
00000060: e762 813b c761 b93b 0533 c73b 8680 25bc
00000070: 5f34 edba 2d3e d5bb 8954 093b c681 c33a
00000080: a687 093c 0d00 4e3b f1ab b53b 636c debb
00000090: 9dd4 11bc 1a9d 083b 0f23 aebb 4ebd 4bbb
000000a0: a731 ae3b d2b6 e0bb d2ca efbb cf1b 58bb
000000b0: 17bf 973b 6af3 683c 686c 633a 9840 e23c
000000c0: a50a a1bc 4bf0 dabb 529e 213c 9331 87ba
000000d0: 74c6 0cbc 6ab9 dd3b c38e f83b 1b8c 8cba
000000e0: f2c7 8dbc 7195 25bb a5e7 26bc 3288 d7bb
000000f0: 57d2 6fb9 9a66 c5bb f34e c13b c830 513b
00000100: 783b 24bc 3789 d0ba 0647 043c 0070 4ebc
00000110: e71a 853c 393e 493b f318 243c 73ad ba3b
00000120: 9803 af3b abbd 8c39 9f0e 50bb 3f70 b4bb
00000130: 3c55 443c 03c8 92bb dff3 a63b 4526 ecbc
00000140: 6ca6 8d3b 8383 3b3c d840 d83b d5ea 5fbc
00000150: 28d3 f13b 07dc ea3a b261 7a3c 69e0 893c
00000160: 8c09 32b9 e373 4a3c 0ead 883b d322 aab8
00000170: 5d84 9dbb b31d 23bc cd03 99bc 5592 e63b
00000180: fbe4 15bc 5975 0b3c f645 3b3b 6f80 ecb9
00000190: 40f6 e93b 48d1 75bc db8e fc3a b503 5abc
000001a0: c200 f5ba bfde 1a3c f884 013c bf7a 9cbb
000001b0: 9aef 593b d059 2c39 d088 d23b 474a 59bc
000001c0: c0f0 a0bb fb97 123c 7785 89bb ca98 813a
000001d0: 674b 47bc f094 223c 418b 94ba 1e93 04bc
000001e0: 0f37 cb3b 9321 b0bc 2a7a 493b e2b6 de3b
000001f0: 1389 c8bb f69a cc3a 63d1 b5bc 12b7 8f3c
-0.011426079 -0.014084078 0.0055604596 0.008178367 0.0052339523 0.012830446 -0.001990788 -0.010980955
0.010056849 -0.009910308 -0.008350339 -0.0076997415 0.0033793373 0.005388317 -0.012709761 0.009673306
0.012102636 0.010498859 -0.0112260645 -0.002179548 -0.0032047802 0.015309905 -0.011178655 0.00823285
0.0039485577 0.005657408 0.00607908 -0.010101443 -0.0018097273 -0.006507656 0.0020954928 0.0014915995
0.0083941575 0.0031433136 0.0055441787 -0.006787823 -0.008900789 0.0020845593 -0.005314238 -0.0031088176
0.0053159776 -0.0068577314 -0.0073178792 -0.003297556 0.004630934 0.014218191 0.00086755166 0.027618691
-0.019658396 -0.006681477 0.009864407 -0.0010314457 -0.008592237 0.006766488 0.007585378 -0.0010722907
-0.017307255 -0.0025266076 -0.010187064 -0.006577515 -0.00022871174 -0.006024194 0.005899304 0.0031919945
-0.010023944 -0.0015910034 0.008073574 -0.012599945 0.01624818 0.0030707254 0.010015714 0.0056969463
0.0053410046 0.00026844195 -0.0031746996 -0.005506545 0.011983212 -0.0044794097 0.0050949897 -0.028826842
0.0043228175 0.011444929 0.006599527 -0.013666828 0.007379908 0.0017918356 0.015282081 0.01683064
-0.0001697896 0.012356731 0.0041710204 -8.112718e-05 -0.0048070387 -0.009955811 -0.01867857 0.007036487
-0.0091488315 0.008511865 0.0028575636 -0.00045109118 0.007139951 -0.01500351 0.0019268648 -0.013306548
-0.0018692242 0.009452521 0.007905237 -0.0047753747 0.0033254386 0.00016436656 0.0064250007 -0.013262338
-0.004911512 0.008947368 -0.0041968185 0.0009887454 -0.012163973 0.009923205 -0.0011333005 -0.008091716
0.006201632 -0.021500384 0.0030742981 0.0067967037 -0.006119856 0.0015610147 -0.02219457 0.01754335

network_body._body_endoder.seq_layers.0.bias f4 [128]
00000000: 21b7 3fbd 175e ecbd 9f2a 37bd 61b1 1bbe
00000010: f56c f5bd 334d 80be f578 243e 5720 9dbd
00000020: b85a e93d f695 bb3d ef76 28bd 880c ce3d
00000030: 18a3 b83d 6a2e a63c 6ff3 e73d 7230 8f3e
00000040: cddf febd 2a85 69be debd 333e 0fdd e3bc
00000050: 5f82 16be fb55 67bd 6137 1fbe 9b8a 593c
00000060: 288f 04bd f647 14bc 2da1 cd3b 8941 33be
00000070: 5c68 ba3c 15e7 80bd 0ef7 3cbc 8ff9 16be
00000080: 0898 fdba f633 df3d d416 38be bc07 783d
00000090: 76be a5bd c031 2cbe 6d1a d33d 6bdd fbbd
000000a0: c84c 8b3e a88d 6bbe 7104 62bd def6 773d
000000b0: 3e35 02be a93d d8bd af11 acbd 4eb6 bbbd
000000c0: ad76 6e3d 62aa 3bbe 6e55 01be c970 06be
000000d0: f5c4 19be 88b9 a73c a21b 793c ea4a c43b
000000e0: 706e 2abd 322f 20be 5a8a 9abd 0117 82bd
000000f0: 6c72 e4bd a744 0a3d 74b4 9fbd 321a 16be
00000100: 1ffa 8dbd b04a 883d c38c 903c 92af 4b3d
00000110: 54a9 b23d cc81 b7bc b1f0 27bd c8cb 18bd
00000120: 3359 083d aa7f 37be 715b 07be 1f6e c5bd
00000130: 43f0 9fbd 9327 ba3d 3203 eabd 8d9d 363e
00000140: 5cd3 c93d b00a 833d f18d 363d 8ab3 243d
00000150: 91e8 39be ec3f 40bb 024d d5bd 8772 41bc
00000160: 5c81 843d f072 f73b cde9 b3bd a7c0 973c
00000170: bf3e adbc f521 35bd 733c 1e3d 05c2 2bbe
00000180: dd0c 193e a8f0 c2bd 512d 9dbd a496 f0bd
00000190: a571 fbbd dce3 19be 2812 473d bd9d 333e
000001a0: f8b7 9f3d 5087 eabd e52a 91bd e76c b9bd
000001b0: 9530 80be b5c2 f03c f62b 193e 7df9 35be
000001c0: 4009 8bbd d6d5 c73c 2d4c b6bc 7826 38bd
000001d0: efd3 91bd 78b6 dabd 6b28 6b3d 1518 9ebd
000001e0: a9b1 dabc 9ee0 89bd 3f78 5f3d fa53 a3bd
000001f0: 5e42 b9bc eede 6dbd bfcf 4abe 5a89 f6bc
-0.046805505 -0.11541384 -0.04471838 -0.15204383 -0.119836725 -0.25058898 0.16061766 -0.07672184
0.11394256 0.09159462 -0.04112905 0.10060984 0.09015483 0.020285804 0.11325728 0.27966648
-0.1244503 -0.22804704 0.17552897 -0.02781537 -0.1469817 -0.05647848 -0.15548469 0.013277675
-0.032363087 -0.00905036 0.006275317 -0.17505468 0.02275484 -0.062940754 -0.011533512 -0.14743637
-0.0019347677 0.10898583 -0.17977458 0.06055425 -0.08092968 -0.16815853 0.10307775 -0.122980915
0.27207017 -0.23003256 -0.055180017 0.060538165 -0.12715623 -0.10558636 -0.084018104 -0.09165631
0.058218647 -0.18326715 -0.12630245 -0.13128962 -0.1501654 0.02047421 0.015204342 0.0059903758
-0.041609228 -0.15643004 -0.0754592 -0.06352044 -0.11154637 0.03375688 -0.077980906 -0.1465843
-0.069324724 0.066548705 0.017645245 0.049727984 0.08723703 -0.02240076 -0.041001026 -0.037303716
0.033288192 -0.17919794 -0.13218476 -0.096401446 -0.07809498 0.090895794 -0.11426391 0.17833538
0.09854767 0.06398523 0.04456896 0.040210284 -0.18155123 -0.0029334975 -0.10415079 -0.011807091
0.06469986 0.0075515434 -0.08784828 0.018524481 -0.021148084 -0.044221837 0.038631868 -0.16773231
0.14946313 -0.09518558 -0.07674659 -0.117474824 -0.12277535 -0.15028328 0.0486013 0.17540641
0.07798761 -0.1145159 -0.070882596 -0.090539746 -0.25037065 0.029389719 0.14958176 -0.17770953
-0.06788874 0.024393957 -0.02225312 -0.04495856 -0.07120501 -0.106793344 0.057411592 -0.07719437
-0.026696043 -0.067322955 0.054558035 -0.07975002 -0.022614654 -0.05807393 -0.19805811 -0.030094791

network_body._body_endoder.seq_layers.0.weight f4 [128, 3]
00000000: 20be 703e ae6c 21be 8c82 f8bd 7009 13bf
00000010: 1e0e 2a3f 3ffa 803f e132 16bf 4d7e 00bf
00000020: 30c6 833f 5687 9dbe e266 2bbe 7b1c 373f
00000030: a087 503f 2354 1fbe 923d 3cbf 5bdd d2bd
00000040: 7bb6 3abf 04b6 0fbf 26a8 183f df3c efbe
00000050: 7208 ecbd 3edb e6bd 51c9 0dbe ded2 3c3e
00000060: 2b8e 2b3f 4458 debe 9f59 d33e bed2 47bd
00000070: 3e73 163f 9275 1d3d b52c a3be 6529 44bf
00000080: 2156 753f 1b1a 9fbf 63ad 813e 8a53 90bf
00000090: c4d8 03bf ea12 153f 13cb d03e a287 60bf
000000a0: b80b 5cbe f5a0 47be fd44 58bf 3c5f 8e3e
000000b0: 92d6 0cbf d899 69bf b9dc 403f 083e dd3c
000000c0: 3f5a 7c3f b076 193e f976 643e 54a0 573e
000000d0: 8d9d 20bf 1a78 fcbe 30af 39bf 527c 5e3f
000000e0: ad46 083e 8b07 ba3d 0418 45bf 03d7 13bf
000000f0: 04d6 093f 6f24 ca3d 76c5 3c3f 8bec 32be
00000100: 8d6e f93e cec9 bd3e 9f50 c2bd 23e3 f73e
00000110: bf2c ad3f 0b95 403e 6957 28bf 9557 cd3d
00000120: 2bc8 6dbe 3379 2fbf 7199 ac3e 6ef2 08be
00000130: 2267 863f 8dba 053f d84a 88bd 426a a33e
00000140: 767c fcbd 03da 393c f7ac 78bf 71a6 3cbf
00000150: 01e4 573f 645f f4be ae6c c8be 1005 a6bc
00000160: 776c d4be 41e9 d73e 206a 64bf eb10 933e
00000170: 4d6b f1bd 2677 7a3d 1093 d2bd d44d 933e
00000180: 4c74 553e 3865 e9be e50b 66be d27c 13bf
00000190: 105b 923e 92fd abbe 0755 583e 5d91 283f
000001a0: 3a22 0ebf 3a40 8bbe 60b2 453e d628 823d
000001b0: 7ffb e43d b87f 45bf 59b0 fe3d 6d0e 96be
000001c0: 4d72 84bc aad1 0f3f d7b6 dbbe a01f 6a3e
000001d0: 6e15 18bf 675e 303f 9faa 33be 2db9 b6be
000001e0: d99b 56bf dd63 623f 8c62 1dbe 5f21 693e
000001f0: 8951 303d ed5b 48bf 887c 49be 6293 e0bd
00000200: 69cf bb3e 0f18 c83e b05f 29bf 64ed c3bd
00000210: 583f 32be 77ac 08bf 7a74 e1be 90ae ec3e
00000220: 9b78 c93d c380 fcbc 746e 9abe 7f74 0f3f
00000230: cd44 873f c3c9 c93e 71a8 163f 9ff4 7cbf
00000240: 8aa5 9d3f 9a06 92bf 696e 44bf a4b5 9a3e
00000250: 8dba 303e 1d03 fcbe 36fb 723f ce59 39be
00000260: 0e2c 81bf 4c45 693e cdb2 29bd 26d9 3a3f
00000270: 8d63 46bd 657d 423e 39bd f43e 4f8a babe
00000280: b796 3fbf 50ef 283f 908e 01bf cb16 033f
00000290: 2988 04bf 97fe 893c bca5 643f 6953 35bf
000002a0: 8f46 5abd b4c8 91be 047e 833e 6eb3 aa3e
000002b0: cc38 113c 75d7 30bf 6f07 8a3c 4b81 363b
000002c0: e0e4 44bb 798b a0be 3118 c33e 4cca 26bf
000002d0: e3a6 a1bd 860a 883e c289 293f fd6c a23e
000002e0: cfd1 80bf 67e7 dc3c 4bcc b83e 252b 013e
000002f0: 78ed 95be 3d8d ccbe d808 3cbf 32f1 103f
00000300: e5fb 663f 6652 fcbb 049a debe 5e2f 0ebf
00000310: 8b9f 49bd 6656 83be 55cb adbe ddcf 4dbe
00000320: f441 8ebe 5902 bf3e 3b42 c4bd d72e c3bf
00000330: 0877 e53e f621 83bf 31b9 67be 1faa 6abc
00000340: 6f40 34be 6f46 0b3f d638 e83e 7b7e 1bbe
00000350: bedf 57bd 7578 51bf 67cf f4be 0da7 a33e
00000360: 34c9 313f 92fc f5be f138 6c3f 7006 393e
00000370: 22f3 49bb c11a 6c3e 5a91 793f 996d 8b3d
00000380: a474 0dbf 6e80 333f 6a87 74be 9be3 bfbd
00000390: 3ef4 91b7 f235 71be bae6 8d3f bcf3 9dbf
000003a0: e62f d83e f47e 05bc b34b 073e 2320 b93e
000003b0: b4e6 79bb 71a5 20bf 83d0 f03e ceab d9be
000003c0: 7317 1fbf d2a4 1f3e 5f25 23bd 2034 1ebe
000003d0: 6a49 313d 408c 86be 572b b73e e777 a2bf
000003e0: 1a76 19bd addb 383e 1d51 09bf 2207 213e
000003f0: 5603 dc3d abd8 8abc 991d 63be 6623 cebe
0.23510027 -0.15764114 -0.12134275 -0.57436275 0.6642779 1.0076369 -0.58671385 -0.5019272
1.0294857 -0.30767316 -0.16738465 0.7152783 0.8145695 -0.1555944 -0.7353145 -0.102961265
-0.72934693 -0.5613711 0.59631574 -0.46726128 -0.11525048 -0.11272286 -0.13846327 0.18439814
0.67013806 -0.43426716 0.41279313 -0.048784964 0.58769596 0.038442202 -0.31870046 -0.76625663
0.9583455 -1.2429842 0.25327596 -1.1275494 -0.51502633 0.58231986 0.40779933 -0.8770696
-0.21488845 -0.19494994 -0.8448027 0.27807033 -0.5501491 -0.9125037 0.75336796 0.027007118
0.98575205 0.14986682 0.2231101 0.21057254 -0.62740403 -0.4931038 -0.7253294 0.8690845
0.1330821 0.0908347 -0.7698977 -0.57749957 0.53842187 0.098702304 0.737388 -0.17473046
0.48717156 0.37068027 -0.094880335 0.4841548 1.352928 0.18806855 -0.6575838 0.100264706
-0.2322089 -0.6854431 0.33710817 -0.1337373 1.0500224 0.5223778 -0.066549 0.31917006
-0.123284265 0.011343482 -0.97138923 -0.7369147 0.8433228 -0.47729027 -0.39145416 -0.020266086
-0.41489002 0.42170146 -0.89224434 0.28723845 -0.11788044 0.061148785 -0.10281956 0.28770316
0.20845145 -0.45585036 -0.22465475 -0.57612336 0.285851 -0.33591896 0.21126185 0.65846807
-0.55520976 -0.27197438 0.19306326 0.06355445 0.111807816 -0.7714801 0.124359794 -0.2930788
-0.016167784 0.56179297 -0.42912933 0.22863626 -0.594077 0.68894047 -0.17545556 -0.35688153
-0.83831555 0.8843363 -0.15369624 0.22766636 0.043046508 -0.7826527 -0.19676411 -0.10965611
0.3668168 0.39080855 -0.6616163 -0.09566763 -0.17406976 -0.5338816 -0.44034177 0.4622693
0.09837457 -0.030823117 -0.30162394 0.56037134 1.0567871 0.39411744 0.5885077 -0.9881076
1.2316144 -1.1408265 -0.7673097 0.30216706 0.17258663 -0.49221125 0.9491457 -0.18100664
-1.009157 0.22780341 -0.041430283 0.7298759 -0.048434783 0.18993147 0.47800615 -0.36433646
-0.7483935 0.6599016 -0.5060816 0.51206654 -0.51770264 0.01684503 0.8931539 -0.708304
-0.053289946 -0.28473437 0.2568208 0.3334002 0.008863639 -0.6907876 0.016849248 0.002784806
-0.0030043647 -0.3135641 0.38104394 -0.6515243 -0.07893159 0.2657053 0.66225827 0.31723776
-1.0064029 0.02696581 0.36093363 0.12614115 -0.29282737 -0.39951506 -0.73450994 0.56618035
0.9022811 -0.0077002523 -0.4347688 -0.55541027 -0.049224418 -0.25651854 -0.33944193 -0.20098825
-0.27784693 0.3730648 -0.09582945 -1.5248669 0.44817376 -1.0244739 -0.22629239 -0.014322787
-0.17602704 0.5440435 0.45355862 -0.15184967 -0.05270361 -0.8182443 -0.47814485 0.31963387
0.69447637 -0.48044258 0.92274386 0.18068862 -0.0030815084 0.23057081 0.97487414 0.068080135
-0.55256104 0.70117843 -0.23879781 -0.09369584 -1.7399081e-05 -0.23555735 1.1086037 -1.2340007
0.42224044 -0.008147944 0.1321247 0.3615733 -0.0038131895 -0.62752444 0.47034082 -0.4251389
-0.62145156 0.15590218 -0.03983056 -0.15449572 0.043282904 -0.26278877 0.35775253 -1.2692841
-0.037466146 0.1805255 -0.53639394 0.15725377 0.10742824 -0.016949018 -0.2217926 -0.40261382

network_body._body_endoder.seq_layers.2.bias f4 [128]
00000000: b5f8 90bd e68d b2bd 4c16 42bd 87f5 f1bd
00000010: b8c8 0c3d 72e9 83bd affc 033e e976 f83c
00000020: 764a 0bbd 5c02 25bd ecbb 5fbd ecd2 b0bd
00000030: e151 e3bd 2dc5 533d 9ff3 bf3c 8769 39bd
00000040: 3785 0cbb c9d6 41bd a31b ebbd 284a 843d
00000050: 66ea fbbc 4bd9 973d 9fb0 413d 96a4 0cbe
00000060: 4d9e 39bd cae3 7ebd 54ca 1a3e b3e9 ce3d
00000070: f101 763d 1440 aa3a 3097 54bd 3212 063e
00000080: 8612 91bd 3398 813b 55ff 75bd 1915 943c
00000090: 5b98 573e 43b2 583d e465 a3bb bad2 f5bb
000000a0: 49e7 c6bd 1032 a53d 0d36 dd37 e97e dcbc
000000b0: e3aa fe3d 90a9 a63d a697 853d c44e 09be
000000c0: 6b86 03bd 966c 7f3d b5b0 d3bc 5562 dfbd
000000d0: 980a 5a3d 725c 1ebd 2a3c 52bc e362 b2bd
000000e0: 01ad c63c a608 d1bc da4a 62bd 25a9 023e
000000f0: d0dd 8fbd 9325 9e3d 60e4 633d ef5c 29be
00000100: 75c5 0b3d b8d2 68bb 2372 13bd d705 5f3b
00000110: a47e 143c d4e8 62bc cde3 763d 88b3 39bc
00000120: 2998 343d a550 12bd 1d22 993d b99c 20bc
00000130: 9350 ad3d d282 273e 2eb5 9a3d 3e83 d93d
00000140: 4c53 9bbd 36be 18bd 7c71 a8bd 599e 72bd
00000150: 19ef 303d 332b f3bc 7226 b5bc 51f4 ac3d
00000160: f103 06bd a064 b13c 5c72 35bd a9c0 a33c
00000170: 56e8 e1bc 0725 16be e9a7 d5bd e3d3 3bbd
00000180: acbd e83b cbd8 e7bc 789f dc3d 4cd4 c33b
00000190: 7973 f3bc 364c d239 6747 02bc f451 bc3d
000001a0: 5c56 66bd c635 f1bd a709 9a3c 352d 393d
000001b0: 42db 02bd 2792 7cbd 0eab 343d ab32 7ebc
000001c0: f4c1 f1bd 7ac3 533c 8188 8dbd af9c 343e
000001d0: 5bde b5bd 0306 a63d 621f 533d 5c69 b1bd
000001e0: 68ae 273e c852 a33d f28c 923c 3903 1e3d
000001f0: caea b2bd f682 61bd 5c45 133d c897 a63d
-0.07078687 -0.08718471 -0.047384545 -0.11814409 0.034371108 -0.064410105 0.1288936 0.030330138
-0.03400656 -0.040285453 -0.054622576 -0.0863398 -0.110996015 0.051701713 0.023431597 -0.045266654
-0.0021441707 -0.047323976 -0.11479881 0.06459457 -0.030751418 0.07414492 0.04728758 -0.1373466
-0.045316983 -0.062228955 0.15116245 0.10103168 0.060060445 0.0012989067 -0.051901996 0.13092878
-0.07083611 0.003954911 -0.060057957 0.018076466 0.21054213 0.05290438 -0.0049865115 -0.007501927
-0.09712083 0.08066189 2.6370422e-05 -0.026915984 0.12434938 0.0813781 0.06523065 -0.13408953
-0.032110613 0.062359415 -0.025841096 -0.10907427 0.05323276 -0.03866238 -0.012831727 -0.087102674
0.024252417 -0.02551682 -0.055247165 0.12759836 -0.07024729 0.077220105 0.055637717 -0.16539358
0.034123857 -0.0035525989 -0.03599752 0.003403058 0.009063397 -0.013849456 0.06027584 -0.0113343075
0.044090424 -0.03572144 0.0747721 -0.009802991 0.08462634 0.16358498 0.075540885 0.106207356
-0.07584247 -0.037290774 -0.082247704 -0.059233043 0.04319677 -0.029683685 -0.022113059 0.08445037
-0.032718603 0.021654427 -0.044298515 0.019989328 -0.027576607 -0.14662562 -0.10432417 -0.045856368
0.007102689 -0.028301617 0.10772604 0.0059762355 -0.029718148 0.00040111103 -0.007951594 0.09195319
-0.056234702 -0.117778346 0.01880343 0.04520913 -0.03194738 -0.06166282 0.044108443 -0.01551501
-0.11804572 0.012925023 -0.06910802 0.17637895 -0.088803016 0.081066154 0.0515436 -0.08662674
0.16375124 0.07974774 0.017889474 0.038577292 -0.08736189 -0.055056535 0.035954818 0.08134419

network_body._body_endoder.seq_layers.2.weight f4 [128, 128]
00000000: f51c 97bd 0bee a9bd f94d f1bc 05f2 8a3b
00000010: 07c7 a4bd d297 093e bf0f 81bd 656b 8d3d
00000020: 4c2d 56bd a8ab cfbd 15a3 babd efba 0ebe
00000030: 0a4d 54bd 3bc7 933d 6ddb 0e3d 6198 dfbd
00000040: 882c 97be e784 e1bd 9144 a7bd 7d11 49bd
00000050: 5db9 76be dfa1 313d 0802 8abe cb3c 0ebe
00000060: 3dd8 23be 84b1 adbc 753d 333d 1173 623d
00000070: 06ab 003e 832d cbbd 20dd 80bd e043 5fbe
00000080: 17ef 99bc 1404 1cbe b10c a5bd 6207 d6bd
00000090: dd61 c53d aca3 b2bd 3edb d43d 8084 39bc
000000a0: 0d75 af3d 8a68 e1bd c617 45bb bbce 33bc
000000b0: 1f00 5bbc cc39 57be 684f 46be 1e90 a03d
000000c0: eb74 9cbd 0041 ca39 16a9 9fbb e92f cb3c
000000d0: 6114 2ebe c696 13be c2ce 95bd 098b 02be
000000e0: 8d41 8cbd d9af f1bd 48d2 d8bd 0039 2abe
000000f0: 6c24 15bd 6ddb a7bd f3e4 5bbd c859 7d3d
00000100: 46ef 79be 591f 973d cf0e f3bc 1258 30be
00000110: 5389 46bd a4cc cabd 9f39 da3c 78c6 e3bb
00000120: a1e7 a1bd a3fe f6bd da71 babc f871 35be
00000130: 3a8f 6abd d6bc dcbd 02b6 0fbe 53f0 9c3d
00000140: 197c c33d d050 c3bd e3dc 7cbd 30cd 0cbb
00000150: 6e5f a4bd 6c1d a33c 9bdf 8bbd 46c8 e0bd
00000160: b95c b0bd 15d9 cfbd dfcd 5fbd 3eef 09be
00000170: 2b1d 51bb 9ab6 50be 5200 09bd bf96 183e
00000180: d548 fdbd f372 56bd ebaa b03c 8e1c 17be
00000190: 7e5b 82bc ec4d 85be 35cf f6bd 9339 713d
000001a0: a900 823d bde6 d5bd 185c 11bd 47f8 023e
000001b0: 515f a0bd a5e3 753c 0871 39bd abdd 763d
000001c0: 0d6c 86bd 5006 bfbc 3556 79bd becd 2f3d
000001d0: 3ac0 b13b 2242 15be dd0d 91bd 41e8 2dbe
000001e0: 7ed0 853d 94e7 9e3d 2367 c8bd c6de ebbd
000001f0: 05b8 a9bd 50ad e6bd 5074 f339 c26d 36be
00000200: a647 33be 90df 243d 942f 00be be8e edbd
00000210: 1065 4d3d 51e7 e13d ac45 253d f87c 073e
00000220: de7e 6fbd 5faa 763d 76f5 3bbe 75ad 9dbd
00000230: 4c46 003d a0dd 9c3d 70e8 443d 2de1 d33d
00000240: 1d05 aebd cfa0 0cbd 0113 2e3e 8047 1ebe
00000250: 7f7b b5bc 92c8 bdbd 729b 73bd c8e2 eb3d
00000260: 786c aa3d c31b 04be 42c0 013d 1d15 b8bd
00000270: 2211 003e 0931 543d 40f2 c5bc 2e9e 0d3d
00000280: a316 edbd 3ec0 00bb ad46 3d3b 6cd5 b63a
00000290: 40c1 953d 8bb1 0eb9 8e0f 753e 0cb1 fabc
000002a0: 257d ca3d efff 193e 0b75 aa3d 9b64 7dbe
000002b0: 9797 1abd 44bf 2b3e 90b5 ab3d 1d5c 9cbd
000002c0: 30c2 6fbd c2f3 963d f370 79be 8bad 013e
000002d0: 2e96 16be 4f29 59bd d1d9 45be b8d1 123d
000002e0: 166f 4f3d b56c a43c b37f 1cbd e804 a0bd
000002f0: 2594 62bd dd70 1cbe a549 9abd df19 2e3e
00000300: 1c20 30be ff16 89bd dac6 86bd 3eea 92bd
00000310: 7d86 36bd 6ea8 f0bd 44df db3c 1f5f 4e3d
00000320: 0be9 64be e11c 96bd 9aff c2bd 6bbe b13c
00000330: ffac a13c 3a5b 623d 2909 1cbe 45ca 123a
00000340: 992b 52be af57 fc3c 2a68 1bbe 270e b63c
00000350: 3ba4 a83d 843b bf3c aa8c 533e dfb1 263d
00000360: 1bc5 dc3d 0a6e 6a3d 0411 92bb 5520 a8bd
00000370: 68e4 1e3d 3618 b93c 2952 35bd 5d6b 12be
00000380: e978 063d eb58 37be 97bf 4f3e 37d7 c6bd
00000390: 87e8 6a3d 5d53 5f3d 70e0 2fbe 897f a6bc
000003a0: 8edc 043d 4480 063e b5b5 98bc 8553 dd3c
000003b0: cd8c af3c 1490 27bd 08cf 283e 4689 b13d
000003c0: a642 103e a41a 1bbe 1fd8 25bd 3ffa e03c
000003d0: bda6 ec3c 8330 04bd 06df df3d 63f4 323d
000003e0: 9eff 603d cc57 38be d920 a8bd 420d 78bc
000003f0: 4bef 3c3d 6fa4 373e 0510 c3bc aa32 953d
-0.0737857 -0.08297356 -0.029456126 0.0042402768 -0.08045774 0.13436821 -0.063018315 0.069052495
-0.052289292 -0.10140163 -0.09113137 -0.13938497 -0.051831283 0.072157346 0.03487723 -0.10917736
-0.29526162 -0.11011677 -0.08167375 -0.049088944 -0.24094148 0.043367263 -0.26954675 -0.13890378
-0.16000457 -0.02120281 0.043759782 0.055285517 0.1256524 -0.0992079 -0.06292176 -0.21803236
-0.018790765 -0.1523593 -0.08059061 -0.10450627 0.096378066 -0.08722624 0.1039338 -0.011323094
0.085672475 -0.11006267 -0.0030073985 -0.010974581 -0.013366728 -0.21018142 -0.19366229 0.07839988
-0.07639488 0.0003857687 -0.0048724515 0.024803119 -0.16999961 -0.14412984 -0.073148265 -0.1274835
-0.0684844 -0.118011184 -0.10586983 -0.16623306 -0.036411688 -0.08196149 -0.05368514 0.0618532
-0.24407682 0.07379026 -0.029670147 -0.17221096 -0.048470806 -0.09902313 0.026638804 -0.0069511496
-0.07905508 -0.12060287 -0.022759367 -0.17719257 -0.057265498 -0.10778205 -0.14034274 0.07663026
0.09545154 -0.09536898 -0.06173409 -0.0021484606 -0.08026014 0.01991149 -0.06829759 -0.10975699
-0.086114354 -0.10148827 -0.054639693 -0.1347017 -0.0031908255 -0.20382157 -0.03344757 0.14901255
-0.12367407 -0.052355718 0.021565875 -0.14756986 -0.015912767 -0.26036012 -0.1205124 0.058892798
0.06347782 -0.104444005 -0.035488218 0.12790023 -0.0783068 0.015007888 -0.04527381 0.060269993
-0.06563578 -0.02331844 -0.06087323 0.04292082 0.0054245265 -0.14576009 -0.07082722 -0.16983129
0.06533907 0.07759014 -0.09785297 -0.115171 -0.08287052 -0.112635255 0.0004643523 -0.17815307
-0.175078 0.04025227 -0.1251815 -0.115994915 0.05014521 0.11030448 0.040349647 0.13231266
-0.0584706 0.060221072 -0.18355355 -0.076991 0.03131704 0.07659459 0.048073232 0.10345683
-0.08497069 -0.034333047 0.16999437 -0.15456963 -0.022153614 -0.092667714 -0.059474416 0.115178645
0.0832147 -0.12901215 0.031677492 -0.08988402 0.12506536 0.051804576 -0.024163365 0.03457468
-0.11576583 -0.0019645835 0.0028881237 0.0013949103 0.0731225 -0.00013608315 0.23931715 -0.030602
0.09887151 0.15039037 0.083231054 -0.24745409 -0.037742224 0.16772181 0.0838424 -0.07634757
-0.0585348 0.07370712 -0.24359493 0.12663858 -0.14705727 -0.05301791 -0.19321372 0.035844535
0.05064305 0.020071367 -0.03820772 -0.07813436 -0.055317063 -0.15277429 -0.07533578 0.17002057
-0.17199749 -0.06693839 -0.06580897 -0.071735844 -0.04456185 -0.117508754 0.02683986 0.050383683
-0.22354524 -0.07329727 -0.095214084 0.021697244 0.019735811 0.05526278 -0.1523787 0.00055995985
-0.20524444 0.03080353 -0.15176454 0.022223545 0.082344495 0.023343809 0.20659128 0.040696975
0.107797824 0.057233848 -0.004457595 -0.08209292 0.038792044 0.022594552 -0.044267807 -0.14298768
0.032830153 -0.17905013 0.2028793 -0.09709018 0.05735066 0.05452286 -0.1717546 -0.020324485
0.0324369 0.13134867 -0.018641332 0.027017364 0.021429444 -0.040908888 0.16485226 0.08668761
0.14087924 -0.15146881 -0.040489312 0.027463077 0.0288881 -0.032272827 0.1093121 0.043690097
0.054931276 -0.18002242 -0.0820939 -0.01513988 0.046126645 0.1793382 -0.02381135 0.07285054
